model_save/TGCN.pth (torch, 159886 bytes, 10 tensors)

conv1.bias f4 [64]
000000 00 00 00 00 64 09 97 3d f5 e3 0b bd a1 e2 a9 3d
       0.0 0.07374838 -0.034152944 0.08295179
000010 fd a3 5a 3a 69 e9 26 bd 02 14 a9 3d cb 68 e6 bc
       0.0008340476 -0.04074994 0.08255769 -0.028126141
000020 ff 95 f0 ba 51 13 03 bd 3c 07 71 bc 59 97 a9 3c
       -0.0018355249 -0.032000843 -0.014711197 0.020702051
000030 a9 35 6a bd 99 0b 02 bd d1 20 2f bd e1 d7 fe bc
       -0.05718008 -0.03174934 -0.042755906 -0.031108798
000040 df 91 4e ba 16 89 df 3d 56 05 76 3d 00 00 00 00
       -0.0007880013 0.10914819 0.060063682 0.0
000050 4d c1 3c bd 10 a8 3d bc d0 73 e2 3c 5c c1 52 bd
       -0.046082783 -0.011575714 0.027643114 -0.051453933
000060 98 a7 02 bd 64 e1 8d bd ae 7d 4b 3d 96 64 9a bc
       -0.03189811 -0.069277555 0.049680404 -0.018846791
000070 2d 9a 41 bc 4f ca 83 3d 4a aa 36 3c 2a 66 61 3d
       -0.0118165435 0.06435072 0.0111489985 0.055029072
000080 ef a0 f4 3c 7e 28 7b bd 9e ca 6f bc 00 00 00 00
       0.029861895 -0.061317913 -0.01463571 0.0
000090 d5 10 6b 3d 00 00 00 00 9f 5e 16 bd 7b f7 29 bc
       0.0573891 0.0 -0.03671133 -0.010373945
0000a0 02 73 0f 3a be 30 45 3d f9 25 67 bd 20 f3 ab bc
       0.00054721546 0.048142187 -0.056432698 -0.020989954
0000b0 00 00 00 00 7d 81 b2 bb e7 12 87 3d e4 ef 0e 3e
       0.0 -0.005447565 0.06595402 0.13958699
0000c0 65 48 1c 3d f1 a8 73 3d 86 2e 9e 3d f8 c6 6a bc
       0.03815498 0.059487287 0.077237174 -0.014329664
0000d0 02 5f 8c bd 00 00 00 00 76 67 bb 3d 21 50 bf 3d
       -0.06854059 0.0 0.09150593 0.09341455
0000e0 6c a6 2c bd c0 32 99 3d 01 f1 1e 3c 86 79 6d bd
       -0.0421509 0.07480383 0.0097010145 -0.057977222
0000f0 91 1e 97 3d 9b c6 d6 bc 16 4e a0 3c 97 e8 b5 3d
       0.07378877 -0.02621775 0.019568484 0.088822536

conv1.lin.weight f4 [64, 30]
000000 91 c4 67 be ee 94 42 be ad b3 65 be 41 ae de bd
       -0.22633578 -0.19002125 -0.22431822 -0.1087308
000010 56 71 02 be 06 33 00 be 8d c1 fe bc d7 95 dc bd
       -0.12738547 -0.12519464 -0.031098152 -0.10770767
000020 39 94 65 be 7b fc b7 bd ea 23 7c ba 55 8b 9d 3a
       -0.22419824 -0.08983704 -0.0009618389 0.0012019674
000030 f4 bf 89 3c ab 79 15 bd bd 3f c9 bc cf 7d 7a be
       0.016815163 -0.036492985 -0.024566526 -0.24462055
000040 e0 bc 07 3b b8 c7 1c bd 10 b5 31 3e 7e dd 70 3e
       0.0020711944 -0.038276404 0.17354226 0.23521993
000050 1a ba 69 3e 5f e9 fa 3b 3b 01 81 bd 9c 8f e2 3d
       0.22824898 0.0076572145 -0.06299063 0.110625476
000060 0f 6d 0d bd 20 ac 62 3e f6 55 30 be 6b bb 71 bd
       -0.034527835 0.22135973 -0.17220291 -0.059016626
000070 cd 17 9e bd 85 d8 1d be a5 dc e5 3d c5 b9 e9 bd
       -0.077193834 -0.15414627 0.11223725 -0.11412386
000080 2d 7a 2c be 5e 2e 00 bd 11 53 01 3e a7 7f 85 3d
       -0.16843481 -0.03129422 0.12629344 0.065184884
000090 e8 e2 ca bd 6d 16 7c 3d 26 6b 17 bc 89 f4 29 3e
       -0.0990656 0.061544824 -0.009241855 0.16597189
0000a0 99 26 12 be 9f 0f a9 3e 46 1a 8e 3d 79 fb 27 bc
       -0.14272536 0.3301973 0.06938605 -0.010252827
0000b0 2f 78 17 3e f7 e1 4d 3e 5a c8 35 bc 9c 87 6a 3e
       0.1479194 0.2010573 -0.011095131 0.22903293
0000c0 a6 11 0d bd b0 0d 7f 3e 7e 2d 68 3e 81 30 32 3e
       -0.03444066 0.24907565 0.22673604 0.17401315
0000d0 0b 23 d4 3d 95 be 45 3e 2e c7 86 3c 5a b9 da 3d
       0.103582464 0.19310983 0.016452398 0.10679884
0000e0 06 01 82 3e 89 b2 8f 3e 83 2c e1 bd ae 66 0e 3e
       0.25391406 0.280659 -0.10994818 0.13906357
0000f0 fe 4a 48 be 3e bc d5 bc 6e 3e 0d 3e 7d 1c 47 be
       -0.19559857 -0.026090737 0.13793346 -0.19444461
000100 96 ac 48 be 3d 57 42 be 88 2b 6e be 44 ad 8e be
       -0.19597086 -0.18978591 -0.23258793 -0.27866566
000110 85 4e cb 3c 95 cc 56 3e 46 93 39 be a8 5c ef bd
       0.024817714 0.2097648 -0.18122587 -0.11687595
000120 c9 08 11 3e 98 dc 2b bd 57 ed 13 3d 2d 7a 88 be
       0.14163508 -0.04195842 0.036115017 -0.26655713
000130 ac ae 06 be 6f b6 54 bd 76 08 4c 3e 69 6d 31 be
       -0.1315257 -0.051931795 0.19925103 -0.17326893
000140 1b 35 b1 bd c2 49 5e be 3b 99 fa 3d c9 51 0a be
       -0.08652707 -0.21707824 0.12236258 -0.13507761
000150 b0 68 79 be ab 43 12 3e 2e 1a 19 3e eb d0 88 be
       -0.24356341 0.14283626 0.14951393 -0.26721892
000160 b4 69 f6 3a 09 aa 25 be d1 b9 2c 3e ce 0a 85 3e
       0.0018799813 -0.16178145 0.16867758 0.25984806
000170 d9 5f 3e be 27 75 b5 bd 13 bf aa bd 5a ab 41 3e
       -0.1859125 -0.08860236 -0.08337226 0.18913022
000180 18 ec ce bd 2b 41 f4 3d 88 3f 46 3d b1 36 97 3e
       -0.10103625 0.11926492 0.048400432 0.29533914
000190 0d 69 7d 3e 12 5e e4 3c 48 9e 21 be 6c 33 f2 bd
       0.24747105 0.027876887 -0.15783036 -0.11826214
0001a0 4d 71 a9 bd 09 31 2b 3d 84 5b fc bd 1d 08 2d be
       -0.082735635 0.04179481 -0.12322143 -0.16897626
0001b0 4d 96 1a be 24 88 87 3e 99 62 1b 3e 76 d6 e4 3d
       -0.15096398 0.26471055 0.15174331 0.11173718
0001c0 af 65 5f be 57 d0 0a 3e 36 59 bc bd ac 65 20 be
       -0.21816133 0.13556038 -0.09196703 -0.15663785
0001d0 b8 22 16 bd ee bc 4c 3d 6e ab 78 3e ea f3 32 3e
       -0.036654204 0.049984865 0.24284145 0.17475858
0001e0 7a ff 02 bd 1e 38 3e bd 31 99 0a 3e bf 12 c0 3d
       -0.031981923 -0.046440236 0.13535 0.093785755
0001f0 ef d0 69 3d d8 5d 24 be 23 13 0b 3e 73 35 82 3e
       0.05708402 -0.16051424 0.13581519 0.25431404
000200 b2 9b 0a 3e 81 b3 18 bd 1a 12 22 3e 8e 57 19 3d
       0.13535956 -0.037280563 0.15827218 0.037437014
000210 ff 73 54 be cd c7 fd 3d 61 44 76 3e c0 97 9e 3c
       -0.20747374 0.123916246 0.24049522 0.01935947
000220 a2 ab 50 3e 10 78 6f be 0e 33 56 be 4a ba 29 3e
       0.20377973 -0.23385644 -0.20917913 0.1657497
000230 cd 48 20 be 42 e0 1b be b3 76 4f 3e ba ac 76 be
       -0.15652771 -0.15222266 0.20260124 -0.24089327
000240 12 65 cc bd 57 89 4b 3e 3e d5 72 3e d1 e0 1e 3d
       -0.09980215 0.1987661 0.23714158 0.03878862
000250 81 13 30 3e 12 dc 6f 3d af 17 0d be c5 73 1b 3d
       0.1719494 0.058559485 -0.13778566 0.037952203
000260 a4 34 2f bd 10 0d 13 3e 71 af 03 be 54 27 fd 3c
       -0.04277481 0.14360452 -0.12859894 0.030902542
000270 5a da 02 be e8 45 5c 3e 3d 0c 9f 3d b5 99 64 bd
       -0.12778607 0.21511042 0.07766006 -0.05581065
000280 b9 ec d9 3d f8 73 0f 3e ca 44 73 3d a8 f2 0a 3e
       0.106408544 0.14009082 0.059391774 0.13569129
000290 46 e0 71 bd c4 c9 8a be 15 19 9d 3d f8 92 50 3e
       -0.059051774 -0.2710706 0.076708 0.20368564
0002a0 9b ce 59 be a6 55 3f 3c 04 e1 00 3e 8d 2e 68 be
       -0.2127022 0.011678135 0.12585837 -0.22674008
0002b0 f0 fa 54 3b 49 94 a0 bd cb fa b4 3d 77 70 cf bd
       0.0032498203 -0.07840783 0.088368975 -0.10128873
0002c0 81 64 7b 3d c7 fa 2b bd 97 94 44 3e f0 fe 83 3d
       0.061375145 -0.041987207 0.19197308 0.0644511
0002d0 30 6c b0 3e 87 ed 58 3e c6 bf 68 bd 46 d1 ea bb
       0.3445754 0.2118436 -0.056823514 -0.0071660606
0002e0 c1 0b 83 bd aa 1d 46 3e e8 c0 de 3d 29 22 a7 bc
       -0.06398726 0.19347253 0.10876638 -0.020402031
0002f0 18 43 1c bd 97 ea 05 3e b6 bf cb 3d 79 b7 bb bd
       -0.038149923 0.1307777 0.09948675 -0.09165854
000300 9a b3 48 3d 86 73 07 bd b7 97 0d be 6a fe 1b be
       0.048999406 -0.033069156 -0.13827406 -0.1523377
000310 63 fe a6 bd 5f 11 1c 3d 98 4d 9a 3e 17 52 47 3e
       -0.08153989 0.038102504 0.30137324 0.19464909
000320 d0 ad f3 bd ab bd c0 3d 03 27 15 3e 55 73 a2 bc
       -0.118983865 0.09411176 0.14565663 -0.019830385
000330 de 1f 1a be 56 df 9d 3d 7a 18 2e 3d 06 62 7d bc
       -0.15051219 0.077086136 0.04250381 -0.015465265
000340 67 d3 76 3d 0b d5 41 be b0 ac 2f bd 27 52 89 bd
       0.060260203 -0.18928926 -0.042889297 -0.067051224
000350 9b 4f 62 bd c4 3c 4c 3e c8 39 d8 3d 9f b8 35 be
       -0.0552517 0.19945055 0.10557896 -0.17746209
000360 62 b3 73 be 0c fa 42 3e d3 1b 15 3e 92 97 e9 3d
       -0.23798898 0.19040698 0.14561395 0.11405863
000370 1d c9 9e bd af ff 89 be 40 03 8f be 05 5c 6b be
       -0.07753203 -0.26952884 -0.27932167 -0.22984321
000380 2e 92 2a be 5a 9a f5 3d 18 84 0b 3e a1 a4 2c 3e
       -0.16657326 0.11992331 0.13624609 0.16859676
000390 c1 12 bc bd 69 20 79 be 87 d5 1e 3d 6a a9 11 bc
       -0.091832645 -0.2432877 0.038777854 -0.008890489
0003a0 76 8b 57 3e 53 00 7e bc 60 9f 03 3e e5 8e 6e 3d
       0.21049294 -0.015503007 0.12853765 0.058241744
0003b0 55 90 d7 bd 99 a0 fd 3d dc de 82 be 2c 99 97 bd
       -0.10525576 0.12384147 -0.25560653 -0.07402262
0003c0 cc a1 dc 3d 83 10 9f 3d 6f 9d 65 be c2 2f 21 be
       0.10773048 0.07766821 -0.22423337 -0.15740874
0003d0 ab 9b 23 be a3 e8 22 bd 6e e5 08 be 4a 78 9a 3d
       -0.15977351 -0.03977264 -0.1336877 0.075424746
0003e0 f7 9a 57 3d d4 cc 4e 3e 9d 04 3f be 31 2c 9f 3c
       0.05263802 0.20195323 -0.18654104 0.019430252
0003f0 3c c9 fc bd b2 dc 6a be 81 1e 26 3d 09 05 4a be
       -0.1234307 -0.22935751 0.040556435 -0.19728483

conv2.bias f4 [30]
000000 00 00 00 00 00 00 00 00 00 00 00 00 00 00 00 00
       0.0 0.0 0.0 0.0
000010 00 00 00 00 00 00 00 00 00 00 00 00 00 00 00 00
       0.0 0.0 0.0 0.0
000020 00 00 00 00 00 00 00 00 00 00 00 00 00 00 00 00
       0.0 0.0 0.0 0.0
000030 00 00 00 00 00 00 00 00 00 00 00 00 00 00 00 00
       0.0 0.0 0.0 0.0
000040 00 00 00 00 00 00 00 00 00 00 00 00 00 00 00 00
       0.0 0.0 0.0 0.0
000050 00 00 00 00 00 00 00 00 00 00 00 00 00 00 00 00
       0.0 0.0 0.0 0.0
000060 00 00 00 00 00 00 00 00 00 00 00 00 00 00 00 00
       0.0 0.0 0.0 0.0
000070 00 00 00 00 00 00 00 00
       0.0 0.0

conv2.lin.weight f4 [30, 64]
000000 1d ae b2 3c f9 10 bf 3d be 71 e3 3d 98 6d 6e 3e
       0.02181154 0.09329409 0.11105679 0.23283994
000010 27 07 6d 3d 3c 0d 0d 3e db 49 3d be 8d 96 8e bc
       0.05786815 0.1377458 -0.18485205 -0.017405773
000020 f7 f5 d6 3d 07 8c cf 3d 82 5a 81 be 66 96 53 3e
       0.10496133 0.1013413 -0.25264364 0.20662841
000030 9e 6c 5b 3e 7e c3 fc bd b3 c6 c2 3d 55 cf 69 3e
       0.21428153 -0.12341975 0.09510555 0.22832997
000040 27 6d 02 be 99 10 95 3b 56 49 5c be 24 66 1a be
       -0.12736951 0.0045490977 -0.2151235 -0.15078026
000050 7f 71 53 be 04 f7 89 3d 7b 4f 28 be 10 63 e0 3d
       -0.20648764 0.067365676 -0.1643657 0.10956395
000060 0b 4c 2c 3e 24 3d 2f bc 2e 58 02 3e c7 5d 18 3e
       0.16825883 -0.010695729 0.1272895 0.14879523
000070 dd fb 40 bd 9d be 7e bd 6e 7e 96 bd 31 5f ae bc
       -0.047115196 -0.0621935 -0.07348333 -0.021285625
000080 32 d2 84 3d 36 0c c5 3d d5 dc 5c be 67 e0 f1 3a
       0.06485404 0.0962147 -0.21568616 0.0018453718
000090 5f 4b 51 3d 88 18 75 3d a1 9b c6 3d e3 c4 52 3d
       0.05109727 0.059837848 0.096976526 0.051457297
0000a0 e0 fb 33 be e2 24 8d 3d fb 6e 4b be 4d 4f 75 be
       -0.17576551 0.068918005 -0.19866554 -0.23956032
0000b0 23 ff 42 3d 98 17 0b be bb f2 ca bc c4 42 45 3d
       0.0476066 -0.13583219 -0.024773946 0.048159376
0000c0 3d f8 55 be 84 07 47 3e 6b 6f 70 be 5a cd 5b 3d
       -0.20895477 0.1943646 -0.23480003 0.053662635
0000d0 7f fd ad 3d 05 a3 13 bd b5 57 c5 3d 18 2d 06 3e
       0.08495616 -0.03604414 0.096358694 0.1310314
0000e0 00 1a 92 3d ab 16 5e be ae b0 7f bd 64 7e dc 3d
       0.07133865 -0.21688335 -0.062424354 0.107662946
0000f0 31 87 7f 3e f5 69 3a be 10 54 5f 3e 93 c4 0b be
       0.24953915 -0.18204482 0.21809411 -0.13649206
000100 26 74 61 3e 65 9f 02 3e 31 1b 28 be 0c 0b 75 bd
       0.22016963 0.12756117 -0.16416623 -0.05982499
000110 d7 da 76 3d 27 52 0c 3e b2 95 a3 3d 60 4a f6 bd
       0.060267296 0.13703214 0.079875365 -0.12025905
000120 35 d4 30 3e df 7a 0a 3e 1f 74 7a 3e 50 57 99 bc
       0.1726845 0.13523434 0.24458359 -0.018718392
000130 6b 98 13 3e 3e ee 08 3e 67 f5 33 be 1c 2e 39 3e
       0.14413612 0.13372132 -0.17574082 0.18083996
000140 ec 03 27 3e 95 2e 75 3e 45 60 4b 3e 04 5b 49 be
       0.1631009 0.23943551 0.19860943 -0.19663626
000150 4b 4e 3c 3e 84 1e 13 be ef ec 7e be de 78 4f 3e
       0.18389241 -0.1436711 -0.2489507 0.20260951
000160 bb f6 87 3c 44 eb 1e be 70 5e 9d bd 99 72 74 3e
       0.016597142 -0.15519434 -0.07684028 0.2387184
000170 1d a8 d7 bb d7 f0 6a bd 65 6c 57 3e c3 24 ac 3d
       -0.00658132 -0.05735859 0.21037443 0.08405449
000180 f8 d6 74 bc 2e 2b 77 bd 8a e2 d2 3d 5f 34 9d 3d
       -0.014943831 -0.060343914 0.10297115 0.076760046
000190 4c eb 5d be 58 f3 bd bd b9 38 e1 3d f8 41 5b 3e
       -0.2167179 -0.0927493 0.10997147 0.21411884
0001a0 e5 7b 79 be b7 84 b4 bd 74 ef 49 3d f9 28 0f be
       -0.24363668 -0.08814376 0.049300626 -0.13980474
0001b0 f8 b2 a1 3c 0c 94 8f bd ec cc e2 bc 06 26 20 be
       0.01973866 -0.070106596 -0.027685605 -0.15639505
0001c0 03 f2 22 be 89 10 0c be dd 2a b0 3d 2c db 5f be
       -0.15912633 -0.13678183 0.086019255 -0.21860951
0001d0 bc af 1e be 7b a8 1d be 69 62 61 be 67 c2 5d 3e
       -0.15496725 -0.15396301 -0.22010197 0.2165619
0001e0 57 87 ef bd 3a 8e 43 3a 01 43 a7 bc 3a 59 62 3e
       -0.11695736 0.0007459853 -0.020417692 0.2210435
0001f0 99 0f d2 3d c0 5c 62 3d 43 80 ad bd 7e b0 9e bd
       0.10256881 0.055264235 -0.084717296 -0.07748507
000200 75 7c 64 be 91 cd 50 3e 9c d5 ad bd 69 bc 03 be
       -0.22313102 0.20390917 -0.084880084 -0.12864842
000210 93 0c c3 bd d4 e7 39 3e 4a fc 2e 3e 21 91 b1 bd
       -0.09523883 0.18154842 0.17088428 -0.08670259
000220 42 dd 0f be ac 02 4b be 56 68 4a 3e 3e 6a e3 3d
       -0.14049247 -0.19825238 0.19766364 0.111042485
000230 2d 9f 6f be 19 08 80 be 80 cc 08 be 0c a0 1d bd
       -0.23400564 -0.25006178 -0.1335926 -0.03848271
000240 85 de 78 bd 47 39 54 be 1e 1e 43 3e fb 65 74 3e
       -0.060759086 -0.20724975 0.19054458 0.23867027
000250 e6 f0 74 bd 77 b4 69 be 65 44 18 3e 0b 2b 44 be
       -0.05980005 -0.22822748 0.1486984 -0.19157045
000260 01 1e 7f 3e 18 61 fb bd a2 15 dd 3d 4d 7b c0 bc
       0.2491379 -0.122743785 0.10795142 -0.023496294
000270 95 af 05 be 17 b0 9b 3d 7f 10 44 bd 56 b6 4a be
       -0.1305526 0.07601946 -0.047867294 -0.19796118
000280 25 d0 73 be c5 17 81 3e 71 74 9e 3d 1d 20 77 be
       -0.2380987 0.25213447 0.07737053 -0.24133344
000290 62 14 f2 bd 6a 7a 89 3d 83 2a 59 be 39 79 77 be
       -0.11820294 0.06712802 -0.21207623 -0.24167337
0002a0 20 6c 48 be d5 45 75 3e 5e 52 7a 3e 7f 0a 4b be
       -0.19572496 0.2395242 0.24445483 -0.19828223
0002b0 eb df 72 3e 2a bc 80 bd d8 55 5c 3d 9b 47 96 3c
       0.2371823 -0.062858894 0.053792804 0.018344691
0002c0 56 ee 71 be 48 91 d9 3d f6 fa 27 bd 74 1c 17 3e
       -0.23626074 0.10623413 -0.04101082 0.14756948
0002d0 1f 62 88 bd f9 01 75 3e a6 cf 71 be d4 da 71 3e
       -0.0665934 0.23926534 -0.23614368 0.23618633
0002e0 e5 4f d9 3d 22 ce 4e bd cc b3 a0 3c 69 32 65 3b
       0.10610942 -0.050489552 0.019616984 0.0034972674
0002f0 dd 0f 40 be 0b 5c 12 be 6e ab 7f be 74 ad 72 3e
       -0.18756051 -0.14292924 -0.24967739 0.2369898
000300 57 fd 08 3e c0 f1 76 be 28 8a 7c 3e 73 1c 33 3e
       0.13377891 -0.24115658 0.24662077 0.17491321
000310 52 13 60 be ad 43 6b 3d 6a 99 c9 3d 9a 6f 59 be
       -0.2188237 0.057437588 0.098437145 -0.21233979
000320 9f ff 6b be b2 85 8f bd 42 43 46 3e eb 8c 1c 3c
       -0.2304673 -0.07007922 0.19361594 0.009555082
000330 8e 15 2a be 91 8e 33 3e e5 e3 f7 3c 89 65 69 3e
       -0.16609785 0.17534854 0.030260036 0.22792639
000340 25 21 46 3e ba 7f 19 be a1 cd 76 be 64 99 e8 3d
       0.19348581 -0.1499013 -0.24101879 0.11357382
000350 8a f9 a5 bd 7a 6a 3b 3e 71 11 c2 bd c1 4c 2f 3e
       -0.081042364 0.18302336 -0.09475983 0.17119123
000360 3f 4b 5a be 97 72 57 3e cd 7f 5e bd 0a 44 10 3e
       -0.21317767 0.21039806 -0.0543211 0.14088455
000370 59 46 c1 3d e7 12 c8 bd d0 e4 23 be 63 09 1a 3e
       0.09437246 -0.0976923 -0.16005254 0.15042643
000380 7d bc a6 bd 0a ae c4 3d ba 41 10 3e 59 b7 a7 bb
       -0.0814142 0.09603508 0.14087573 -0.0051182923
000390 4d 7a 95 3d a3 fe 66 3d 95 a7 e6 bd 8f 32 3f be
       0.07298718 0.056395184 -0.112624325 -0.1867163
0003a0 be 18 74 3e b1 92 74 be 5a e3 31 be f8 cf 92 3d
       0.23837563 -0.23884083 -0.17371884 0.07168573
0003b0 34 72 80 3e de c3 85 bd d9 8d 14 be 24 f8 8d bc
       0.2508713 -0.06531499 -0.14507236 -0.017330237
0003c0 91 a4 5c 3e 1a 14 27 be 6b 0e 3a be b3 60 73 3e
       0.21547152 -0.16316262 -0.18169563 0.23767357
0003d0 8c 34 1e 3e be fc 61 be 61 45 d4 3d be 60 69 bd
       0.15449733 -0.2206907 0.103647955 -0.056977026
0003e0 ca ca 30 be d7 52 78 3d 58 95 5e 3e 81 5d 67 3e
       -0.17264858 0.060625877 0.21736658 0.22594263
0003f0 c5 bc 5b bd 4d b0 76 bd 52 07 70 3d 4d af c2 bd
       -0.05364682 -0.060226727 0.05860073 -0.09506092

lstm.weight_ih f4 [256, 64]
000000 10 ff 29 bc 14 c9 86 bd b6 73 a6 bc 08 81 88 bd
       -0.010375753 -0.06581321 -0.020318847 -0.06665236
000010 11 ca 0a be 81 a3 dd 3b e4 f6 53 3d 10 58 95 bd
       -0.13553645 0.006763876 0.051749125 -0.07292187
000020 2f 8a 9f 3d 03 6a 4f ba 6f b4 f0 3c e9 21 a2 bd
       0.07790028 -0.00079122203 0.029382912 -0.07916624
000030 76 f5 a6 bd 64 c1 ae bd 61 32 bd 3d a0 35 81 bd
       -0.08152287 -0.0853298 0.09238125 -0.06309056
000040 67 eb f6 bd 27 fe 90 bd a0 30 b4 3d 72 95 9d 3d
       -0.12056618 -0.07079726 0.08798337 0.0769452
000050 f6 71 69 bc 0c 38 b9 3d 2f 2f 8c bd 4c 96 4b bd
       -0.014248362 0.09043893 -0.06844937 -0.04970388
000060 60 c1 c5 bd 57 27 94 bc 39 eb 6b 3d e0 08 ee bd
       -0.09656024 -0.018085165 0.057597373 -0.116227865
000070 e4 ee 02 3d e3 12 14 3c 27 83 5a bd a0 3b 78 3c
       0.031966105 0.009037706 -0.053347733 0.015150934
000080 63 fc 0b be 70 e4 c0 bd 7b 86 18 3e 00 33 07 bd
       -0.13670497 -0.09418571 0.1489505 -0.03300762
000090 ac 61 71 bc 1a 04 ca 3d 9f 07 01 bd 0c f0 e2 bd
       -0.014732759 0.098640636 -0.03150141 -0.110809416
0000a0 ae 28 10 be cd 9e 4a bb a3 76 5b bc ed 79 65 bd
       -0.14078018 -0.0030917407 -0.013394984 -0.05602448
0000b0 40 87 20 bb b5 f0 c8 bd 42 b9 b8 bd ba 33 98 bd
       -0.0024494678 -0.09811536 -0.0901971 -0.07431741
0000c0 8f 78 22 bd 66 f6 5b 3c 88 7b b7 bd 40 e4 72 bd
       -0.039665755 0.013425445 -0.089591086 -0.059299707
0000d0 29 09 b8 bd c0 31 f3 bd c7 0a a6 bc d8 6d 00 3e
       -0.08986122 -0.118747234 -0.02026881 0.12541902
0000e0 b3 9a 9c 3d be f1 1f be 02 0a d9 bd 36 71 12 bd
       0.07646694 -0.15619561 -0.10597612 -0.035752498
0000f0 3d f5 14 be ae 01 09 be 12 b9 f4 bb b7 36 a2 3a
       -0.14546676 -0.13379547 -0.007468351 0.0012375925
000100 8e fb c6 bd 47 75 7b 3d 7c 17 34 bd d7 0e e0 ba
       -0.09715949 0.06139114 -0.04396771 -0.0017094266
000110 93 a2 33 bd 96 31 7b 3d 02 e4 ab 3d d7 81 91 bd
       -0.043856215 0.061326586 0.083930984 -0.07104843
000120 07 e9 96 bd c4 60 73 bd 1a 5e ec 3d 33 f7 56 bc
       -0.07368665 -0.059418455 0.11541386 -0.01312046
000130 ca cd 24 3e 96 66 3c bd 0d 49 97 3d dd 84 0d 3e
       0.16094127 -0.04599627 0.0738698 0.13820215
000140 8b f7 ae 3d cb cc f3 3d 21 eb 05 3d e0 11 ea 3b
       0.08543309 0.119042955 0.03269494 0.007143244
000150 5c 04 92 3d 85 2a c6 bd d6 4d 03 3e 1d 53 f6 bc
       0.07129738 -0.09676079 0.12822661 -0.030068928
000160 ea fa 44 bc 35 3d 27 3e 97 60 f3 3d ab 6e 93 bd
       -0.012022713 0.16331942 0.118836574 -0.071988426
000170 97 9e 2d 3d cc 2f a5 bc 9f 01 ad bc 64 7f c2 3d
       0.04238757 -0.020164393 -0.021118937 0.09496954
000180 7d fe 1f 3e 53 f1 a6 3d 51 1e 76 bd b4 8b bd 3d
       0.15624423 0.08151498 -0.060087506 0.09255162
000190 cb 09 ba bd 60 f3 e7 bc cd 35 21 3d 1c 9d 14 bd
       -0.09083899 -0.028314292 0.03935795 -0.036282644
0001a0 44 27 cf 3d af 67 f0 bd 15 0c 32 3e 6b 4f 07 3d
       0.10114911 -0.11738526 0.17387421 0.033034723
0001b0 30 19 30 bd f4 ab 83 bd b8 f5 97 3d b7 42 ea 3d
       -0.04299277 -0.06429282 0.07419914 0.11438506
0001c0 a2 03 84 3d 0a 8d d3 3d 61 0b 1f 3d a4 54 7d bd
       0.064460054 0.103296354 0.03882921 -0.061848298
0001d0 34 b5 92 3c 26 92 80 bd 94 41 6a ba 05 b2 28 3e
       0.01790867 -0.062778756 -0.00089361635 0.16474159
0001e0 fc 70 80 3d b2 85 de 3d d8 36 b2 3c 21 1e a4 3c
       0.0627155 0.10865344 0.021754667 0.020033898
0001f0 67 70 fc 3d 80 73 82 bd 6a f6 8d bd ca 04 91 bd
       0.123261265 -0.06369686 -0.069317654 -0.070809916
000200 24 20 3e bd a0 59 57 3d 3b 34 8d 3b 0e be 1f be
       -0.04641737 0.052575707 0.004309205 -0.15599844
000210 1c 09 67 bd ee 39 74 bc 9f 0a 7d 3d 10 0a a9 bb
       -0.05640517 -0.01490639 0.061777707 -0.0051586702
000220 ff 5b 64 bd 3f 46 00 bd 81 7d 67 bd 99 68 00 be
       -0.055751797 -0.031316992 -0.056516174 -0.12539901
000230 7d af 71 3b 3f ea f8 3d e3 91 59 3d 76 2a e3 bb
       0.003687828 0.12154054 0.053117644 -0.006932552
000240 b0 49 a0 3a 76 d9 b2 bd ec 91 30 bc a4 02 ba bd
       0.0012228992 -0.08732884 -0.010776978 -0.09082535
000250 77 9e e0 bd 80 43 8f 3c 15 ff d2 bd 99 7a 08 bd
       -0.10967725 0.017488241 -0.10302559 -0.033320043
000260 3f 55 01 be 23 07 df bd 33 b9 87 bd 05 18 54 3d
       -0.12630175 -0.10890033 -0.06627121 0.05178072
000270 f4 2c 13 bd ac 0e 3a bd 4a de 61 3d 94 87 82 3d
       -0.035931543 -0.04542415 0.055143632 0.06373516
000280 c5 42 af 3c 13 8c 6d bd 3d ce 8c bd c0 32 d2 bb
       0.021394143 -0.057994913 -0.06875274 -0.0064147413
000290 fe cb 90 3d c0 fb bb 3b 15 b7 1d 3c 77 30 e7 3d
       0.070701584 0.005736798 0.00962617 0.11288541
0002a0 e3 d1 d7 bd 9a 2c f3 bc bb 2d 23 3c 55 f1 78 bc
       -0.105380796 -0.029684354 0.009959633 -0.015194257
0002b0 70 e8 6c bd 41 31 97 3d 9d a8 1b bd 14 4d 4d bd
       -0.057838857 0.07382441 -0.0380026 -0.050122336
0002c0 96 44 25 bb 91 06 88 3d b5 12 d2 bd a5 43 cd bd
       -0.0025217882 0.066418774 -0.10257474 -0.10022668
0002d0 e7 b4 93 bd 04 be 5e bd b9 34 09 3d ac 72 cf 3c
       -0.07212239 -0.05438043 0.033497546 0.025323234
0002e0 3c 9d 9b 3d c5 78 05 be 3e 99 cb bd a8 be 0c be
       0.075983495 -0.13034351 -0.09941338 -0.13744605
0002f0 51 47 c3 bd 31 f9 2a 3d 92 82 87 bd ee b6 1e bd
       -0.09535087 0.041741554 -0.06616701 -0.038748674
000300 64 01 a8 3d d0 4b c3 3d ca ea d4 bc 20 42 07 bd
       0.0820339 0.095359445 -0.025990862 -0.033022046
000310 46 83 65 3d 54 25 2b bd 2e d3 e5 3d be 9e c1 3d
       0.056033395 -0.041783646 0.1122192 0.09454106
000320 bf 30 de 3d 82 ab 92 bc a9 73 43 bd 0e 72 01 bd
       0.10849141 -0.017904047 -0.047717724 -0.03160291
000330 83 35 a2 bb 17 ec b9 3d 42 f6 1d 3b 70 0f 44 3d
       -0.0049502268 0.09078234 0.002410308 0.047866285
000340 ac 2d 87 3c c8 5e 77 bc 6a fd 1f 3e 00 3b 3e ba
       0.01650127 -0.015098281 0.15624014 -0.00072567165
000350 4a 70 0a 3e 1b 14 5f 3d a8 a0 4f 3d f6 91 14 3e
       0.13519397 0.054462533 0.050690323 0.14508805
000360 db 08 6b bd 70 42 65 bd f5 68 1e bd bc cd 81 bd
       -0.057381492 -0.055971563 -0.038674314 -0.06338069
000370 c0 f6 0d 3e c7 89 be 3b 25 42 b9 bd a4 b6 91 3d
       0.13863659 0.005814764 -0.09045819 0.07114914
000380 61 99 aa 3d 6e a4 8c bd 10 f3 3b bd 26 e3 88 3d
       0.08330036 -0.068673 -0.0458861 0.0668395
000390 10 7c c7 3d 68 61 a2 bd 8c 2b 9e bd 6d 2c ce 3c
       0.0974046 -0.07928735 -0.0772315 0.025167668
0003a0 8e e0 8e bc fa fa f8 3d 15 81 96 bd a4 e9 81 bd
       -0.01744106 0.12157245 -0.07348839 -0.063433915
0003b0 04 d6 25 bd e7 5e c9 3c 4a 82 06 bc 5a e9 61 3d
       -0.040487304 0.024581386 -0.008209774 0.055154182
0003c0 e8 42 83 bc 62 28 c2 bc 4e 56 26 3c b5 05 29 3e
       -0.016023114 -0.023700897 0.010152413 0.16506083
0003d0 7c 50 aa 3d 0c c4 c1 bd 4e 4e 1b bd 53 33 1a bd
       0.083161324 -0.09461221 -0.037916474 -0.037646603
0003e0 da 04 b1 3d f7 a4 f7 3d 4a 80 dd bb 8b 54 84 bc
       0.086435035 0.120920114 -0.006759678 -0.016153594
0003f0 bd 17 df 3d 4d 20 69 bc 38 4d e4 3d 5e ed 33 3e
       0.108931996 -0.0142288925 0.11147541 0.17571017

lstm.weight_hh f4 [256, 64]
000000 09 63 95 3d a7 10 fa 3b 11 2d 33 3d 24 4b b3 3c
       0.0729428 0.0076313796 0.04374415 0.021886416
000010 d7 25 f6 3d df 53 26 bd 89 c7 34 3b 51 d1 2d bd
       0.12018936 -0.04060733 0.0027584753 -0.042435948
000020 58 85 62 3d 86 20 a0 3d 14 4b aa bc 44 ae af bd
       0.055302948 0.07818703 -0.020787753 -0.085781604
000030 c9 8a c5 bc 2c 76 8a bd e5 ab 65 bd 4f 1e e9 3d
       -0.02411403 -0.06760821 -0.056072135 0.11382734
000040 49 b7 21 bd ee 68 8a bd 7b 59 15 3e b2 27 32 3d
       -0.039481435 -0.06758295 0.14584915 0.043494888
000050 c1 71 b0 3d 14 a8 78 bd 1c 35 95 3d df 73 24 bd
       0.08615447 -0.060707167 0.072855204 -0.040149566
000060 23 8d 3f bd 4e e6 e7 bd ed 5b 46 bd 3e 96 db 3d
       -0.046765458 -0.11323224 -0.04842751 0.10722016
000070 96 52 a9 bc 9c 04 c5 bd cb 1a 98 bd ed 2d 45 3c
       -0.020669263 -0.0962002 -0.07426985 0.012034875
000080 0d 19 06 3d c4 a8 89 3c 58 ea 17 3e 38 fe 44 bd
       0.032738734 0.016804107 0.14835489 -0.048094004
000090 78 ba 04 3e b1 23 0f bd d1 16 62 3c e2 63 e2 3c
       0.12961757 -0.034946147 0.013799385 0.027635518
0000a0 c8 de 83 bd 6f ea 6e bd 9f 9a 23 bd 25 48 97 bd
       -0.064389765 -0.058329042 -0.03994238 -0.07386807
0000b0 8c af bb bd e0 25 1b 3e eb 73 a4 bd 7d c5 c9 bd
       -0.09164342 0.15151167 -0.08029922 -0.09852121
0000c0 91 29 48 bd 58 98 89 bd 0b f0 18 be 23 2d 0f be
       -0.048867766 -0.067185104 -0.14935319 -0.13982062
0000d0 65 62 13 3d bf 45 65 bd 1f 6d df bd 3b 03 90 3d
       0.03598251 -0.05597472 -0.10909485 0.07031866
0000e0 e7 eb 62 bd 06 d2 aa 3d f4 a5 c2 bc 78 1e 79 3d
       -0.055400755 0.0834084 -0.023760773 0.060820073
0000f0 63 ba f1 3d 74 d3 41 3d ed c1 2e 3b db c5 c7 3d
       0.118031286 0.047320798 0.0026665882 0.09754535
000100 c2 07 17 bb 3d 1a 0b be 13 78 a1 39 9d 45 4e bd
       -0.0023045396 -0.13584228 0.00030797775 -0.050359357
000110 08 ee 2b be 72 a0 b0 bc c4 a5 2a bd d2 59 16 bd
       -0.1679002 -0.021560881 -0.041661993 -0.036706753
000120 78 8d a1 bd 39 57 09 be 00 a4 22 3e 59 57 b2 bb
       -0.07888311 -0.13412179 0.15882874 -0.0054425416
000130 48 ca f5 3c a5 23 27 bd 08 64 5b 3d 50 2a 6c bd
       0.030003682 -0.040805478 0.053562194 -0.05765754
000140 2d 57 2c 3e a8 63 b4 3d 43 aa 57 bd 51 8e aa 3d
       0.1683013 0.088080704 -0.05265261 0.08327926
000150 3c 6b 3f be 88 f8 81 3b 4c 78 a9 3d af 46 b9 bb
       -0.1869325 0.003966395 0.08274898 -0.005654178
000160 a9 3c 36 3d 65 d5 02 3e 54 81 bb bb 4a 34 12 bd
       0.044491444 0.12776716 -0.005722204 -0.035694398
000170 06 c3 66 3d 61 3d 43 bd be df e9 bd 54 36 b5 bd
       0.056338333 -0.047665957 -0.114196286 -0.08848253
000180 f8 d8 05 3d b9 f4 84 bd 16 9c f9 bd 3d 08 b3 bc
       0.03267762 -0.0649199 -0.12187974 -0.021854514
000190 07 29 39 bd 70 75 1a 3a b7 03 d0 bd bf f4 89 bd
       -0.045205142 0.00058921333 -0.101569586 -0.06736135
0001a0 8b 7d 2d 3d 61 53 02 3d bd 11 10 bd fa 86 12 3e
       0.042356055 0.031817798 -0.035173167 0.14309302
0001b0 57 9b 0d be 2a 72 8a bd df 12 47 be f9 d9 6b 3d
       -0.13828789 -0.06760056 -0.19440793 0.05758092
0001c0 2d 2f f3 3d e7 a5 eb 3d 53 c6 8a bd 75 9d 8e 3c
       0.118742324 0.11506253 -0.067761086 0.017409066
0001d0 52 1d ee 3d 18 3f 56 3d ff d2 19 3e e3 b6 fe bd
       0.11626686 0.052306265 0.15021895 -0.124372266
0001e0 a3 5d 1e be 62 01 32 be 2c 0b a3 3d 8e 41 e6 3d
       -0.15465407 -0.1738334 0.07961115 0.11242972
0001f0 9c 90 d1 bd ce 15 9d 3d 20 ef d2 bd c8 05 81 3c
       -0.1023266 0.076701745 -0.10299516 0.015749827
000200 f6 d2 8f 3d 3a f8 1c bd 45 80 e9 bc c7 8c 15 bc
       0.070226595 -0.038322665 -0.028503546 -0.009127802
000210 3f 1b 83 bd 37 e3 20 bd 0b 5d e1 3c e5 ac 36 3e
       -0.06401681 -0.03927919 0.027510187 0.17839392
000220 ff b6 6e 3d cb 9d 4d 3e 5e 9b 50 3d ae 35 13 be
       0.058279987 0.20079724 0.05092942 -0.14375946
000230 91 6d 3b 3d 6d c2 0e 3c 1c 22 11 bd 0d bf 8f bd
       0.045758788 0.008713347 -0.03543292 -0.07018862
000240 59 ce 97 bd ec a9 33 bd 4d 0a 8f bd f2 4b 59 3d
       -0.074124046 -0.043863222 -0.069843866 0.053050943
000250 4a a1 b7 3b 40 78 b5 3d b4 9a 13 be 68 7e b2 3d
       0.005603944 0.088608265 -0.14414483 0.08715516
000260 86 22 b4 bb a1 14 a4 bc 1f b7 92 bd 2d 8d de bb
       -0.0054972796 -0.020029368 -0.07163834 -0.006791732
000270 4c 1a 1f bd 25 93 46 3d a9 63 50 3d 65 be ad bd
       -0.038843438 0.04848017 0.050876293 -0.084835805
000280 f4 87 d6 bb 61 fc 00 be 21 d0 c5 3d d3 ba 9a 3d
       -0.0065469686 -0.12596275 0.09658838 0.07555165
000290 8b 65 96 3d 5b cb 77 3c 9f 6e f9 3c 53 11 c5 3d
       0.073435865 0.015124167 0.030448256 0.09622445
0002a0 9d c6 b3 bc 4c 80 3b 3d f2 93 01 be 3b 25 6b bd
       -0.021945292 0.04577665 -0.12654093 -0.057408553
0002b0 b8 14 44 3d 39 60 91 bd ee 6f 6c 3d 41 70 e5 3c
       0.04787132 -0.07098431 0.057723932 0.028007628
0002c0 37 63 4e bd 44 c0 e7 bc 12 b8 84 bc 03 86 1b bd
       -0.050387587 -0.028289922 -0.016201053 -0.0379696
0002d0 c0 f5 a0 bd db ac b3 3c f1 7d 2c bd 8d ed 96 bb
       -0.07859373 0.02193301 -0.042112295 -0.004605955
0002e0 34 c0 c5 bd df e8 7b ba 6f b6 8c bd 1c 09 92 bc
       -0.096558005 -0.00096095906 -0.06870734 -0.01782661
0002f0 2b c1 e0 3d 3a 7d e4 bd b9 6c 94 3d 46 9d 0e 3b
       0.10974344 -0.111566976 0.072473 0.0021761223
000300 4d f2 8f 3b d5 df 1c be d7 39 3c 3d 4a f4 d3 bd
       0.004392898 -0.1531976 0.045953598 -0.10349329
000310 a9 ed e1 3b 36 8b fc bd 15 10 3f 3d ba 94 26 be
       0.0068947864 -0.1233124 0.046646196 -0.16267672
000320 b9 b7 1e be 42 64 08 be f8 2b 3c 3d 31 0b ce 3d
       -0.15499772 -0.13319495 0.04594037 0.10060728
000330 9f 60 0e bd 8e 2d 4a 3c 1c 92 88 bd 10 c0 16 be
       -0.034760114 0.012339963 -0.06668493 -0.14721704
000340 96 dc 64 bd 94 d4 fc bc 00 ca 96 bd b1 0c d7 3d
       -0.05587443 -0.030863084 -0.07362747 0.105004676
000350 26 3e 11 be 7b 91 a7 bd 4e b7 29 3e 5c a6 c6 3d
       -0.14183864 -0.08182045 0.16573831 0.09699699
000360 f7 37 cf 3d 96 19 99 bd 81 db 2d bd 1c 96 18 be
       0.10118096 -0.07475583 -0.042445663 -0.14901012
000370 f6 4f 2a be 7a 4a f5 bd 28 5d a6 bd d3 eb c7 bd
       -0.16632065 -0.11977096 -0.08123237 -0.09761777
000380 80 bc be bd 73 7a 89 bd c6 e9 ec 3d b1 5b 21 be
       -0.09313297 -0.067128085 0.11568026 -0.15757634
000390 94 46 ed bd 64 97 54 bd 10 64 a7 bd ff c0 ab 3d
       -0.11585727 -0.05190219 -0.08173382 0.083864205
0003a0 59 f5 65 bd 6e 10 cd bc 69 8c cb 3c a9 07 8c 3c
       -0.056142185 -0.025032248 0.024847226 0.017093496
0003b0 72 7d dd bd 8b ac 74 3d 94 cd 1c be a0 65 69 bd
       -0.108149424 0.059734862 -0.15312797 -0.056981683
0003c0 3f 97 5a 3d b3 b4 3e bd 8a 83 38 3e 0e 8a 22 3e
       0.053366896 -0.046559047 0.18018928 0.15872976
0003d0 79 00 38 3e 46 2c 11 3e f9 c3 0c 3e f3 9b d1 bd
       0.1796893 0.14177045 0.13746633 -0.10234823
0003e0 85 6a 62 3c 68 62 6e 3d 7f ce 5f 3a 0e c1 f6 3a
       0.013819342 0.058199316 0.0008537545 0.0018825845
0003f0 d0 8d 2b 3b 5d 88 c7 bc 45 96 21 be b8 d8 a8 3c
       0.0026177056 -0.024357015 -0.1577998 0.020611152

lstm.bias_ih f4 [256]
000000 3a 22 93 3d 80 a2 0e 3e ce 7d fa 3c 51 34 08 3e
       0.071842626 0.13929176 0.030577566 0.13301207
000010 8b 70 e3 bc 3e 0c a7 bd 78 8c 87 3b 04 a7 53 3d
       -0.027763626 -0.08156632 0.004136618 0.05167295
000020 59 80 be 3d 9d 61 ea 3d b4 ea 61 bd 02 9a 28 3d
       0.09301824 0.114443995 -0.05515547 0.0411625
000030 d7 20 99 3d fe be 0c 3e d1 a7 89 bd 17 92 5d 3d
       0.07476967 0.13744733 -0.067214616 0.0540944
000040 6e f8 85 bc 2a fb 81 3b f1 b8 c5 bc ea 11 86 3c
       -0.016353812 0.0039667087 -0.024136038 0.016365964
000050 cc b9 0f 3e 73 7d 92 3d 67 fe 01 3c 5b e3 11 3e
       0.1403572 0.07152834 0.007934189 0.14246885
000060 69 19 06 3d 5c 40 e9 3d 7d 67 7e 3d c1 a9 25 3e
       0.032739077 0.11389229 0.062110413 0.16178037
000070 91 c1 0b 3e 05 a4 07 3b f5 e5 0c 3d 03 05 3f 3d
       0.13648058 0.0020697128 0.03439899 0.04663564
000080 4e 01 85 bd c7 16 5b 3c a7 4c b3 bd 62 0f 0a be
       -0.064943895 0.01337213 -0.08754855 -0.1348243
000090 52 8e 04 bd 38 9a 67 3b b5 96 2b 3e 2c 83 2e 3d
       -0.03236229 0.0035339724 0.16756709 0.042605564
0000a0 a1 f0 ef bc 7e 04 86 3d c7 0f cc 3d 26 1d 28 3e
       -0.029289545 0.065438256 0.09963947 0.16417369
0000b0 c9 76 97 3d bd 5c ad 3d 76 a8 9b 3c 49 20 4a bd
       0.07395703 0.08464954 0.019001227 -0.049347196
0000c0 7d 02 a0 bd 06 9d 88 3d 36 76 80 3d c4 ca a2 3d
       -0.078129746 0.06670575 0.06272547 0.07948831
0000d0 18 36 9a 3d 44 9f f5 3c 86 76 11 3e bc 9a a8 bd
       0.07529849 0.02998317 0.1420537 -0.08232638
0000e0 e7 f1 02 3e bc 98 f0 3d 05 61 d0 bb 8d 96 87 3d
       0.12787591 0.11747882 -0.006359222 0.06620512
0000f0 3f b5 a2 bd 6b c5 2e 3d ed 72 90 3d 8c 76 11 be
       -0.07944726 0.04266874 0.0705317 -0.14205378
000100 07 b5 5e bd 0d b3 11 3e 09 d2 a4 3d 9e 1d c3 3d
       -0.05437186 0.14228459 0.080478735 0.095271334
000110 c8 99 2e 3c 85 92 b9 3d 5b 21 f8 3d d3 e1 c5 3c
       0.0106567815 0.090611495 0.12115737 0.024155533
000120 87 70 29 3e 10 8a a3 bc 31 f4 77 3c 5f 81 f0 3d
       0.16546832 -0.019963294 0.015133903 0.117434256
000130 e3 46 d1 3d a3 11 d7 3d 79 c5 92 3d 4a 6b 31 bc
       0.10218599 0.10501411 0.07166571 -0.010828802
000140 09 3d 50 3d 65 17 a5 3d 57 4c ab 3d f8 59 3b 3d
       0.050839458 0.08061103 0.0836417 0.045740098
000150 f8 eb b1 3c f4 39 e6 3d 0b aa 61 bc 11 de 02 3e
       0.021718964 0.112415224 -0.013773452 0.12780024
000160 b4 fd 76 3d 24 3c eb 3d 40 31 9d 3d 92 09 9c 3d
       0.060300544 0.1148608 0.07675409 0.07619013
000170 ea bb b8 3d 53 cc c0 3d 2c c9 52 3d be ee 87 3c
       0.09020217 0.09413972 0.051461384 0.016593333
000180 0d 66 fc 3d 55 04 0a bd bf 50 8f 3d 02 2a 10 bd
       0.12324152 -0.033695538 0.06997823 -0.03519631
000190 ec 86 93 bd 75 6e 10 3d 47 ca 13 3e e3 a3 99 3d
       -0.07203469 0.03526159 0.14432631 0.07501962
0001a0 30 f9 80 bd 38 fa 86 3d b9 76 b5 bc c0 54 2f 3e
       -0.06297529 0.06590694 -0.022151338 0.17122173
0001b0 83 30 6f bd 4a da 05 3d ec 2b df 3d 90 c8 18 3e
       -0.058395874 0.03267888 0.10897049 0.14920259
0001c0 98 92 05 3c b8 28 a3 3d 97 a5 60 3d e9 88 c5 3d
       0.008152626 0.07966751 0.05484542 0.09645254
0001d0 42 f6 87 3c c5 c5 ad bb d9 21 bf 3c db 7c e0 bd
       0.016596917 -0.005303117 0.02333157 -0.10961314
0001e0 0e 47 db 3d e8 f0 2b 3d 9a ef 4f bc aa de 84 bb
       0.10706912 0.041977793 -0.012691403 -0.004054864
0001f0 f1 1e ac bd b3 5f 18 be 07 11 46 3d 35 74 ee bd
       -0.08404339 -0.14880256 0.048356082 -0.116432585
000200 0d f2 ea 3d 4d 1d b5 bd 4c a8 03 be 69 32 29 3d
       0.11471949 -0.08843479 -0.12857169 0.04130784
000210 db c2 a1 3d 73 ae d7 3d 9c 3d 3c 3c 6f 5a 9e 3d
       0.07898494 0.105313204 0.011489298 0.077320926
000220 33 24 13 be 76 6d 37 3d 8c 09 47 bd e7 54 7e 3c
       -0.14369278 0.044782124 -0.04859309 0.015523172
000230 1b 56 b4 bd 25 ac 07 3e 08 27 f8 bc 75 59 6c 3b
       -0.08805486 0.13249262 -0.030292049 0.0036064063
000240 ac 27 59 bd fa ec e8 3d 57 d8 d7 bd cf 6c 02 3e
       -0.05301635 0.11373325 -0.105393104 0.1273682
000250 3c be 45 3d b2 05 c2 bd 29 f8 b1 bd 76 89 29 bc
       0.048277125 -0.094737425 -0.08689911 -0.010347715
000260 b1 1e 2a 3b 66 67 01 3d cb 9a 80 bd 44 09 14 be
       0.0025958235 0.03159275 -0.062795244 -0.1445666
000270 ff 0b e1 bd bb f7 4b 3d 9a 3b bc bd ed fc 34 bd
       -0.10988616 0.0497968 -0.091910556 -0.04418652
000280 57 7e 1b bd 25 00 12 be a9 ec 3c bd 2f 5c df bd
       -0.037962284 -0.14257868 -0.046124134 -0.109062545
000290 b5 be d2 bd 13 49 e9 bd 77 17 b4 bd 54 1c 88 bd
       -0.10290281 -0.11390891 -0.08793538 -0.06646028
0002a0 ef 27 06 3e 2f 24 f0 3c ea d2 e5 bc 50 e7 16 3d
       0.13101171 0.029314129 -0.028054673 0.03684169
0002b0 45 de 83 3d 05 e7 e8 bb 8e 89 eb bd 6f 95 d1 3d
       0.06438879 -0.007107618 -0.11500846 0.1023358
0002c0 c1 15 04 bd f4 75 1a be 58 d3 04 bd 70 85 fd 3d
       -0.03224731 -0.15084058 -0.032428116 0.12378967
0002d0 c1 52 4e bd 22 dc 18 3e 2f 01 12 3e 61 bc bd bd
       -0.05037189 0.14927724 0.14258264 -0.09264446
0002e0 fa 03 bd bc cc 9a c0 3c a1 5a 95 bc c0 18 d3 3d
       -0.023073185 0.023511313 -0.018231692 0.10307455
0002f0 43 19 0a bd c4 65 0d bd 0c d3 88 3d c0 2b ff 3d
       -0.033715498 -0.03452088 0.06680879 0.124595165
000300 67 dd bd bc 59 ed e3 bc ca 86 42 bc 88 86 5d bc
       -0.023176862 -0.027823137 -0.0118729565 -0.013520844
000310 4e 73 37 bd 32 32 10 3e ea 38 68 bd b3 7f b2 3d
       -0.044787697 0.14081648 -0.056694902 0.08715763
000320 d7 40 64 3d 82 e5 be bc 75 f9 18 bd 20 6e 36 bd
       0.0557259 -0.023302797 -0.037347276 -0.044538617
000330 1e 95 15 be 67 fb 49 3c 8c 7b 0d 3e 95 e6 ab 3d
       -0.14607665 0.012328005 0.1381666 0.083935894
000340 fe f2 33 3e 45 15 3a 3e 18 e1 0c 3e 4a 0a 7e bd
       0.17573163 0.18172176 0.13757741 -0.06202153
000350 94 be e3 3d 4d 28 d4 3d 07 c8 7f 3d 96 fe d3 3d
       0.11120334 0.10359249 0.06244662 0.10351293
000360 f6 fb 35 3d d5 86 2e 3d d3 7d 20 3d 4f f9 14 3e
       0.04442974 0.042609055 0.039182495 0.14548229
000370 20 ab 60 bb 4b 8c 22 3d ae d3 2a 3e 0a 5d 37 3e
       -0.0034281686 0.039684575 0.16682312 0.17906585
000380 db e4 21 bd be 46 cc bc a4 d7 b0 3b e6 76 89 bd
       -0.039524894 -0.024936076 0.0053968 -0.06712131
000390 34 a1 2a bd a3 39 08 3e 64 d2 29 3e 6e 18 20 bd
       -0.04165764 0.13303237 0.16584164 -0.039085798
0003a0 51 f6 94 3d a9 09 a6 bd 1d 77 a8 bc 12 8e aa bc
       0.072735436 -0.08107311 -0.02056461 -0.020819698
0003b0 c0 7c 41 3c e2 b4 20 3e 2f 51 41 3d a9 fd 34 3d
       0.011809528 0.15694001 0.047196563 0.04418722
0003c0 d4 0a 46 bd 55 ed 9d bd 4a 87 6f bc 66 04 09 3a
       -0.04835017 -0.07711283 -0.014619658 0.00052267907
0003d0 de cb a8 3c ed ec 27 3c 48 bf da 3d 4d 37 b7 3c
       0.020605024 0.010249359 0.10681015 0.022365237
0003e0 34 33 2b 3e 90 a3 16 3d 4e 5a 60 3b 26 b9 08 3e
       0.16718751 0.03677708 0.0034233513 0.13351879
0003f0 c1 09 94 bd 0f fc 8b bc ff 56 fa bd e1 2c 8a 3d
       -0.07228423 -0.017087964 -0.122236244 0.06746841

lstm.bias_hh f4 [256]
000000 1d 67 ce bc cc 40 8b 3d 95 1a 21 bd 79 e0 7b 3d
       -0.025195653 0.067994684 -0.03933199 0.06149337
000010 f0 d2 e1 bd b4 4e 32 3d 9f 82 e8 3b 02 40 22 3e
       -0.11026561 0.04353209 0.0070956494 0.1584473
000020 2e ca 5c bc 97 31 23 3d 96 8f bf 3d 59 e8 40 3d
       -0.013475938 0.039842214 0.09353559 0.047096584
000030 2e 3b a9 bd 5f 77 1a 3e 77 83 08 3e 54 d4 fe bc
       -0.08263241 0.15084599 0.133314 -0.031107105
000040 54 04 1c 3b 6a 38 0f 3e 22 2d 0e 3a 81 4e 3c bd
       0.002380629 0.13986364 0.00054235954 -0.045973305
000050 71 03 96 bc 06 54 a0 3c fb 83 07 3e fc 25 45 3d
       -0.018312188 0.019571315 0.1323394 0.048131928
000060 19 94 09 3e 8d 87 2a 3d b3 d4 84 3d 20 d8 0c 3d
       0.13435401 0.041633178 0.06485882 0.0343858
000070 d0 5d 6a bd 45 4c bb 3d e9 a0 05 3e 7a 37 c5 bc
       -0.057218373 0.09145407 0.13049664 -0.024074305
000080 be b8 af bd b3 2e 83 3d 5f a5 eb bc 38 5a 32 bc
       -0.08580159 0.064053915 -0.028765379 -0.010885768
000090 3f f4 00 3e 41 5d 9f 3d 0c c3 2c bd 2f 15 0a 3d
       0.12593172 0.07781459 -0.0421782 0.03371161
0000a0 a2 b1 4f bd e0 f2 14 be 69 60 51 3b 4a 27 f8 3d
       -0.050706513 -0.14545774 0.0031948334 0.12116869
0000b0 67 d2 e6 3d 5c a6 07 3e 06 81 1f bd 4c 6f a3 bd
       0.112706 0.13247055 -0.038941406 -0.079802126
0000c0 6f 8c 11 be e5 62 d2 3c 7a b9 6f bd 2b 73 37 3c
       -0.14213727 0.025681922 -0.058526494 0.011196892
0000d0 6c ad 8a bc 14 1e 57 3c 22 92 86 3d b0 58 f2 3c
       -0.016928397 0.01312973 0.06570841 0.029583305
0000e0 1e 4d c6 bd da f7 28 3e 60 a4 0f 3e 0f bd b3 3d
       -0.09682678 0.16500798 0.14027548 0.087762944
0000f0 e4 62 ba bd c7 1e ee 3b bf f2 f9 bd b1 06 31 be
       -0.09100893 0.0072668525 -0.12204503 -0.17287709
000100 a2 26 0a be 4c c6 ed 3c c5 4f d8 bd f5 41 46 3d
       -0.134913 0.02902522 -0.1056209 0.048402745
000110 fa 85 9e bd 2c eb a3 bc a0 bb c5 3d 3b ff e0 3d
       -0.07740398 -0.0200096 0.09654927 0.10986181
000120 28 65 12 3e 08 aa a6 bc 0f 70 98 3d b3 a4 69 3d
       0.142964 -0.02034475 0.074432485 0.057041835
000130 3c d7 1d 3d dd dd 0b 3d cc 3f d9 3d 69 2b db 3d
       0.03853534 0.034147132 0.106078714 0.10701639
000140 d7 8d c3 3d 6a 2a a6 bd 12 8a 03 bd 17 34 92 3b
       0.09548538 -0.081135586 -0.032114096 0.004461776
000150 c9 bd b5 3d f6 68 af 3d 14 de 9f bc 8a 48 4b bb
       0.08874089 0.085649416 -0.019515075 -0.0031018578
000160 e7 7b 89 bd 43 d5 93 3d 28 58 b8 bd 28 0e a6 3d
       -0.067130856 0.07218411 -0.090011895 0.08108169
000170 37 8b 09 bd eb 0e ea bd 93 c9 a5 3d bc fa 18 3e
       -0.03358003 -0.114286266 0.08095088 0.14939398
000180 d5 73 b5 3d b1 57 3b 3e a1 91 79 bd bf f5 ce bd
       0.08859984 0.1829517 -0.0609299 -0.10105466
000190 f3 3f ac 3d c7 a2 d2 3d fb 8d 74 bd 28 c9 fd 3b
       0.08410635 0.102849536 -0.059705716 0.007744927
0001a0 b2 be ac 3d 71 40 d9 bc 59 a5 f7 bc bb ba 42 bd
       0.0843481 -0.026519986 -0.030230211 -0.04754136
0001b0 80 ab 2a 3c 5b 4f 2e 3b e4 7f 58 3d 04 0a 9b 3d
       0.010416865 0.0026597593 0.05285634 0.0757027
0001c0 68 32 2f 3d 09 fc b2 3c 2a c9 40 bc 1a 43 93 3d
       0.04277268 0.021848695 -0.011766711 0.07190533
0001d0 36 26 df 3d b0 f6 9c bd 29 1a e2 3d 16 81 66 3c
       0.1089596 -0.076642394 0.11040146 0.014068862
0001e0 74 8f e0 3d 13 4e c6 3b e9 5c 29 3b 79 1d d0 bc
       0.109648615 0.0060517876 0.0025842732 -0.025404679
0001f0 3e 1c b0 3c e4 d9 9a bd d5 02 50 3b ee 7f 63 bd
       0.021497842 -0.075610906 0.003173997 -0.055541925
000200 e8 98 55 3d 6c 63 76 bd 66 07 1f be 76 3d 22 be
       0.052147776 -0.06015341 -0.15530166 -0.15843758
000210 8e 9e 01 bd 2e ff f9 bd de e1 a4 bd 24 e5 1f be
       -0.03164535 -0.12206875 -0.08050893 -0.15614754
000220 76 2c be 3b 22 b6 17 bc 04 7e f2 3d 4d b6 fc 3c
       0.00580364 -0.009259732 0.11840442 0.030848647
000230 a8 aa 6a 3d 80 01 17 3e 1a cb cc bd 8d f9 55 3d
       0.057291657 0.14746666 -0.09999676 0.052239943
000240 40 12 1f 3d 94 89 d2 3d 96 66 17 3d 7c 5c 17 3e
       0.038835764 0.10280147 0.036963068 0.14781374
000250 12 d0 e6 bc 9c b8 99 3d 6a ff d7 bc 7b ec 04 bd
       -0.028175388 0.075059146 -0.026366908 -0.032452088
000260 a5 37 1c 3d 60 27 73 3b ed 8b 10 be 9b b9 0e be
       0.038139004 0.0037102327 -0.14115877 -0.1393799
000270 65 5a cf bd 3c 34 c1 bd 0a 63 85 3d b8 80 5f bd
       -0.10124663 -0.09433791 0.06513031 -0.054566115
000280 bd 0c 39 be 22 85 16 be 0d e7 5e bd eb bb a2 bd
       -0.18071266 -0.14699224 -0.054419566 -0.07945999
000290 5c 6b 52 bc 5c 1d a0 3d 54 78 0c be 66 47 80 3d
       -0.012842979 0.078181 -0.13717777 0.06263618
0002a0 c4 36 f6 3c 97 7d f4 3d 63 61 be bd 7a 23 22 3e
       0.030055411 0.11938017 -0.09295919 0.15833846
0002b0 04 9d 35 bc 60 fc a2 bd 46 44 3c be 79 fe 48 bd
       -0.011084799 -0.07958293 -0.18385419 -0.04907081
0002c0 ac f8 90 bd e4 a8 c8 bd 06 55 a5 bd f6 b9 c4 3d
       -0.070786804 -0.09797838 -0.080728576 0.09605782
0002d0 d6 5e 10 3d 18 4d 14 bc 8b 76 a4 bd ea f4 72 3d
       0.035246693 -0.009051584 -0.08030423 0.0593156
0002e0 c9 6f 5a bc ba fc 01 be 3a b5 0f bd 3b 90 c2 bc
       -0.013332316 -0.12694064 -0.03508494 -0.023750415
0002f0 9c 29 32 3e cb 3d a8 bd d0 af 0a 3e e4 82 85 bd
       0.17398685 -0.08214911 0.1354363 -0.06519106
000300 f9 ef 65 bd 49 77 16 3e cb e4 cc bc 6b 73 1c 3e
       -0.05613706 0.14693941 -0.02501144 0.15278403
000310 e2 7d ad bd 3b f4 87 bc eb 52 b2 3d 77 f0 12 3e
       -0.08471276 -0.01659595 0.087072216 0.14349543
000320 85 92 90 3c e6 42 84 bc 2e a8 b8 3d c3 1a ed 3a
       0.017647991 -0.01614518 0.09016453 0.0018089641
000330 be 53 93 bd 05 99 8d bd 08 d4 98 3d 47 54 9b 3d
       -0.07193707 -0.06913952 0.07462317 0.07584434
000340 08 a2 b1 bc 10 76 7f bc 4e 10 f7 bb c4 96 b1 bd
       -0.021683708 -0.015592113 -0.0075397855 -0.086713344
000350 1e 30 96 3d e6 ac 06 3c 9b 06 a6 3c 11 cd a5 3a
       0.073333964 0.008219933 0.020266822 0.0012649616
000360 96 57 a7 3c 1c e1 1b 3d 5c 1c 01 bd 6c c0 84 3d
       0.020427506 0.038056478 -0.031521186 0.06482014
000370 85 a3 07 3e 93 9a 16 3d 2e d4 93 3d d0 ec 86 3d
       0.13245972 0.036768507 0.072182044 0.06588137
000380 1f ab 93 3d a8 2f 31 3e 81 79 b1 3d c4 f9 f5 bd
       0.07210373 0.17303336 0.08665753 -0.1201053
000390 f1 aa df 3d b3 8c 23 3d b0 ef f8 3d 44 fd 01 3d
       0.10921276 0.039929103 0.12155092 0.031735674
0003a0 ae b4 cc 3d b9 19 4c bd 38 5a 44 bd d6 d4 61 bd
       0.099953994 -0.04982922 -0.0479376 -0.055134617
0003b0 5a 3c 2e 3e 0c a2 34 3d fa 02 a9 3a c5 14 86 bd
       0.1701521 0.044099852 0.0012894564 -0.0654693
0003c0 fe ac a2 3d 0f 2f 2c 3e da 96 bb 3d 54 85 9a 3d
       0.07943152 0.16814826 0.09159632 0.075449616
0003d0 d9 65 5e 3d 8e aa d9 3c 0c 9e 7f 3d 71 33 8a 3d
       0.05429635 0.026570585 0.062406585 0.06748093
0003e0 ac 4f 39 bd 26 22 1e bd 03 92 59 3c ed fd 22 3d
       -0.045241997 -0.038606785 0.013279441 0.039792944
0003f0 0f 10 a0 bd 11 fc d2 bd 46 3e 09 be 18 cc 9b bc
       -0.07815563 -0.10301984 -0.13402662 -0.019018218
