model_save/TGCN-SF.pth (torch, 164664 bytes, 10 tensors)

conv1.bias f4 [64]
000000 8b 56 69 3c d0 a3 61 bc fd 6f 7f 3c 0a f8 42 3d
       0.014241825 -0.013771966 0.015590665 0.04759983
000010 d0 6d a4 3c 2f 60 85 3c 75 eb 97 3c 37 1f ce 3a
       0.020071894 0.016281215 0.018544892 0.0015725855
000020 18 2f b5 3c 66 6e 98 3c c0 a5 2a 3b 00 00 00 00
       0.022117183 0.01860733 0.0026038736 0.0
000030 5c 43 9c 3c 00 00 00 00 5a fa 30 3d 27 bf ac 3c
       0.019075088 0.0 0.043207504 0.021087242
000040 00 00 00 00 00 00 00 00 84 15 68 3c dc cf af bb
       0.0 0.0 0.014165286 -0.005365355
000050 95 a3 d8 3c 70 4b ed 3c 5c ce 29 bb a4 a6 69 3b
       0.02644519 0.028966635 -0.0025910353 0.0035652304
000060 26 a3 7b 3c 29 d8 89 3c b8 ac 81 bb 11 dd 22 3c
       0.015358722 0.016826706 -0.0039573573 0.009940402
000070 d0 70 8b 3c 5a 00 2f bc f9 a4 a8 3c ac 8c cd 3c
       0.017021567 -0.010681236 0.020586478 0.025091492
000080 31 d5 9d 3c 7a 68 23 bc 00 8e 9e 3c 11 9d f4 3c
       0.019266697 -0.00997364 0.01935482 0.029860051
000090 7d 82 b8 3c be 29 61 3c 8e a3 30 3d be f8 ad 3c
       0.02252316 0.013742862 0.043124728 0.021236774
0000a0 5d d6 9c 3b 88 d6 0f 3b e6 92 bb 3c e7 6a 60 3b
       0.0047862963 0.002194794 0.022897195 0.0034243406
0000b0 5d 77 cb 3c 53 00 27 bc 99 1b 9c 3c 68 1b d8 3c
       0.02483719 -0.010192948 0.019056128 0.026380256
0000c0 fa 2b bc 3c 7a fc 99 3c c9 4e 30 3d 39 79 92 3c
       0.022970188 0.018797148 0.043043885 0.01788007
0000d0 e7 96 c6 3c 2f dd 25 3d 6a f2 db bb 25 69 1c 3d
       0.024241878 0.04049414 -0.0067122476 0.03818621
0000e0 28 4b 55 3c af 4f 8e 3c 20 ac 87 3c 3c 45 98 3c
       0.013018407 0.01737198 0.016561568 0.018587701
0000f0 ae de d4 3c 52 bf 15 3c 77 f1 46 3d 00 00 00 00
       0.025985088 0.009139853 0.048570123 0.0

conv1.lin.weight f4 [64, 36]
000000 98 dd fe 3c 1a 8e 00 3d e8 08 de bd 1a 1c 30 3e
       0.031111524 0.03138552 -0.108415425 0.1719822
000010 b6 1e 5a 3e 90 1f 25 3e 3b 54 36 3e c9 91 2f be
       0.21300778 0.16125321 0.17805569 -0.17145456
000020 2b d3 02 bd c4 d1 ae 3c 1f ac be bd 31 d0 63 be
       -0.031939667 0.021340258 -0.09310173 -0.22247387
000030 f8 f2 10 be 77 e9 ac bd 9a fa 11 3d 56 ec 12 be
       -0.14155185 -0.084429674 0.035639383 -0.14347968
000040 c9 be 53 3e 11 dc 3c 3e 29 e8 bb 3d f5 b2 cf bd
       0.20678248 0.18443324 0.091751404 -0.10141555
000050 fb 13 fa 3d 5e b1 43 be d6 90 3e 3e f8 76 47 3e
       0.12210842 -0.19110629 0.18609938 0.19478977
000060 a0 e9 1b be c7 cd 8b bd 64 3c 6c bd 76 72 36 bd
       -0.1522584 -0.06826358 -0.05767478 -0.044542752
000070 0d cf 38 be c0 1c 81 be 47 27 33 3e 8f 4e ca bd
       -0.18047734 -0.25217247 0.17495452 -0.09878265
000080 b7 8b 45 3d 7c 2f b2 bc 09 ea d6 3c 21 4f 47 be
       0.048228946 -0.021751158 0.026234644 -0.19463779
000090 bd 81 54 3e 1d 0f 81 bd 66 e5 8c bc a5 87 49 be
       0.20752616 -0.06301711 -0.01719923 -0.1968065
0000a0 86 0c 0f be b0 42 3f be 57 a1 07 bd ff fb 56 3e
       -0.13969621 -0.18677783 -0.03311285 0.20994566
0000b0 eb 08 00 be 59 04 00 be d4 9b 26 be 03 2e cb 3c
       -0.12503402 -0.12501658 -0.16270381 0.024802214
0000c0 a7 70 16 be 67 ff 83 3e 54 21 44 be 40 6d 0b be
       -0.14691411 0.25780794 -0.19153339 -0.13615894
0000d0 f7 d2 8e 3c f8 a6 45 bc d2 90 6a 3d 48 b3 5e 3e
       0.01743458 -0.012063734 0.057267018 0.21748078
0000e0 38 7a 4a 3e 3f c5 42 3d f4 c8 50 3c 1d a7 26 be
       0.19773185 0.04755139 0.012743223 -0.16274686
0000f0 92 cf 81 3e 55 35 d9 bd bd 6e e7 3d 25 75 18 be
       0.25353676 -0.106058754 0.113004185 -0.14888437
000100 dd 27 69 be 1d c3 32 bd ca 84 62 3e 2c e9 3d be
       -0.22769113 -0.043643106 0.22120968 -0.1854598
000110 1c f0 3c 3e e5 79 17 3e a4 c6 15 3e ad a7 b3 bd
       0.1845097 0.14792593 0.14626557 -0.08772216
000120 9e b9 66 be ff 3a 0d 3e b9 37 04 3e 86 a5 59 be
       -0.22531745 0.13792036 0.12911882 -0.21254548
000130 1f bc 21 3e 87 2e dc bd a9 cb c6 bd 9d 60 f9 3d
       0.15794419 -0.10751062 -0.09706814 0.12176631
000140 23 a5 a5 3d 64 49 48 be db 00 1b 3e 45 3a 4b 3e
       0.08088138 -0.19559246 0.15137045 0.19846447
000150 51 69 fa bd f1 2d a4 bd 81 65 dc b7 56 c5 46 bd
       -0.12227119 -0.08016575 -2.627331e-05 -0.048528038
000160 de 4f 71 3e bd a4 40 3e 39 0e 67 be bf 83 4c 3e
       0.23565623 0.18812843 -0.2256402 0.19972132
000170 49 c5 a1 bd f6 7e 13 be 2f 84 55 be 76 4d 5f bd
       -0.07898957 -0.144039 -0.20851205 -0.054517232
000180 87 20 15 3e e4 79 77 be cf a3 67 3d db ff 50 3e
       0.1456319 -0.24167591 0.056552704 0.20410101
000190 4a a8 a9 3d 98 4d e5 3d 65 bb 0c bd 48 5f 00 bd
       0.08284052 0.111964405 -0.0343584 -0.031340867
0001a0 ea 01 04 3e 0b 39 79 be 26 9f 3e be 8c 32 1f be
       0.12891355 -0.24338166 -0.18615398 -0.15546626
0001b0 7a bb 08 3e 7d 7f 2b be ce d1 51 bc ab 04 2c 3e
       0.13352767 -0.16747852 -0.012806369 0.16798656
0001c0 56 19 f4 bb 0b 51 00 3e ce d8 5e 3e 69 7e 84 3e
       -0.0074493093 0.12530915 0.21762392 0.25877693
0001d0 e6 9b 49 bd 79 93 7c 3d d7 d3 17 3e d4 3a 2a bd
       -0.049220942 0.06166408 0.14826904 -0.04156001
0001e0 ef d7 30 be d1 ff 12 3e df e2 77 3c 89 c0 85 bd
       -0.17269872 0.14355399 0.015129774 -0.06530864
0001f0 d3 2a 26 3d 3a 58 f5 bd 09 4c 6b be e9 6b 22 be
       0.040568184 -0.119797185 -0.22978224 -0.15861477
000200 a6 72 01 3e e7 29 2b 3e ab a2 51 bc 18 67 0f be
       0.12641391 0.16715203 -0.012795131 -0.14004171
000210 6b af 10 3e ea 3c d5 3d 6f 84 50 be 9c c8 85 3d
       0.14129417 0.10412009 -0.2036302 0.06532404
000220 d7 50 4c 3e ff bc fa 3b 2a 62 32 3d 55 14 8e 3b
       0.19952713 0.0076519246 0.043550648 0.00433592
000230 a5 49 00 3e bd 8d 0e 3e 2e 62 d5 ba 0f c0 44 3e
       0.12528093 0.13921256 -0.001627987 0.1921389
000240 3f 92 52 3e 37 38 37 3e 45 60 92 bd 1a a8 73 bd
       0.20563601 0.17892538 -0.07147268 -0.059486486
000250 5a ab 45 ba d9 af 77 bc b8 6d 42 be 10 bc 2a 3e
       -0.0007540487 -0.015117609 -0.18987167 0.16673303
000260 43 29 34 3e 58 33 ad bd 53 9a e1 3d ae 3e 22 3e
       0.17593865 -0.08457059 0.11015763 0.15844223
000270 d1 11 17 bd 69 ff 78 3e 40 96 81 bd a3 40 c7 bd
       -0.036882225 0.24316181 -0.06327486 -0.09729125
000280 27 5d 16 3e 29 9a a4 3d 0b d9 ec 3d ea 28 27 be
       0.14683972 0.08037216 0.11564835 -0.16324201
000290 2b 52 74 bd f4 a6 18 bd ab 30 06 3c 69 9e 61 be
       -0.059648674 -0.037268594 0.008190314 -0.22033085
0002a0 f7 b7 4f 3e a5 1f 3e be c4 b5 ac bd 05 04 42 3e
       0.20285021 -0.18566759 -0.084331065 0.18946846
0002b0 90 02 a5 3d 57 ac f7 bd 43 45 57 bd 37 97 35 3e
       0.080571294 -0.12093418 -0.052556287 0.17733465
0002c0 57 d0 db 3d b7 4f 88 be c8 e2 45 be 9b b9 0e be
       0.10733097 -0.26623318 -0.19324791 -0.1393799
0002d0 8e eb c9 3d 64 a5 ec bd af 6c 29 3d 2f 84 7c 3e
       0.098593816 -0.11554983 0.041363414 0.24659799
0002e0 22 9f 62 3e 8d ad 79 3e 96 80 a8 3d e0 00 21 be
       0.22131017 0.2438261 0.08227651 -0.1572299
0002f0 92 1e 90 3d dd 16 2b be cb 24 6a 3e 7e 57 b7 bd
       0.07037081 -0.1670794 0.22865598 -0.08952235
000300 5d c8 5c be 9c 21 11 be f8 09 15 3e cb cf e3 3d
       -0.21560808 -0.14172977 0.14554584 0.11123618
000310 fa a7 ad bd e8 61 e5 bd 93 c4 ac bd 40 77 a0 3d
       -0.084793046 -0.11200315 -0.08435931 0.07835245
000320 01 17 f4 3d c2 af 75 be 85 a5 2a bd 6e f4 74 be
       0.1191845 -0.23992828 -0.041661758 -0.23921368
000330 71 5b a1 bd 5e 93 b1 3d 27 40 ab 3d 7f a4 74 bd
       -0.07878769 0.08670686 0.083618455 -0.05972719
000340 50 4c a4 3b 48 c3 bb 3d d3 2e 81 be 5d 4a 77 be
       0.00501398 0.09168106 -0.25231037 -0.24149461
000350 16 44 49 3d cf 3c 3a be d0 58 67 3e a1 c9 04 be
       0.049137197 -0.18187259 0.22592473 -0.1296754
000360 98 be 1c 3e b3 a2 16 be 49 21 39 3e e4 94 1b 3d
       0.15307081 -0.14710502 0.18079104 0.03798379
000370 84 78 14 3e e4 07 0c 3e d3 cb 66 3e a9 5c 52 3d
       0.14499098 0.13674885 0.2253869 0.0513579
000380 1f 4f 5e 3e e4 db 8b bc 72 27 53 bc b0 b4 59 be
       0.2170987 -0.017072625 -0.012887822 -0.21260333
000390 f2 d2 2e 3d 48 77 e3 3d af e8 b0 bb b6 a7 1b 3e
       0.042681642 0.111067355 -0.005398832 0.15200695
0003a0 68 32 b1 3d 80 f2 71 3e 4d d9 d3 3b b0 d5 61 bd
       0.08652192 0.23627663 0.0064651133 -0.05513543
0003b0 ff ed 1c be ca 60 25 be 6a 0e 10 3d 60 39 41 3e
       -0.15325163 -0.16150203 0.035169996 0.18869543
0003c0 8a b4 70 bd 23 c7 bb bd 22 f8 22 be f7 22 5e be
       -0.058765925 -0.09168842 -0.15914968 -0.21693026
0003d0 cc 1f a0 bd 3e b7 a2 3d ee 67 df 3d 0a b6 28 be
       -0.07818565 0.07945107 0.10908495 -0.16475692
0003e0 5a fb 84 be 10 f1 29 bd 84 0f 56 be d9 b7 29 3d
       -0.25973016 -0.04148966 -0.20904356 0.041435096
0003f0 0c ea 05 3e 37 16 21 3d a2 25 f2 bd ed 87 16 3e
       0.13077563 0.039327826 -0.11823584 0.14700289

conv2.bias f4 [36]
000000 00 00 00 00 00 00 00 00 00 00 00 00 00 00 00 00
       0.0 0.0 0.0 0.0
000010 00 00 00 00 00 00 00 00 00 00 00 00 00 00 00 00
       0.0 0.0 0.0 0.0
000020 00 00 00 00 00 00 00 00 00 00 00 00 00 00 00 00
       0.0 0.0 0.0 0.0
000030 00 00 00 00 00 00 00 00 00 00 00 00 00 00 00 00
       0.0 0.0 0.0 0.0
000040 00 00 00 00 00 00 00 00 00 00 00 00 00 00 00 00
       0.0 0.0 0.0 0.0
000050 00 00 00 00 00 00 00 00 00 00 00 00 00 00 00 00
       0.0 0.0 0.0 0.0
000060 00 00 00 00 00 00 00 00 00 00 00 00 00 00 00 00
       0.0 0.0 0.0 0.0
000070 00 00 00 00 00 00 00 00 00 00 00 00 00 00 00 00
       0.0 0.0 0.0 0.0
000080 00 00 00 00 00 00 00 00 00 00 00 00 00 00 00 00
       0.0 0.0 0.0 0.0

conv2.lin.weight f4 [36, 64]
000000 75 e8 a1 bd ad 3d 71 3e e2 f2 34 bd f2 2d 0d bd
       -0.07905666 0.23558684 -0.044176944 -0.034467645
000010 ae 83 44 3e 39 a1 f1 3d 34 b1 c1 bd 87 29 24 3d
       0.19190857 0.11798329 -0.09457627 0.040078666
000020 9c 4d 0c 3e 68 27 78 be 82 15 ce bd d0 59 77 be
       0.1370148 -0.24233782 -0.10062696 -0.24155354
000030 3d d0 5a 3e 4e 09 c7 b9 a1 a8 4d 3e 0f e5 17 be
       0.21368499 -0.0003796317 0.20083858 -0.14833473
000040 b1 77 94 3d 80 8d 44 be 70 fd 06 be c4 97 7a 3d
       0.07249392 -0.19194603 -0.13182616 0.06117989
000050 4f fe fa bd fb 86 41 3d 6d 14 50 be 22 1a 38 be
       -0.12255537 0.047247868 -0.20320292 -0.17978719
000060 91 88 23 bd f9 ed f2 3c be f8 54 3c 62 d7 b3 3d
       -0.03992516 0.02965449 0.012998758 0.087813154
000070 64 3a 77 be 31 b8 19 be 31 43 44 3e 30 33 f5 3d
       -0.24143368 -0.1501167 0.19166256 0.11972654
000080 6e 8a d1 bd c4 66 3f 3e 1e d4 9c 3b 10 98 c7 bd
       -0.102314815 0.18691546 0.0047860285 -0.097458005
000090 20 0b 50 be 3f c5 49 3c ed cd 70 3e ca 18 d0 bd
       -0.20316744 0.012315094 0.23516054 -0.10160978
0000a0 47 8c 02 3e 75 95 7a 3e 18 98 ef 3d 02 47 af bd
       0.12748824 0.24471076 0.116989315 -0.085584655
0000b0 c3 d2 41 3e 80 ae 65 bd 1f 02 16 bd af 59 14 be
       0.18928055 -0.05607462 -0.036623117 -0.14487337
0000c0 ce f0 36 be 05 64 51 3e 1b 69 5f 3e f1 fe 8a bc
       -0.17865297 0.2044831 0.21817438 -0.016967269
0000d0 a9 64 fe bd 05 fc 5c 3e 1f ec 37 bd e8 85 1e be
       -0.12421543 0.21580513 -0.044902917 -0.15480769
0000e0 7f 09 d1 3d 49 b6 5b bc 17 05 27 be 31 eb 57 be
       0.10206889 -0.013410159 -0.16310535 -0.21085812
0000f0 98 bf 40 bd 9c d4 10 3d 90 d0 b6 bd e4 47 63 3d
       -0.047057718 0.03535901 -0.08926499 0.055488482
000100 bb b7 32 be 9a 29 ed 3d 22 f0 15 be b6 f4 31 bd
       -0.174529 0.115802005 -0.14642385 -0.043446265
000110 0d e8 2a bc ff 7e a9 bd 0c cd c6 3c fd 5a 0e be
       -0.010431302 -0.08276176 0.024267696 -0.13901897
000120 e9 7a f4 3b 71 19 0c 3e d6 8c 12 3e bf 3a 44 3c
       0.007460941 0.1368158 0.14311537 0.011976897
000130 6d 71 55 be 37 84 b6 bd 18 fc 72 3e 7f 92 46 3e
       -0.2084405 -0.08911937 0.23728979 0.19391821
000140 b5 01 74 3e 0d 5b 01 bd 1a f6 51 bd 83 b8 cb bd
       0.23828776 -0.031580973 -0.05126009 -0.09947302
000150 4b c9 2a 3e cd 81 3b 3e 77 b4 02 3e da 33 1a 3d
       0.1667835 0.18311234 0.12764154 0.037647106
000160 6b e9 52 be 95 fb 6f 3e c3 4a cb 3d d7 64 c1 3c
       -0.20596854 0.23435815 0.09926369 0.023607654
000170 de 6d 4c be 28 96 f8 3d f3 6c e7 3d 06 af 59 be
       -0.19963786 0.12138015 0.11300077 -0.21258172
000180 94 84 2d 3d f2 ee a0 3d f4 9e 4b 3e e7 9c 85 bd
       0.042362764 0.07858075 0.19884855 -0.06524067
000190 a6 af 7a be a1 7f 79 be 96 34 27 3c 41 31 0e 3e
       -0.24481067 -0.24365093 0.010205409 0.13885976
0001a0 f5 b3 65 3e f8 0c 6b bd d5 13 a4 3d b7 0f 89 bb
       0.2243193 -0.057385415 0.08011595 -0.0041827816
0001b0 45 94 6c be aa f8 32 3d 64 a9 aa 3d ca 3c b9 bd
       -0.23103435 0.043694176 0.0833309 -0.09044798
0001c0 0f 5d 75 3e 05 c3 32 be 7b 62 f5 bd 7b c6 c0 3c
       0.2396128 -0.17457207 -0.11981674 0.023532143
0001d0 a1 f4 27 bd 5d 7e 77 3e 8c 78 57 3e 41 55 68 be
       -0.04100478 0.24169298 0.21042079 -0.22688772
0001e0 e8 35 9b 3c 3a 1a c3 3d 56 30 37 bd 09 03 3d 3d
       0.018946603 0.09526487 -0.04472383 0.046145473
0001f0 ca 4b 4c 3e 60 85 a1 bd 9d 65 12 be ed 4e c5 bd
       0.19950786 -0.078867674 -0.14296575 -0.096341945
000200 46 ec 7a bd 95 f7 21 be f7 73 3a 3e e9 4e 76 3e
       -0.061260484 -0.15817101 0.182083 0.2405354
000210 23 19 05 bc ba ac 42 be 91 d6 2d be 89 ed 92 bd
       -0.008123669 -0.19011202 -0.16976382 -0.071742125
000220 32 9c 57 3e ec d9 24 3e 19 f7 bd 3d 3e 45 f7 bc
       0.21055678 0.16098756 0.09275646 -0.030184384
000230 65 a9 68 3d 13 56 f3 bc 22 fd 39 be 67 c9 1e be
       0.056802172 -0.02970413 -0.18162969 -0.15506516
000240 06 f6 67 3e a7 12 b0 3d e5 8b 65 be 4a 87 45 3e
       0.22652444 0.08597308 -0.22416647 0.1928989
000250 1e 0a fd bd 95 14 df 3d 5d af 43 3e a7 a3 3d be
       -0.12355445 0.108925976 0.19109865 -0.1851946
000260 c7 eb 34 be 76 2b 19 3d 28 de 0e 3d 43 10 15 be
       -0.17668067 0.037394963 0.034879833 -0.14556985
000270 38 84 67 3e 62 99 d5 3d 42 75 1c 3e 64 bb 07 3d
       0.22609031 0.10429646 0.15279105 0.033137694
000280 9f 1f 1d 3d 48 31 0d 3d bd f9 e2 bd 6d 88 8e bd
       0.038360234 0.034470826 -0.1108279 -0.06959615
000290 27 86 44 3e 44 86 79 be e8 eb 68 3e d3 16 26 bd
       0.191918 -0.24367625 0.22746241 -0.04054911
0002a0 fc 50 7e bc 04 9c ad 3d 93 d2 1e 3e 41 86 41 3e
       -0.015522238 0.08477023 0.15510015 0.1889887
0002b0 32 4e 1e bc 8b 66 d6 3d d7 7f 3e be c4 d5 36 3e
       -0.009662198 0.10468777 -0.18603455 0.17854983
0002c0 cd 72 72 3e 6a 26 5e bd 91 5f 69 be b9 37 23 3e
       0.23676606 -0.054235853 -0.22790362 0.15939225
0002d0 70 40 21 3e 7c 67 91 bd e8 1e 98 3d 4e 80 51 be
       0.15747237 -0.07099816 0.0742777 -0.204591
0002e0 74 37 6c be 3a 24 6c be 8c 2a 0e bd 87 aa ad 3d
       -0.23068029 -0.23060694 -0.034708545 0.08479791
0002f0 39 85 63 3d 54 3e 87 bd 62 1c cf bd 15 f6 cf 3d
       0.055546973 -0.06603685 -0.101128355 0.10154358
000300 6b e8 ab bd c4 ed 37 be 50 28 35 bd 88 3e 0a 3d
       -0.083939396 -0.17961794 -0.044227898 0.03375104
000310 09 54 06 be 2a 6f 36 bd ef 49 47 3e 75 6e a1 bd
       -0.13117994 -0.044539608 0.19461797 -0.07882396
000320 3a 9e cb 3d 61 4d aa 3d cc 46 24 3b 23 d4 68 bd
       0.09942289 0.0831554 0.0025066612 -0.056842934
000330 cc 67 cf bd e7 d4 a5 3d ff 99 41 3d 25 ae 78 bd
       -0.101272196 0.080972485 0.047266003 -0.060712952
000340 9a dd f7 bd 38 62 91 3d 0c 2d 3a 3e 30 ff 4b be
       -0.12102814 0.07098812 0.18181247 -0.19921565
000350 90 31 c5 3d 4a 4e fc 3d a3 ce cb bd 70 8d e7 bd
       0.09628594 0.1231962 -0.09951522 -0.11306274
000360 f9 d8 e7 bc 06 8a 5a be d5 58 38 3e 1c 60 04 3d
       -0.028301703 -0.21341714 0.18002637 0.03231822
000370 d5 05 1d be e6 cd bc 3d ff 66 6e bb 9d ca 75 bc
       -0.15334256 0.092189595 -0.0036377308 -0.01500192
000380 19 73 22 3e 7a e5 37 bc a8 5c 3d be f3 45 10 3e
       0.15864219 -0.011224145 -0.18492377 0.14089184
000390 0f 4c c2 bd 30 e2 b8 bd 00 8e 02 be 56 c3 d7 bd
       -0.09487163 -0.09027517 -0.12749481 -0.10535304
0003a0 73 d6 01 3e 65 4a 44 be 08 7d 16 be 91 48 f0 3b
       0.12679462 -0.19169004 -0.14696133 0.0073328693
0003b0 2c a3 8e 3d d4 fb 01 3a bd e2 06 3e 3a 32 4e 3d
       0.06964716 0.0004958485 0.13172431 0.05034087
0003c0 45 d9 2a 3e ae 55 4d bd 4b 5c 32 3e e1 6e 1d be
       0.16684444 -0.05013054 0.1741802 -0.15374328
0003d0 74 40 49 3d ea 37 29 3e 92 70 20 be 8c 27 6b be
       0.049133733 0.16525236 -0.15667942 -0.22964305
0003e0 f2 5a 1d 3e ce 95 6b be 44 54 8d bd a0 fa 0b be
       0.15366724 -0.23006365 -0.06900838 -0.13669825
0003f0 3d 08 57 3c 73 6d 62 be 9c 7e f2 3d 11 fa 6c 3e
       0.013124523 -0.22112064 0.11840555 0.23142268

lstm.weight_ih f4 [256, 64]
000000 c9 a2 ea bd b2 66 56 3d 41 d7 de bd b3 34 f5 3d
       -0.1145683 0.05234403 -0.108809 0.11972942
000010 42 9d 63 bd 01 3b d3 bd 71 92 22 3d 2e c2 ca bd
       -0.055569895 -0.103139885 0.03969044 -0.09900318
000020 fc 53 47 bd 44 b1 78 bd 18 b3 84 bd 04 4e 64 3d
       -0.048664078 -0.06071593 -0.06479472 0.055738464
000030 84 69 22 3c 5e 85 85 3d 2d af 00 3e 94 af 30 3d
       0.009912852 0.065195784 0.12566824 0.043136194
000040 40 ce d1 3c 3c dc 96 3d fc cc 5d 3d 08 ad e6 bd
       0.025611043 0.07366225 0.054150566 -0.11263472
000050 b2 ec e1 bc d3 80 e1 bc 05 9c 8c 3c e1 a2 d2 bc
       -0.027578685 -0.027527248 0.01716424 -0.025712432
000060 b8 32 e8 bd 83 da 76 bd fe 58 a8 3d d3 19 15 bd
       -0.11337799 -0.060266983 0.08220099 -0.03640158
000070 28 29 e9 3d 3a 76 6a bb c6 6c a2 bd 8f 5c c0 3c
       0.11384803 -0.0035776035 -0.07930903 0.023481635
000080 3e a3 47 3d 71 4b d6 bd 5d 45 9b bd db 9c 6b 3d
       0.048739664 -0.10463608 -0.07581589 0.057522636
000090 ea e6 b8 bb f7 e1 a9 3d c7 4a 84 bc 8e a1 36 3d
       -0.0056427615 0.082950525 -0.016148938 0.044587664
0000a0 6a 71 f5 bd b5 57 8e 3d 7e 5e 02 be 0c a6 c7 bd
       -0.11984523 0.069503225 -0.12731358 -0.09748468
0000b0 b3 41 89 3d 2b 55 63 3c da b5 a5 bd ca bd b4 3a
       0.06701984 0.013875286 -0.08091326 0.0013789472
0000c0 ff 09 65 bd 03 ed f5 bd f7 0f fd 3c 08 c7 8e bd
       -0.055917736 -0.12008097 0.030891402 -0.06971556
0000d0 1e b1 b3 3d b2 dd e3 3d 80 72 98 3d 99 e8 f1 3d
       0.08774017 0.111262694 0.07443714 0.118119426
0000e0 91 a5 c6 3c cd 9e 45 3d 32 95 35 bc de 5e 04 be
       0.02424887 0.048247147 -0.011082934 -0.12926814
0000f0 38 fb cb 3d e1 07 2b 3c 22 79 aa 3d 4c 56 27 bd
       0.099600255 0.01043889 0.083238855 -0.040853783
000100 1a a4 50 bd 6b f2 9f 3d 01 9b 72 3c 3c e6 ef bc
       -0.05093775 0.078099094 0.014807464 -0.029284589
000110 05 33 c8 3d 02 db c5 3c bf 73 c9 bc 8c 1b 18 bd
       0.09775356 0.024152283 -0.024591325 -0.037135646
000120 9e 3f 8f 3c 2d c6 51 bc 56 2e 05 be 6a 25 e8 3d
       0.01748639 -0.012803596 -0.13005957 0.11335261
000130 f1 b8 d0 bd ec ba 5f 3d d7 74 01 3e 58 67 b0 bd
       -0.10191525 0.054621622 0.12642227 -0.08613461
000140 3a be b0 3d 18 fe dd 3d cb 92 cd bc 67 fe 87 bd
       0.08630033 0.1083948 -0.02509441 -0.0664032
000150 83 ab a2 3d 5a 4c 9f bb 7b 1f 8d 3d 2d 82 05 bd
       0.079428695 -0.0048613967 0.0689077 -0.03259485
000160 36 5a ef 3c 4f 2b b2 bd 6d cd c5 bd 88 48 58 3d
       0.02921782 -0.08699667 -0.096583225 0.052803546
000170 e2 34 95 3c 95 9e 86 bd 18 91 04 3e 59 40 6f bd
       0.018213693 -0.06573216 0.12945974 -0.058410976
000180 2d 7b 56 3d d8 6e e3 bd c4 2d c6 bd e6 49 64 bd
       0.052363563 -0.11105126 -0.09676698 -0.055734538
000190 a8 d3 84 bd 15 d7 1c bd 1d 7b 13 bd 07 ff c2 bd
       -0.06485683 -0.038291056 -0.03600608 -0.09521299
0001a0 2f 17 e3 3c 48 5f 85 bd 06 08 99 bc b7 6d d5 bd
       0.027721016 -0.06512314 -0.018680584 -0.10421317
0001b0 19 2c ec 3c 04 cf 32 3d 68 bc 2b bc 7b b1 6a bd
       0.028829621 0.043654457 -0.010481931 -0.057298165
0001c0 54 53 d1 bd d0 c8 b7 3d c0 84 87 3d 9b 46 1e bd
       -0.10220972 0.08973849 0.06617117 -0.038641553
0001d0 30 e4 0e 3d 70 bf 9e bd d3 63 c5 3d f8 4e a7 bd
       0.034885585 -0.077513576 0.096381806 -0.08169359
0001e0 b5 00 10 bd 28 92 01 3e 26 ff 28 bd a1 9c 3f bd
       -0.035156924 0.1265341 -0.041258954 -0.046780232
0001f0 3a 4c 2c bc e4 87 e3 3d 63 f2 11 be 04 03 45 3d
       -0.010516221 0.111099035 -0.1425262 0.04809858
000200 18 be cf 3c bb fe 90 bd 7c 59 de 3d c3 2d 1e 3e
       0.025359198 -0.07079836 0.108569115 0.15447144
000210 59 80 c2 bd 8a 9a 83 3d 74 ff 9d 3d f8 d0 65 bd
       -0.094971366 0.0642596 0.077147394 -0.05610749
000220 f8 a3 02 3e d5 37 5a 3d 4e d8 40 3d 38 23 d4 bc
       0.12757862 0.0532759 0.047081284 -0.0258957
000230 9c fa 3a 3c 4e 1d b6 3d 3b a1 b5 bd 3e e9 19 3d
       0.011412289 0.08892308 -0.08868643 0.037575953
000240 c8 37 c4 3c f8 9a ea bd 33 e3 ec 3d 3e cb 2f 3d
       0.02395238 -0.11455339 0.11566772 0.042918436
000250 7e a5 de 3c e1 eb cc 3d b3 43 31 3d f5 da d3 3c
       0.027178522 0.10005928 0.043277454 0.025861243
000260 d8 5c 4f bd 5a 2d c3 bd 79 f2 05 bd b6 3a 4c 3d
       -0.050625652 -0.095301345 -0.032701943 0.04986068
000270 15 8c 15 bd 8d f6 4a 3d 71 4f 04 3e cc b1 64 bc
       -0.036510546 0.049551535 0.1292093 -0.013958406
000280 76 90 42 bd be 4f ce 3d 30 56 5a 3d b6 9a 64 bd
       -0.04750105 0.10073803 0.05330485 -0.055811606
000290 77 d5 db 3d 51 12 84 bd 71 44 0a 3e 18 2a 3e 3d
       0.107340746 -0.06448806 0.13502671 0.046426862
0002a0 fd 3f 05 3d 85 08 bd bd bb 95 09 3d cf cb 2c bb
       0.032531727 -0.092301406 0.03359006 -0.0026366597
0002b0 bc 75 1a 3e f0 83 a1 3d 1e 8f b9 3d ca 32 15 3d
       0.15083975 0.07886493 0.090605006 0.03642539
0002c0 44 16 19 bb 69 ee d7 3d 3d 6d 08 be 27 61 be bd
       -0.0023359219 0.1054352 -0.13322921 -0.09295874
0002d0 23 47 0b 3d b6 2d 0b 3d f7 f8 19 bd be 01 d1 bd
       0.034003388 0.03397914 -0.037590947 -0.102054104
0002e0 d3 41 c4 3c 35 a6 9b 3d 8e 74 06 3e b6 60 6d bc
       0.023957169 0.07600061 0.131304 -0.01448839
0002f0 05 c9 54 3d d7 36 b2 3d c7 c4 0b 3e 50 19 03 3d
       0.05194952 0.08701866 0.13649283 0.03200656
000300 09 b8 29 bd 07 ca c5 bd 25 5c 0b bb d0 16 2f be
       -0.041435275 -0.09657674 -0.002126464 -0.17098546
000310 2c f0 22 3d 27 a2 04 3e db c0 f4 3d d5 63 e4 3c
       0.039779827 0.12952481 0.11950847 0.027879635
000320 26 95 7f bd d4 d0 97 bd 23 03 36 bd ee 0a bc bd
       -0.0623981 -0.07412878 -0.044436585 -0.09181772
000330 3d 65 72 3c 1c 58 21 3d b7 9d a4 bd 69 82 52 bc
       0.014794645 0.03939067 -0.08037894 -0.012848475
000340 9a 85 f3 3d b6 8d b3 bd 5c 71 7d 3d 21 5e ac 3b
       0.11890717 -0.087672636 0.061875686 0.0052602445
000350 75 4f 1e bd 70 03 72 3d cc 26 66 3c 4e 88 ab bd
       -0.038649995 0.05908531 0.014047336 -0.083756074
000360 82 1c 3f bd a7 74 a0 3d b4 1e ef 3d 80 35 c7 3d
       -0.046658047 0.0783475 0.11675778 0.09727001
000370 d6 b9 ac bc 44 77 ec bb af ac b2 3d f8 0f 59 bd
       -0.021084707 -0.007216366 0.08724343 -0.052993745
000380 c5 94 d5 3d 37 29 c0 3d 5a a4 64 bd 74 a4 f4 3a
       0.10428766 0.09382861 -0.0558208 0.0018664734
000390 1b f3 59 bd 0c 37 35 bd 9b 02 af 3d b2 02 ec 3d
       -0.05321036 -0.04424195 0.08545419 0.115239516
0003a0 2b 05 d0 bd 3b a7 42 bd 6c 69 9c 3d b1 9b 87 bc
       -0.10157236 -0.047522765 0.07637295 -0.016553732
0003b0 df bb fd 3d a4 6d a8 3d 3b 15 5d 3c be 28 80 3d
       0.12389349 0.08224037 0.013493831 0.06257771
0003c0 53 df b7 bd 00 9b 20 bd 6f 92 07 3e 51 d2 1a bc
       -0.089781426 -0.03921032 0.13239454 -0.009449557
0003d0 0e 08 72 3d 35 38 3c 3d 83 7a 27 3d 9c 15 a7 3d
       0.059089713 0.04595204 0.04088832 0.081584185
0003e0 94 e4 c6 bc 1c 6e 62 3d d6 6f be 3d bd 8d fc 3c
       -0.024278916 0.05528079 0.09298675 0.030829305
0003f0 c9 25 c1 bd be d4 95 bd 95 40 8e bd 14 a0 6b 3d
       -0.09431035 -0.07315968 -0.06945912 0.05752571

lstm.weight_hh f4 [256, 64]
000000 c7 48 32 bd 77 72 1a bd d2 2e ab 3d 40 ce c7 3d
       -0.043526437 -0.03770682 0.0835854 0.09756136
000010 4f 41 53 bd b5 eb fe bd 62 07 1f bd 17 7f 42 bb
       -0.051575955 -0.12447301 -0.0388254 -0.0029677802
000020 98 a8 88 3d c6 72 e8 3d 55 5e 87 3d f8 9f 6d bd
       0.06672782 0.11350016 0.06609789 -0.058013886
000030 52 b7 7b bc 02 c2 0e bc 3b df b5 bd 99 74 5e bd
       -0.015363531 -0.008713247 -0.088804685 -0.054310415
000040 40 b0 fe 3d 6f a7 0c 3d 3a f4 b3 bd 98 68 4c bd
       0.12435961 0.034339365 -0.08786817 -0.049904436
000050 64 96 ae 3c b1 6f ad ba 7e 32 68 3d 02 5d b2 3c
       0.021311946 -0.0013232139 0.056688778 0.021772865
000060 48 43 02 bc b5 17 33 3c cc 66 8d 3d 31 4e 25 bd
       -0.007950611 0.010930945 0.069043726 -0.040357772
000070 88 b4 ae bc 26 5b 0f 3d 04 f6 de bc 04 2c 31 3d
       -0.021326318 0.034999035 -0.027216919 0.043254867
000080 f3 37 83 bd e4 50 83 bd ce d7 d1 3c e7 ee ad bc
       -0.06407156 -0.06411913 0.025615599 -0.021232082
000090 6e f0 01 be 43 23 a7 3a 73 b0 3b 3d 6e 28 bc bd
       -0.12689373 0.0012751598 0.045822572 -0.09187399
0000a0 46 0e 53 3d 3a 59 dc bd f2 31 64 bc 84 52 1f 3b
       0.051527284 -0.10759206 -0.0139279235 0.0024310658
0000b0 7a 53 e8 3d 49 75 b1 bd 6c a4 30 3c 24 d4 03 3e
       0.11344047 -0.086649485 0.010781389 0.12873894
0000c0 8b 3e 50 3c b1 82 74 3b f4 f7 0e bd f3 2b 3e 3c
       0.012710224 0.0037309343 -0.034904435 0.011607158
0000d0 fb fa c9 3d 42 e9 cb 3d e7 7a 00 3e d6 b1 00 bb
       0.09862324 0.099566 0.12546884 -0.0019637248
0000e0 6c 75 e9 3d 21 d1 c9 3d 49 ec 00 be 69 fa f6 3d
       0.113993496 0.09854341 -0.12590136 0.12059481
0000f0 fc 1b 02 bd 54 27 e8 37 d9 e4 88 bc cc ca 34 3d
       -0.03176497 2.7674869e-05 -0.016710686 0.044138715
000100 7b a7 10 bd 31 0e 64 3d 92 31 05 3e 5f a8 9b 3d
       -0.03531597 0.055677596 0.13007191 0.076004736
000110 52 09 a1 bd bc db f6 3d e2 9b 98 3d 07 7d 33 3d
       -0.07863106 0.1205363 0.07451607 0.043820407
000120 10 49 57 3c d6 4e a4 3d 98 ed 34 bd 80 7c be bd
       0.013139978 0.08022849 -0.0441719 -0.0930109
000130 d1 6b 05 3c 3f 4e 84 3d 4c 76 58 3d 13 59 87 bd
       0.008143381 0.06460237 0.05284719 -0.066087864
000140 b0 af 4b 3d 10 e9 7c bd e1 ae 92 3c 15 08 72 3d
       0.049728096 -0.061745703 0.017905654 0.05908974
000150 2d 91 f3 3d 56 0e ba 3d 9b 82 87 3c e4 b4 44 3d
       0.118929245 0.090847656 0.01654177 0.048024073
000160 2e 35 af 3d 9a 45 84 3d bc 54 ad bd 70 d2 9e bd
       0.08555065 0.06458588 -0.084634274 -0.077549815
000170 23 15 0d bd 24 a6 a9 bd 39 d0 39 3d a7 df 84 bc
       -0.034443986 -0.08283642 0.045364592 -0.016219927
000180 e1 82 67 3d d4 9e 4b 3c 88 f5 61 bd 7e 09 ba 3d
       0.0565213 0.012428004 -0.055165797 0.09083842
000190 c4 04 72 bc ff 1b 8e bd c0 60 9c bc 65 a5 b6 bd
       -0.014771644 -0.069389336 -0.019089103 -0.08918265
0001a0 9c c4 6a 3c 4b 29 fb 3d 99 5a 85 bd 60 b6 03 3d
       0.014329102 0.122637354 -0.06511421 0.03215635
0001b0 1e b9 03 3e 7e f4 31 bd 30 13 95 bd c6 50 6a bc
       0.12863585 -0.043446057 -0.0727905 -0.014301484
0001c0 3b ca 81 bc e3 01 0e bd ab ea b8 bd a5 00 85 bd
       -0.015843501 -0.034669768 -0.09029134 -0.064942636
0001d0 3c bb 29 3d df 0f d0 3d 8e 89 00 bb 4b ca 95 3d
       0.041438326 0.10159277 -0.001961324 0.07313975
0001e0 46 d1 57 3d ed 4a 9e bd 6d f6 97 3d dc 7b aa 3c
       0.052689813 -0.07729135 0.07420049 0.020811014
0001f0 1f 30 4e bd 50 b0 02 3c d6 a3 e0 3d bc 72 8b bd
       -0.05033886 0.0079766065 0.10968749 -0.06808993
000200 8e 23 b5 bd f4 2d 43 bd 9a b7 03 3d cb b4 a8 3d
       -0.08844672 -0.047651246 0.032157518 0.082376085
000210 d3 e3 36 3c ec 41 2f 3d dd 1c 97 3d 91 be 97 bd
       0.011162716 0.042787477 0.07378552 -0.074093945
000220 de 82 a6 3d 4b 63 11 3d 11 6c c0 3b c0 05 c2 bc
       0.0813043 0.035495084 0.0058722575 -0.023684382
000230 42 b1 82 bd 63 30 9b bd 09 78 9d 3c a8 c0 30 3c
       -0.063814655 -0.075775884 0.019222276 0.01078812
000240 ba 25 a0 bd 0a a9 54 bd d0 0e 76 bd 98 ce 5f bd
       -0.07819696 -0.05191902 -0.06007272 -0.054640383
000250 de 32 a2 bc 24 d7 e3 3c 4c f4 05 bd 69 ad d3 3d
       -0.019799646 0.027812548 -0.032703683 0.1033581
000260 77 a0 17 3a a5 8d 38 3d 6b cd 33 3d 52 3e 2b bc
       0.0005784104 0.045056958 0.043897074 -0.01045187
000270 68 b4 3a bd 69 42 3e bc 59 17 fe bd c2 78 ea 3d
       -0.045582205 -0.011612513 -0.12406797 0.11448814
000280 ae 9c 48 3c ae ab bf 3d 4f 3a 47 3d ff 35 72 bb
       0.012244387 0.09358917 0.04863959 -0.0036958454
000290 f8 e1 1c 3d ac 2d 0a 3d 8b 2b dd 3d ed 60 b9 3d
       0.038301438 0.033734962 0.10799321 0.0905169
0002a0 26 7d 10 bd 96 73 cc bd 28 9e 26 3c f0 3c 57 bd
       -0.0352756 -0.09982984 0.010169543 -0.05254835
0002b0 1b f1 af 3d 79 e3 43 bd b0 02 95 bb df 15 d0 3d
       0.08590909 -0.047824357 -0.0045474395 0.101604216
0002c0 d1 eb b6 3d 8c 07 74 bd d0 f7 3c bd 7e bb 82 3d
       0.08931697 -0.05957751 -0.04613477 0.063834175
0002d0 ce ce a6 bd 6c 09 62 3c 23 23 98 3d 51 de 7c bc
       -0.081449136 0.013796192 0.07428577 -0.015433864
0002e0 f8 76 23 3d 0a db c4 bd 1b 35 dd 3d 86 e4 e5 3c
       0.03990838 -0.09612091 0.10801145 0.02806307
0002f0 91 5c dc bc 5c 15 ea bd be 15 d0 3d 52 08 66 bd
       -0.026899608 -0.11429855 0.10160397 -0.05616028
000300 f0 a3 56 3d ff 9c 69 3c ae 07 b1 3d 83 2a 3f bc
       0.052402437 0.014258622 0.08644043 -0.01166785
000310 40 43 9a bc fa 26 0e 3e 12 f0 8d bb 50 19 b2 3d
       -0.018830895 0.13882056 -0.004331597 0.08696234
000320 91 49 77 bd 11 f8 12 3d e5 0c d1 3d 97 a9 c4 bd
       -0.060372893 0.035881106 0.102075376 -0.09602659
000330 2f 82 6e 3d 3b c1 04 3e d6 15 92 3d 4f 66 02 3e
       0.05822962 0.12964337 0.07133071 0.1273434
000340 9a 30 2f bc d1 2c a3 3d 7c ad 8c bc aa 91 54 3d
       -0.01069274 0.079675324 -0.017172568 0.05189673
000350 be 38 ce 3d 56 7f 88 bd 15 c8 9f 3b 44 57 00 be
       0.100694165 -0.066649124 0.0048761466 -0.12533289
000360 50 34 b6 3d 81 18 c1 bd 40 36 43 bd 24 2b bf 3c
       0.088966966 -0.09428502 -0.04765916 0.023336
000370 7b cf d3 bc 3e 0a ac bd e4 2a fc bd fc 30 3b bd
       -0.02585577 -0.08400391 -0.12312868 -0.045701012
000380 65 c7 58 3b a9 58 a9 bd 99 42 94 bd 9a e5 51 bd
       0.0033077833 -0.08268864 -0.07239265 -0.051244356
000390 72 0d 2e bb e2 e7 d9 3d ef c6 9e 3d 32 a4 b5 3d
       -0.0026558307 0.10639931 0.07752787 0.088692084
0003a0 c2 ea 88 bc c8 6e 8c bd 24 c8 de bd 6e ca b2 bb
       -0.016713504 -0.06857067 -0.108780175 -0.0054562604
0003b0 ba 0c 94 bc c4 a4 24 bd 28 2d 84 bc fc 5b fd bd
       -0.018072475 -0.040196195 -0.016134813 -0.1237106
0003c0 c9 c7 e8 bd 87 27 fb 3b 50 cb 87 3c e1 29 19 3e
       -0.11366231 0.007664624 0.01657644 0.14957382
0003d0 a4 1e 16 3d e9 ad 81 bd e0 d2 2d 3c d3 3b 80 bc
       0.036650315 -0.06331999 0.010609359 -0.015653526
0003e0 b3 ad 05 bb 72 ec ac 3d 44 27 cf 3d af 8a 12 be
       -0.0020397722 0.08443536 0.10114911 -0.14310716
0003f0 2a 88 aa bc 62 83 a2 bd e0 53 b1 bb ff a3 26 bd
       -0.020816881 -0.079352155 -0.00541161 -0.040683743

lstm.bias_ih f4 [256]
000000 e7 c4 e5 3d b1 d5 fe 3d 8b 25 ca bc 09 61 70 bd
       0.11219197 0.12443102 -0.024676105 -0.05868629
000010 28 29 de 3c 81 13 73 bd e5 42 9a bd 01 74 e4 3d
       0.027119234 -0.059344772 -0.0753229 0.111549385
000020 d6 fd b3 3d 8d 01 97 3c b2 6c 18 3d be 0d 73 bd
       0.0878865 0.018433357 0.037213035 -0.059339277
000030 de 77 5f bb 8a 74 bd 3d 8f c1 9e 3d c7 e1 c8 bc
       -0.0034098546 0.09250744 0.07751762 -0.024521722
000040 ab a4 cb bd d4 cb f5 3d 1d ff ff 3c 6e b9 dd bd
       -0.09943517 0.12001768 0.031249577 -0.108263835
000050 4f c1 f1 3d 6a 7d ad 3c c2 2d fd 3d f1 22 88 bd
       0.11804449 0.021177966 0.12362243 -0.066472895
000060 e0 79 c6 3d a5 30 9e 3c 9e 35 8f 3d a0 e5 7c bc
       0.096912146 0.019310305 0.069926485 -0.015435606
000070 08 ab 90 3d 1b 82 b9 3b 8a 50 a0 bd e8 3e 29 bd
       0.070638716 0.0056612617 -0.078278616 -0.041319758
000080 5c 87 f6 3d a0 cd aa bd 87 99 b7 3d ff 1f 9c bd
       0.120375365 -0.08340001 0.0896483 -0.0762329
000090 41 12 e9 bc d1 00 9f bb 3c 9a 91 bd 25 d8 a8 3c
       -0.028451087 -0.0048523922 -0.07109496 0.020610878
0000a0 b1 c8 f6 3d 62 d4 e4 3d 50 63 d9 bc 6c f5 0a bd
       0.120499976 0.11173321 -0.026536614 -0.03392546
0000b0 73 e2 95 3c a5 d2 c6 3d 31 7d 54 bd 50 76 d1 bd
       0.018296456 0.09708146 -0.051877204 -0.102276444
0000c0 42 d2 d3 3d 37 a8 94 bc 7a 47 38 bd e3 c6 05 3e
       0.10342838 -0.018146617 -0.04499004 0.1306415
0000d0 a4 22 24 bd 78 59 fc 3d b8 0d e4 bd e5 fc ce bd
       -0.0400721 0.12321752 -0.11135429 -0.101068296
0000e0 3a d9 f5 bb cf 68 0e 3e 7d 89 b3 3d 88 35 8a bd
       -0.007502702 0.13907169 0.08766458 -0.067484915
0000f0 7b 50 6a bd bc b4 da 3c 5f f4 e6 bc e6 9a f5 3d
       -0.05720566 0.026697509 -0.028192697 0.11992435
000100 4e 81 c3 bc c1 3a 7a 3d 6c ef 77 bd 78 e7 44 3d
       -0.023865368 0.06109119 -0.060531065 0.04807231
000110 84 c4 70 3c 68 0a d8 3d fb 40 74 bd 7e 01 31 bd
       0.0146952905 0.1054886 -0.059632283 -0.043214314
000120 c5 94 fb bc 41 6b a9 3d 2c 20 a3 bc 84 ac 96 3d
       -0.030710587 0.0827241 -0.019912802 0.073571235
000130 76 8a 55 bd d1 85 28 bc f9 06 ef 3d e3 a6 9d 3d
       -0.052134 -0.010285811 0.11671252 0.07697847
000140 f1 8f c7 3d 9c 43 38 bd 32 68 09 bd 32 a2 bb 3d
       0.097442515 -0.044986352 -0.033546634 0.09161796
000150 4b ae 09 3d 31 85 20 3d d8 d3 b7 3d 6b 04 95 bd
       0.033613484 0.03918952 0.08975953 -0.07276233
000160 74 91 cf bc 94 75 b9 3c 3a 49 4c b9 23 f0 8b bd
       -0.025337912 0.022639073 -0.00019482235 -0.06832912
000170 47 63 4d bd b9 40 db 3a a8 56 50 3b 0c 4b 05 3e
       -0.050143506 0.0016727663 0.0031789932 0.1301691
000180 84 82 14 3c 30 b3 a8 3d a4 55 bb 3b a4 e8 aa bd
       0.0090643205 0.08237302 0.0057169963 -0.08345154
000190 26 3a 3e 3d aa 11 a2 bd 93 d1 08 bd fb 8c d1 bd
       0.046442173 -0.079135254 -0.03340299 -0.10231968
0001a0 b0 22 97 3d 61 80 a6 bd 31 fc 8d bd 57 73 7a bd
       0.07379663 -0.08129955 -0.06932867 -0.061145153
0001b0 6e 1a 2e 3d c4 e4 b4 bd a5 45 14 3e 02 43 a1 3c
       0.042505674 -0.08832696 0.14479692 0.019685272
0001c0 13 f8 03 3d c2 1f f9 3d 3d 68 54 bd 54 2b 5a 3d
       0.032219004 0.121642604 -0.051857222 0.053263977
0001d0 0a c8 49 3d 8e b1 b5 3d e6 a5 9d 3d 9c e1 b6 bd
       0.049263038 0.088717565 0.07697658 -0.0892975
0001e0 90 d0 f6 3c 4e 07 96 3d 20 10 a2 bd 6a 84 72 3c
       0.030128747 0.07325612 -0.07913232 0.014802078
0001f0 4a 56 28 bd 7b 90 64 bb 46 97 ac bd e9 42 a6 3d
       -0.041097917 -0.0034876156 -0.084272906 0.08118231
000200 90 b3 b3 bd bd 39 66 3d 41 20 ca bd 0e 3c cc bd
       -0.08774483 0.056207407 -0.09869433 -0.09972392
000210 97 c0 88 bd 67 fe c3 3c 8b e2 2e bd 90 16 eb 3d
       -0.066773586 0.02392502 -0.042696517 0.11478913
000220 a5 f5 ed 3d 65 59 a1 bc 63 3f bd 3d 42 1f 6f 3d
       0.116191186 -0.019695947 0.09240606 0.05837942
000230 28 38 02 bd cb 32 a8 3d 4d 12 ae bd 52 b8 f2 b9
       -0.031791836 0.08212813 -0.08499584 -0.00046295166
000240 2c d0 70 3d 41 37 f4 bd d7 18 b2 bc b2 f9 af 3d
       0.05879228 -0.11924601 -0.02174036 0.085925475
000250 70 35 b2 bd 1e 20 f0 3d 8d 3e d4 3d 7f b0 db 3d
       -0.08701599 0.11724876 0.10363493 0.10727023
000260 7a 06 7c 3d 30 8a 25 3d ab 5b bf 3d c7 e1 c5 bd
       0.061529614 0.04041499 0.09343656 -0.09662204
000270 d3 d3 ab bd c5 16 86 bd d3 b8 b6 bd 51 d9 ab bd
       -0.08390012 -0.06547312 -0.08921971 -0.08391059
000280 3d e0 c5 bd 2f 00 cd bd c1 34 0d bb 69 4e 2f 3d
       -0.09661911 -0.10009801 -0.0021546336 0.042799387
000290 14 00 a7 3d db 10 87 3d d2 b0 95 bd 1b e3 1a bd
       0.08154312 0.06595012 -0.073091164 -0.03781424
0002a0 57 5b fa bc 76 40 a4 bd 17 37 16 3d a7 ef 0c 3c
       -0.030561132 -0.080201074 0.03667363 0.008602059
0002b0 c4 4d 11 3d d6 f5 60 3d 62 86 89 bc a9 0b 44 bd
       0.035474554 0.054921947 -0.016787712 -0.047862682
0002c0 d2 25 99 3d ee 44 85 bc 9d 1e ec bd 0f 9e ce bd
       0.07477917 -0.01626822 -0.115292765 -0.10088741
0002d0 7d a4 a6 bd d2 bb 1b 3d 43 e4 08 3e c3 52 20 3d
       -0.081368424 0.038020916 0.13368325 0.039141428
0002e0 c2 e1 b9 bd 70 b9 8c 3d 8f a7 d7 3d d5 9a a0 bd
       -0.09076263 0.06871307 0.10530006 -0.07842032
0002f0 0a 85 04 be 71 9a 43 bd f1 93 fa bd 6a e4 9b bd
       -0.12941375 -0.04775471 -0.12235249 -0.07611926
000300 66 e5 98 bd f2 37 ff 3d 51 00 0c bd 65 bb 97 bc
       -0.07465629 0.124618426 -0.03417999 -0.018521974
000310 9f 2b 2e 3d 18 ce 91 bd c7 e8 1e 3d 66 ad 97 bd
       0.04252207 -0.071193874 0.038796213 -0.0740612
000320 a8 dd 91 3c ee 51 5c 3c 10 9c 31 bc 69 85 2b bc
       0.01780589 0.013447268 -0.010840431 -0.010468819
000330 5b 30 f9 3c 6f 5c ac 3d 24 c5 a9 3d 49 96 13 3e
       0.030418565 0.08416068 0.08289555 0.14412798
000340 87 87 5f 3d f5 2e 6a 3d 31 ba d8 bb d0 0a b6 bd
       0.05457261 0.057173688 -0.0066139926 -0.08888781
000350 0d 10 c6 bd 3b 48 43 bd 78 ee 5b 3d 10 e1 eb 3d
       -0.0967103 -0.047676306 0.05369422 0.11517537
000360 f1 bf 65 3c 69 62 11 3d 59 d0 d0 3c 33 96 0d bd
       0.014022813 0.035494242 0.025489973 -0.03456707
000370 c2 65 87 3c 9f 5d eb bc 5e 7e cb 3d a0 93 a7 bd
       0.016528014 -0.028731165 0.09936212 -0.08182454
000380 de bb f3 bb dc a0 89 bd bd f8 83 3d 70 82 d6 3d
       -0.007438167 -0.067201346 0.064439274 0.10474098
000390 40 9a 9e bd 21 60 06 3e 44 c4 d3 bd 2b e5 ab 3d
       -0.077442646 0.13122608 -0.10340169 0.0839332
0003a0 79 b5 39 bc ab 32 83 3d b3 26 b0 bc 80 af 0e 3e
       -0.01133477 0.064061485 -0.021502828 0.13934135
0003b0 2f d6 c6 3d b9 82 eb bc f3 b0 ae 3d 94 41 f0 3c
       0.09708821 -0.028748857 0.08529844 0.029328145
0003c0 63 dd 98 bd 51 b2 e3 3c 6e e4 eb 3c 75 91 ac 3d
       -0.07464101 0.027794989 0.028795447 0.08426181
0003d0 2b 7e 44 3c f8 c9 3a 3d 1e 7c 4c 3d 1d 96 b3 bd
       0.011992971 0.04560277 0.049923055 -0.08768866
0003e0 88 bd a1 3a 47 b8 37 bc 50 a4 03 3d 32 df d3 3d
       0.001233981 -0.011213369 0.032139122 0.103453055
0003f0 af eb 16 3d 00 87 6d 3c 6f db 14 3e 70 49 32 3d
       0.03684586 0.014497519 0.14536832 0.043527067

lstm.bias_hh f4 [256]
000000 bb 5f b1 bd ce 2c 4f bd 6d 94 a9 bd 1b ac a6 bd
       -0.08660837 -0.05057984 -0.08280263 -0.08138295
000010 38 e1 e0 3c 35 3f c3 bd 3d ca 0a 3e 08 82 04 bd
       0.027451143 -0.0953354 0.1355371 -0.03235057
000020 84 95 f5 3d 61 6e 5e 3d 0b c4 43 bd b3 ed f3 3c
       0.119914085 0.054304484 -0.047794383 0.02977643
000030 ed 9c dc 3d ba cb c3 bd 99 ba a6 bd c7 94 47 3d
       0.10772119 -0.09560342 -0.081410594 0.04872587
000040 95 24 85 bd 6d de 47 3c b3 70 0d 3c 0a ab de 3d
       -0.06501118 0.0121990265 0.008632827 0.10872467
000050 65 21 98 bd 1e cb 8e bd a3 4c 73 bd 40 17 3d bd
       -0.074282445 -0.06972335 -0.05939926 -0.04616475
000060 3a 9e d3 3d 2a 3d 4b 3d d1 4b b3 3d 1f 7c 19 3c
       0.10332914 0.049618877 0.08754695 0.009367972
000070 28 5f 12 3e 55 05 90 3d 58 d2 c3 bd 38 37 db bd
       0.14294112 0.07032267 -0.09561604 -0.107038915
000080 1b 64 07 3c 65 0d 41 3d e1 82 54 bd a1 3e 02 3e
       0.008263613 0.047131915 -0.05188263 0.12719204
000090 41 1f c0 3d b5 38 d0 bc 5c c0 af 3c 28 da 8d 3d
       0.09380961 -0.025417665 0.021454029 0.06926376
0000a0 72 d5 78 3d 69 18 0f 3d 4e 69 98 bd 50 88 93 3d
       0.060750432 0.03493539 -0.0744196 0.07203734
0000b0 ef cd d4 3d 8d dc 34 3c 65 5f a9 bd 3c 61 44 bd
       0.10390841 0.0110389115 -0.08270148 -0.047944292
0000c0 c8 99 94 3d 35 d5 84 3d 60 a0 0d 3e 2e 48 68 3d
       0.07255894 0.064859785 0.1383071 0.05670946
0000d0 a9 d7 9e 3d 08 fc d0 bd c8 65 38 bd ce c0 14 3e
       0.07755978 -0.10204321 -0.04501894 0.14526674
0000e0 c6 3d 15 bd 56 6f bc bc 94 24 e3 3c 70 18 dc bc
       -0.036435865 -0.023002308 0.027727403 -0.026867121
0000f0 06 b0 2b bc 36 c4 c2 bd 73 57 c9 3d 2e 68 04 3d
       -0.010478979 -0.095100805 0.09831133 0.032325916
000100 23 93 d6 3d de c5 ab bd 87 b8 0f 3e 80 1f 4f bd
       0.10477283 -0.083873495 0.14035235 -0.05056715
000110 75 b1 b0 3d c5 f7 4b bd 8a ae e8 3d bc e1 ef 3d
       0.08627597 -0.04979684 0.11361416 0.11712977
000120 ac 93 41 3d 29 a4 98 3c 01 93 d1 bd 3e ec a7 3d
       0.04725997 0.018632965 -0.10233117 0.081993565
000130 0b d7 6a bd a1 99 c7 bd c5 c3 86 bd 0f 78 9f bd
       -0.057333987 -0.09746099 -0.06580309 -0.07786571
000140 b6 b3 30 ba 68 8d a1 bd f5 d8 9d bc ec be ab 3d
       -0.0006740646 -0.07888299 -0.019268492 0.08386025
000150 8e 41 03 3e 34 11 aa bc 3c 50 85 bc 38 de e1 bc
       0.12817976 -0.020760156 -0.01627361 -0.027571782
000160 e1 27 a3 3d 5d 95 ff 3d 38 28 6b bd 21 d5 b1 3d
       0.07966591 0.12479661 -0.057411402 0.08683229
000170 46 56 93 3d aa 5d 16 b9 b9 b0 b2 bc 99 39 de 3c
       0.0719419 -0.00014340007 -0.021812784 0.027127074
000180 fa 53 9b bc e4 0f b9 3d 09 51 b4 3d fc 3e 5f 3d
       -0.018960942 0.09036234 0.08804519 0.054503426
000190 be 65 38 bd 69 ed 4f 3b 90 5a ef 3d 7d 57 b3 3d
       -0.045018904 0.00317272 0.11687195 0.087569214
0001a0 a6 9f 08 3e fa 55 c3 3b 6a e8 12 3d 23 ed d7 bd
       0.13342151 0.005961177 0.03586618 -0.10543277
0001b0 9b a8 9d bd da 02 91 bd af 16 65 3d 53 17 f3 3d
       -0.076981746 -0.07080622 0.055929836 0.11869683
0001c0 03 4b d6 3d 65 16 c7 bc 66 54 a1 3d bb 3c 0b 3e
       0.10463526 -0.02430267 0.07877426 0.13597386
0001d0 62 55 64 3d 32 a7 c3 3d ca 66 f6 3d f8 f9 34 bd
       0.05574549 0.09553374 0.12031324 -0.0441837
0001e0 7f 41 bd 3d cf 15 01 bc c6 1c 1e bd ee 65 68 3d
       0.09241008 -0.007878735 -0.03860166 0.056737833
0001f0 06 b7 26 3d 59 15 87 3d f2 3c 12 3e 2e 80 cd 3b
       0.04070189 0.065958686 0.14281061 0.0062713837
000200 cb 53 98 3c ca b4 b4 3c 1d 16 b7 bd 58 ed e8 bd
       0.018594643 0.022058863 -0.08939765 -0.11373395
000210 fd 51 ae 3d 4f 34 e8 3d 53 b3 3e 3c 82 bb 0a 3d
       0.08511732 0.11338102 0.011639434 0.033870228
000220 97 44 da bd 56 4d fd bd 67 eb 88 3c 7e 82 99 bd
       -0.10657614 -0.12368266 0.016713811 -0.074955925
000230 56 e6 32 3c f2 4d 09 bd b1 33 9e 3c 71 72 93 3d
       0.010919174 -0.0335216 0.019311758 0.07199562
000240 26 dc d3 bd ee 5a 82 3d af 01 b4 3d 36 a7 c6 3d
       -0.10344724 0.06365 0.087893836 0.09699862
000250 b6 91 f1 bd cb 7a 67 3d 16 25 8f 3d ec b2 50 bd
       -0.1179537 0.05651359 0.069894955 -0.050951883
000260 f4 88 b7 bd 31 a9 d4 bd 49 99 ad 3d ab 94 f9 3d
       -0.089616686 -0.10383833 0.084765024 0.12186559
000270 ea 64 aa bd bb b2 58 3d a4 47 8f bd bf 92 c5 bd
       -0.08320029 0.052904826 -0.06996086 -0.0964713
000280 dd 89 e2 3d 3f 4f 06 3e 3e 16 f5 bb 09 43 cd 3c
       0.110614516 0.13116167 -0.007479458 0.025056379
000290 8a 51 f0 3d d7 cd 92 3d f4 bb c1 bd fe e5 f3 bc
       0.11734302 0.07168167 -0.09459677 -0.029772755
0002a0 64 0f 96 bd b4 4e a1 3c 49 55 8f 3d da 39 ff bd
       -0.07327154 0.019690849 0.06998689 -0.12462206
0002b0 cd 00 4c bd 87 1d d5 bd 1f 0a f7 bd 0d 61 b2 3d
       -0.04980545 -0.104060225 -0.12062477 0.08709917
0002c0 ec 45 c4 3d 74 cb da 3c fe 62 b0 3c 17 cd 00 bd
       0.09583649 0.026708342 0.021531578 -0.03144559
0002d0 a3 7c dc 3d 50 4c b5 3d d6 85 da ba ff 9d b3 bd
       0.1076596 0.08852446 -0.0016671966 -0.0877037
0002e0 87 3e 05 be 66 e3 ee 3d 21 ae d4 3d eb 38 e0 3d
       -0.13012134 0.116644666 0.10384775 0.10948356
0002f0 d4 d9 b3 bd 87 c2 87 3d a7 ba 81 3d fa 23 e1 bd
       -0.08781782 0.066289 0.06334429 -0.1099319
000300 a4 a6 49 3b 72 e0 ba 3d 76 88 80 bd 6b ff bb 3d
       0.0030769492 0.09124841 -0.06276028 0.091795765
000310 fa 9f a4 bd ea 0c df bd 39 19 bd 3d 6e 02 b6 bd
       -0.080383256 -0.10891135 0.092333265 -0.08887182
000320 94 eb a0 3d 33 04 3a 3d ce fd cb 3d e3 d0 9b 3d
       0.07857433 0.04541416 0.09960519 0.07608201
000330 3f a9 de 3d c6 c0 b0 3b 5f d1 cf 3d 2d a6 a9 3d
       0.10872125 0.005394074 0.10147356 0.08283649
000340 95 dc f9 3d e2 2a a8 3d 39 df bc bd 2e b3 05 3e
       0.12200276 0.08211304 -0.09222264 0.13056633
000350 d8 ad ed bc e2 e5 b2 bd 10 97 0c 3e 1a 95 5b bd
       -0.02901356 -0.08735253 0.13729501 -0.05360899
000360 6b 18 3d bd 1b ea e2 3d fa 74 e2 3d 4c 53 e7 3d
       -0.046165865 0.11079808 0.11057468 0.112951845
000370 d3 2e 1b 3e c4 cc 92 3d 92 09 59 3c 5a 2f bd 3d
       0.15154581 0.07167962 0.013246911 0.09237547
000380 69 3e f9 3d 1e 4f 3b 3d a0 af 82 bd 4f 4b e1 3c
       0.12170107 0.04572975 -0.06381154 0.02750173
000390 99 12 8f bc 29 3a 0f 3d ce 08 32 bd 55 b2 c6 3d
       -0.017464923 0.034967575 -0.043465428 0.09701983
0003a0 24 df a2 3b 39 aa d3 bd 78 53 a8 3d 0f 36 ce 3d
       0.004970448 -0.10335202 0.082190454 0.100689046
0003b0 f1 e7 cf 3b 6f 42 ff 3d 92 69 f0 3d 02 fd 62 bd
       0.0063447882 0.12463843 0.11738886 -0.05541707
0003c0 f4 b7 b0 3d 3a c7 38 3d 1d b9 4c 3d 56 fc b1 bd
       0.08628836 0.045111872 0.049981225 -0.086907074
0003d0 e7 98 85 3c 36 6d d4 3d e1 28 9e 3d e9 d7 27 3c
       0.016308261 0.10372393 0.07722641 0.010244348
0003e0 7a c4 ab bd 8f 00 15 3e 48 18 3e bd ba 1c ae bd
       -0.08387084 0.14550994 -0.046409875 -0.08501573
0003f0 96 5c 80 bd e5 49 da 3c b6 fd 06 3e e6 96 b0 ba
       -0.06267659 0.026646564 0.1318272 -0.0013472706
