model_save/TGCN-NYC.pth (torch, 159686 bytes, 10 tensors)

conv1.bias f4 [64]
00000000: 3436 f8bb ee65 173d 063f f03c 0c92 61bb
00000010: 02c5 1d3d 9254 173d 6d6f 703c 5fe1 2f3d
00000020: 8894 89bb 0c8a 613c a0d6 87ba 3aba 3a3c
00000030: 5207 873c 60dd ddba dbae 273c cdd2 1fbb
00000040: 0000 0000 3151 e73b 9a38 7e3c d1f0 e9ba
00000050: 0d48 faba 30e7 1c3d 8f7f 853c 5cc4 133d
00000060: 3a1c e43c 835f 763c 1db5 163c 00ae a93c
00000070: 3b7d 1a3d 4534 763c 52e7 ec3b e464 463c
00000080: 53fb b5ba b0c5 213c e9dd 4abc 1c67 583c
00000090: 1737 6a3c 1cdd 4a3c 6528 1f3d 22e5 253c
000000a0: f27c 443c 0000 0000 e9a4 623c 78cb 263d
000000b0: 4854 a43c 7e95 ac3c d89d 203c 744a 723c
000000c0: 6e8c e53c 841c c33b 5c6b 8d3c 58b3 543c
000000d0: cb5e b1b9 89d2 35bc 765a 8e3c 870e 22bc
000000e0: b4b0 a53a b8e8 d23c 4a40 0c3d f1b3 693c
000000f0: f4c9 0f3d e655 bebb 366f 0d3d 84d3 543c
-0.007574821 0.036962442 0.029326927 -0.0034419326 0.03851796 0.036945887 0.0146750035 0.04293954
-0.0041986145 0.013765823 -0.0010363646 0.011396939 0.016482983 -0.0016926937 0.01023456 -0.0024387122
0.0 0.0070592393 0.015516425 -0.0017848258 -0.0019094959 0.038306415 0.016296176 0.036075935
0.02784549 0.01503742 0.009198454 0.020712852 0.037717085 0.01502711 0.007229724 0.012109015
-0.0013884105 0.0098737925 -0.012382009 0.013208177 0.014295361 0.012381818 0.038856883 0.01012543
0.01199268 0.0 0.013833263 0.040721387 0.02005972 0.021067377 0.009803258 0.014788259
0.028021064 0.005954327 0.017263107 0.012982212 -0.00033830697 -0.011097559 0.01737712 -0.009891159
0.0012641163 0.025745735 0.034241 0.014264093 0.035104707 -0.0058085797 0.034529887 0.012989882

conv1.lin.weight f4 [64, 29]
00000000: b98e 96bd 2e6f 15be 88a0 823d d655 59bd
00000010: 1acf 23be afe5 823e 8216 50be 82dd d4bd
00000020: 377d 64bd a0a4 163d 9366 10be 062a 0dbd
00000030: 0a2e 24be 7d98 67bd f48c 12be 95a4 5c3d
00000040: c01d 853d 4e50 0dbe 6e3d 65be 1f00 723e
00000050: 344d 233e 1934 07be 3611 02bd d668 af3d
00000060: ab8c 853e afc2 513e 4275 793e 117e 29be
00000070: 560b 59be ea31 613c 638a ef3d b52e 0c3b
00000080: a328 62be cca6 31be 0e70 a43c 8051 313e
00000090: 532e 26be 85dd 08be cdc5 71be 67c4 2d3d
000000a0: 2d29 bf3d 1528 5abd 59bf 44be 2a95 3cbe
000000b0: 6c9c a13c cb93 10bd 6c0d d8bd bf89 3ebc
000000c0: a407 d03c 1301 93bd feb3 cabd 7275 86bd
000000d0: 0cfa 93bc 7ac8 92be de78 883d ee98 153e
000000e0: e491 54be 64a2 6fbe aff0 ffbd e95a 6cbe
000000f0: 994f 813d 0ad3 09be ee87 09be 636d afbd
00000100: 2385 213e 1320 dabc 0588 df3d 4af5 86be
00000110: 86b9 8b3b 291c 47be 8293 0b3e 5e4e 12be
00000120: ce13 073e e970 003e ae29 87be 5f51 d13d
00000130: 03a1 543e 1dde 553d 740b 443e 1398 353e
00000140: 4d6d 3dbd 2cc7 36be 7d7e a4bd bd0e 27bd
00000150: c632 2abe 1c03 bc3d 4b6e 7dbd e2d7 e0bd
00000160: c95e 343b e9a8 06be c9d2 36be 3ead f73d
00000170: d076 a63d 0a5d 07be 37f7 023e b724 f93a
00000180: aa9b 313e c82e 5bbe 47d6 473e 2002 9ebd
00000190: 7224 823d 8e07 dfbd ee8d 1c3e 16fe aebd
000001a0: ade2 99bc e393 35be 8ff9 01be 765a 473e
000001b0: 78ae 933c 5784 41be cbac 303e 91b9 5bbe
000001c0: 30aa 7f3e 5d72 72bd 566f 2abe bbeb 21bd
000001d0: 4b73 b3bd 1ce7 663e 9419 89be e531 b1bd
000001e0: 7a97 4cbe 564b 22bd 2a81 2d3d 5649 e93d
000001f0: 8b39 fabd 002f d1bd 9951 5cbc a60a abbd
00000200: 0dab 9d3b 87e5 f83d 5ff8 83be 91c4 cb3d
00000210: 41d3 dd3c b3ba 363d 5d7f 74bd 0bd4 acbd
00000220: f7e2 fabd c76c 193e d92e 0fbe 9161 533e
00000230: 63e4 2f3d cb4c 853c d9f3 bf3c 561b 453e
00000240: 1e52 8dbe 0263 1b3e ed32 df3d 679b 7dbe
00000250: 266a a8bd 9982 31be f30a b73d 3d58 2e3e
00000260: 1d4f 2abe f20c cdbd 0f08 23be bacd 1fbe
00000270: f871 0a3e 72e0 8dbe 35c2 b03d 0e1c 4abd
00000280: b3da c93d 841f bf3c 6363 593e 73a2 133e
00000290: 3be2 89be 0b47 04bd 83ac f3bd 99bd 6bbe
000002a0: 33cf 92be 6fea 073e 3f54 92be 7193 6cbd
000002b0: bc9b 543e ac63 4bbd bd40 5dbe 9edd 8a3e
000002c0: 543f e03d 2c0b 13be c69a a73d 830a 4a3e
000002d0: 524c 4ebd 30a3 80be 3a61 563e 2d49 153d
000002e0: 2589 4dbe c5a4 32be fae5 1e3e f1b6 cfbd
000002f0: ba01 f43d ac39 49be 2752 b6bc d72c 40be
00000300: 7f5c 02bd 455b 52be 9638 03be 4729 583d
00000310: 7841 80be 9aab 543e 6624 c6bc 1fd0 f1bb
00000320: f66f 1c3e dc02 8f3d 237d dd3d eb4e cbbd
00000330: 381e bf3c 48e8 03be 1bfe e7bd f90d debc
00000340: d68c 6cbe a144 263e a00d 28be 8f1f 80be
00000350: 300c ddbd f01e ed3d 7142 77bb 9cd8 97be
00000360: 5b9d 733d aae8 9e3d 0ad3 af3c db7e 303e
00000370: 1405 e7bd b3ca 7a3d 4dfc d43d 70da 2abe
00000380: 799a c23d 7811 c4bd 6c31 6bbe 4fba b2bd
00000390: 591f a1bb 2463 373e 0166 5cbd cbf7 c53c
000003a0: 10ce 2dbe 849d cdbd 5306 5fbe 3452 ec3d
000003b0: c8bf b8bd 34e5 853d 12bc 31bd 8660 833d
000003c0: 7546 58be 16ff 21be bbb3 5f3e ad41 b7bd
000003d0: e124 6a3c f6d9 263e 1243 763e 4e1b 293e
000003e0: 249a 4abe ca07 27be 31c0 0a3e 47ef 42be
000003f0: 3058 dcbc d4d5 c83c fe66 d13c 778d 423c
-0.07351441 -0.14593193 0.06378275 -0.053060375 -0.15996972 0.2556586 -0.20321086 -0.10393812
-0.055783477 0.036778092 -0.14101629 -0.034463905 -0.16033188 -0.05654191 -0.14311582 0.053867895
0.06499815 -0.13800165 -0.22386715 0.23632859 0.1594742 -0.13203467 -0.031754695 0.08564918
0.26083884 0.20484422 0.24361137 -0.16551997 -0.2119573 0.013744811 0.11696317 0.0021390144
-0.22085814 -0.17348784 0.020072963 0.17316246 -0.16228609 -0.13365753 -0.23610611 0.042423632
0.093340255 -0.05326088 -0.19213618 -0.18416277 0.019727908 -0.035297196 -0.10549435 -0.011629521
0.025394268 -0.07177939 -0.09897612 -0.0656537 -0.018063568 -0.28668576 0.066636786 0.1460912
-0.20758778 -0.23401791 -0.124970786 -0.23081554 0.0631401 -0.13459411 -0.1343076 -0.08565786
0.15773444 -0.026626622 0.109146155 -0.26359016 0.0042640595 -0.19444336 0.13630489 -0.14287707
0.13191149 0.12543072 -0.26398987 0.102205984 0.20764546 0.052213777 0.19144994 0.17733793
-0.046246815 -0.17849416 -0.08031938 -0.04078554 -0.16620931 0.091802806 -0.06187276 -0.109786764
0.0027522317 -0.13150372 -0.17853846 0.1209359 0.081281304 -0.13219085 0.12789617 0.0019008134
0.17344537 -0.21404564 0.19515334 -0.07715249 0.06354608 -0.10890113 0.15288517 -0.08544557
-0.018784845 -0.17732196 -0.12692855 0.19468102 0.01802753 -0.1889814 0.17253415 -0.21457507
0.24967265 -0.059191097 -0.16644034 -0.03953145 -0.08762225 0.22549099 -0.26777327 -0.08652095
-0.19979659 -0.039622627 0.04235951 0.11390941 -0.12218007 -0.10214043 -0.013447189 -0.083516404
0.0048116506 0.12153154 -0.2577543 0.099496014 0.027078273 0.044611644 -0.059691776 -0.084388815
-0.12250321 0.14982902 -0.13982715 0.20642687 0.042942416 0.01627197 0.023431705 0.19248709
-0.27601713 0.15174487 0.10898385 -0.24766313 -0.08223371 -0.17334975 0.08937635 0.17025848
-0.16631742 -0.10012235 -0.15921043 -0.15605822 0.13520038 -0.277103 0.08630792 -0.04934316
0.09856167 0.023330458 0.2122932 0.14417438 -0.26930413 -0.032294314 -0.118981384 -0.23021545
-0.28673705 0.13273023 -0.285799 -0.0577578 0.20762533 -0.0496556 -0.21606727 0.27122205
0.10949579 -0.1435973 0.081838176 0.19730572 -0.050365753 -0.25124502 0.20935526 0.03644674
-0.20071848 -0.17445667 0.15517417 -0.10142315 0.11914392 -0.19650906 -0.02225597 -0.18767105
-0.031826492 -0.20542629 -0.12814555 0.05277374 -0.2504995 0.20768586 -0.024187278 -0.0073795463
0.15277085 0.06982967 0.108148836 -0.09927162 0.02332984 -0.12881577 -0.11327764 -0.027106272
-0.231006 0.16237117 -0.16411448 -0.25024077 -0.1079334 0.115781665 -0.003772881 -0.29657447
0.059476238 0.07759221 0.021462936 0.17235892 -0.112802655 0.061228465 0.10399685 -0.1668489
0.095021196 -0.095736444 -0.22968072 -0.08726942 -0.004917067 0.17908913 -0.053808216 0.024166008
-0.16973138 -0.10039809 -0.21779756 0.115391165 -0.09020954 0.06537858 -0.04339225 0.06414895
-0.21120627 -0.15819964 0.21845905 -0.089480735 0.014291019 0.16294083 0.24049023 0.16514322
-0.19785362 -0.16311565 0.13549878 -0.1903659 -0.02689752 0.024516024 0.025561806 0.011874548

conv2.bias f4 [29]
00000000: 0000 0000 0000 0000 0000 0000 0000 0000
00000010: 0000 0000 0000 0000 0000 0000 0000 0000
00000020: 0000 0000 0000 0000 0000 0000 0000 0000
00000030: 0000 0000 0000 0000 0000 0000 0000 0000
00000040: 0000 0000 0000 0000 0000 0000 0000 0000
00000050: 0000 0000 0000 0000 0000 0000 0000 0000
00000060: 0000 0000 0000 0000 0000 0000 0000 0000
00000070: 0000 0000
0.0 0.0 0.0 0.0 0.0 0.0 0.0 0.0
0.0 0.0 0.0 0.0 0.0 0.0 0.0 0.0
0.0 0.0 0.0 0.0 0.0 0.0 0.0 0.0
0.0 0.0 0.0 0.0 0.0

conv2.lin.weight f4 [29, 64]
00000000: e53c 3abd f37b f73d ff68 5cbe f10b 79be
00000010: 8321 c2bd 205a 233e 8d71 65be 5857 3c38
00000020: ea34 45be a9ec b9bd 6b19 e53b c812 713e
00000030: a960 98bc 7a28 34bc 1d6e 58be be49 173e
00000040: 15a4 38bd 5659 cfbd 887e 5abe a10b 33be
00000050: 81c6 363e 2221 033e 473c 5e3d fcb4 81be
00000060: 0dd9 123e c2a5 7d3e 8886 ac3d 8faa 7838
00000070: 6188 68be 0040 4dbe 6140 69be 0e2f 0e3e
00000080: fc1b 5bbd 4afd 663b 8446 dabd 8d2e 583e
00000090: 3409 b8bd 99cf 2dbe 0331 57be ddf2 cebb
000000a0: 77d2 553e 47ce 17be 0a3e 123e 1bc8 c3bd
000000b0: 7880 41be 497c c23d 0afd 91bd 3dc8 cb3d
000000c0: 3ed9 21be e718 53bd 361c 4f3e c65c bd3d
000000d0: cd7b 113c a7f2 a23c a33e 76bd cf7c 20be
000000e0: 1711 1fbe e6d4 5e3c c4b1 67be d5f6 0b3e
000000f0: ed68 f1bd 13eb 9dbd 49ab b6bd f5a7 0f3e
00000100: 0fac 89bc d1b3 233d 0057 e73d a3e0 763e
00000110: 0b83 d63c ad3c 263e 8394 34be ea90 8ebd
00000120: 8c2f 62bd 1abd 1f3e 197a 033e de66 fcbb
00000130: 249a 52be 3e3c 39be 1ba6 683d 81f3 96bd
00000140: d477 68be 17fa 363c f8b9 80be a8d2 653e
00000150: be88 23be 7cd4 96bd ddd7 b63c aa6d 7cbe
00000160: 3c3e 4abe fa1e ab3c 569c 193e 51e8 75be
00000170: 7cd7 773d 83ed 083e b706 5f3e d9a6 2ebe
00000180: dac1 76be ce0a 16be 8ef8 3ebe 69eb 41be
00000190: b1c2 be3d 1e82 8e3c fc9d 17be 3d76 a1bd
000001a0: 4e7e e2bd 523b 043e 3769 153e c944 1e3d
000001b0: 9c44 4d3e add8 ddbb 2a72 adbd 0da8 5a3e
000001c0: 7a29 573b 8843 3a3e 9695 09be 4804 73bc
000001d0: ed0b 273d ab28 3a3d 53e6 43be 1622 613e
000001e0: 3e73 2cbe 0873 05bb 5747 0abe e108 0c3e
000001f0: da64 583d 1b61 0bbe 2ab4 df3d 7751 57be
00000200: c81a 603e ee6f f23d 8690 fc3b afc0 7ebe
00000210: ef4a 453e 1956 80be fbe5 dc3c e652 be3d
00000220: 9f55 3e3e d975 d1bd 7969 6a3e eac6 bc3d
00000230: 63da 56be f7d9 103e fe27 68ba 191b 203d
00000240: b9b4 02be c30e dcbd 01c4 973d 24ef 7cbe
00000250: f7f7 bbbd 05f9 c6bd 194f 513d d733 eb3c
00000260: c62e 5a3e 9e8c 173e 1b59 7d3e fc00 e13d
00000270: 7f2a bc3d e00f 0dbe e502 4bbd 21d7 7bbe
00000280: 36a9 dbbd 78fc 92bd a6a0 3f3e d149 ba3b
00000290: c2cf 60be 8418 e7bd 5469 d83d 3eb8 25be
000002a0: 0d23 603e ba9c d1bc 518c 0dbe f509 63be
000002b0: 8179 97bd ba7e 9539 1346 e13d 646e 273e
000002c0: b707 fdbd b82d 1dbe 7703 853d ea01 433e
000002d0: f4a1 573e 9a26 af3d 7869 d23d 118d 003d
000002e0: 29e6 6a3e 9efe ba3d 6cd7 6ebe 2a33 2fbe
000002f0: d690 00be b0ab bdbd 16f2 613e aab5 0e3e
00000300: cae8 2cbe 9b99 fd3d 6b09 783e aaae 7e3e
00000310: edfc 46be bdc3 a13d ceb7 5abe db88 4abe
00000320: cf9f 48be 71e7 1fbc 9863 633e 205a 873d
00000330: 704c 0f3e 596f bc3c 3a57 4f3d 2fd2 78bd
00000340: a48d 373e 11c1 403e 684f 2cbe 5bb2 1dbd
00000350: 7423 4a3e f513 33be 43aa e13d f5f7 c93d
00000360: 9d73 733e 8a56 273e cbab 723d 0c1f 723e
00000370: 14b2 32bc a4d1 f5bd 3b4c 0e3e c3a3 943d
00000380: 5e39 d53d 0f5d 21be 5bb8 7cbe 4f9e 163e
00000390: ee44 323e f175 6c3e 0ee7 803e e0f4 a73d
000003a0: 5f9a 553e 106b febd 2a57 92bd cd14 abbd
000003b0: 3c23 41be 5d6a 43be 709f 5abe 6e40 11bd
000003c0: bfa3 59bd 0e86 7ebe f61c e63d 6ec5 513d
000003d0: 4761 32bd 74fe 6cbe 76be 2f3d c8d9 01be
000003e0: 9fb9 22be 0944 533e 2cd0 523e 5645 213e
000003f0: 7281 df3d 9821 323e 54b1 80be 1ba1 7a3e
-0.04546823 0.12084188 -0.21524428 -0.24320962 -0.09479048 0.15952349 -0.22406597 4.4904038e-05
-0.19258466 -0.090783425 0.0069915554 0.2354232 -0.018600779 -0.0109959785 -0.21135755 0.14774224
-0.045078356 -0.10124461 -0.2133733 -0.17484905 0.1784916 0.12805608 0.054256704 -0.25333393
0.14340611 0.24770263 0.08424097 5.9286653e-05 -0.22708274 -0.20043945 -0.22778465 0.13885137
-0.053493485 0.0035246187 -0.10657981 0.21111508 -0.0898613 -0.16973723 -0.2101479 -0.0063155727
0.20881067 -0.14824782 0.14281479 -0.095596515 -0.18896663 0.09496362 -0.071283415 0.09950302
-0.15805528 -0.05153742 0.20225605 0.09246211 0.008879614 0.019891096 -0.06011833 -0.1567261
-0.15533863 0.013600564 -0.22626406 0.13668378 -0.11787591 -0.077108525 -0.08919389 0.14028914
-0.016805677 0.03996641 0.11295891 0.2410913 0.026185533 0.16234083 -0.17634778 -0.06961234
-0.055221125 0.1559948 0.12839545 -0.0077026924 -0.20566612 -0.18089387 0.056799036 -0.073706634
-0.22701961 0.0111680245 -0.25141883 0.2244364 -0.15970132 -0.07364747 0.022319729 -0.24651209
-0.19750303 0.020888794 0.15001044 -0.24014403 0.060508236 0.13371854 0.21779905 -0.17055835
-0.24097386 -0.14652559 -0.18649504 -0.18937458 0.09314478 0.01739603 -0.1480636 -0.0788388
-0.11059247 0.12913254 0.14590918 0.038639817 0.20045704 -0.0067702145 -0.08469041 0.21353169
0.0032831118 0.18189824 -0.13435969 -0.014832564 0.040782858 0.04544894 -0.1913083 0.21985659
-0.16840836 -0.0020362753 -0.13503776 0.13675262 0.052830555 -0.13611262 0.109230354 -0.2102717
0.21885216 0.11837755 0.007707658 -0.2487819 0.19266866 -0.25065687 0.026965132 0.09293155
0.1858735 -0.10227556 0.22891797 0.09217627 -0.20981745 0.14145647 -0.0008856057 0.039088342
-0.12764253 -0.10745003 0.07410432 -0.247006 -0.09178155 -0.097154655 0.051100824 0.028711243
0.21306905 0.14799735 0.24741022 0.10986516 0.09187793 -0.13775587 -0.049563307 -0.24593784
-0.10725634 -0.07177061 0.18713626 0.005685069 -0.21954253 -0.11283973 0.10566965 -0.16183564
0.21888371 -0.025587428 -0.13823058 -0.22171767 -0.07396222 0.00028513913 0.10999694 0.16350704
-0.12354987 -0.15349472 0.064948015 0.19043699 0.21057874 0.085522845 0.10274023 0.03138453
0.22939362 0.091305956 -0.23324364 -0.17109361 -0.1255525 -0.092612624 0.22065005 0.13936487
-0.16885677 0.123828135 0.24222343 0.24871317 -0.19432421 0.07898662 -0.21359178 -0.19778769
-0.19592212 -0.00975977 0.22205961 0.06608987 0.13994002 0.023002313 0.050620295 -0.06074732
0.17925125 0.18823649 -0.16827166 -0.03850017 0.19740087 -0.17488082 0.11018803 0.09861747
0.23774572 0.16341606 0.059245866 0.23644656 -0.010906715 -0.120028764 0.13896267 0.072577976
0.104113325 -0.15758155 -0.24679701 0.14708827 0.17409107 0.23091866 0.2517628 0.08201003
0.20859669 -0.12422764 -0.071455315 -0.08353577 -0.18861097 -0.19083543 -0.21349883 -0.035461836
-0.053134676 -0.24855825 0.112359926 0.051213674 -0.043549802 -0.23143941 0.042906247 -0.12680733
-0.15891121 0.20631422 0.20587224 0.15749106 0.109133616 0.17395627 -0.2513529 0.2447552

lstm.weight_ih f4 [256, 64]
00000000: dad1 06bd ab36 743d aa4c bcbc 5eb3 e23d
00000010: 30fc 1dba d69e 0d3d e364 2c3d fbe0 273d
00000020: 5d5e e4bd d99d c03d 5275 a13b 1693 a03d
00000030: aeea 99bd d027 013e 213b 983d 1d4c ff3b
00000040: 72ad 893d fff4 f1bc d489 4a3d 51a2 0bbd
00000050: 55bb 04be 0389 273d df71 37bd 0c42 46bc
00000060: ad30 f5bc 96d3 f13d 4f23 333d b8f9 0e3d
00000070: 8e5b d8bd 3f17 bcbd 8d18 8d3d 0209 c73d
00000080: fcd9 b13c d73f babd 3afa 933d bdcf 3fbd
00000090: 98f6 fa3d a7dc dabc 57b8 3fbd 319b ae3d
000000a0: 9832 ef3c 08bf b3bc a220 153e 34a0 dc3d
000000b0: 144b 12bd b996 19be b046 b4bd f1e7 b1bd
000000c0: 44d0 943c 1273 23bc 3618 65bc 85ca e3bd
000000d0: 504a f93d 38f0 43bd 1d6d 993d 4574 f8bc
000000e0: 28e0 c33b 39db 033e e19c f8bc f837 82bd
000000f0: c7d1 b7bd 7050 d0bd 6c99 953b dbbb c03d
00000100: 4228 46bc 154f cebd ac3a c83c b56b 5e3d
00000110: 65b8 fabd e73d 313d cc02 8f3c f545 58bc
00000120: de10 c4bb 2479 b83c b9fc c33d 01f4 7f3d
00000130: 0220 9d3d 351b ab3d cd62 e63d d228 f7bc
00000140: 0442 f6bd cdd1 b63c 4c01 b73d b394 eb3d
00000150: e99d 0cbd e4b3 78bd 5764 f53d 8a38 c5bd
00000160: ae4a 9dbc 154b e4bd 54ca a9bd 3d00 d63d
00000170: 4298 b53d c056 263d 83fa ddbd 11fd 74bc
00000180: 76b6 d23d 62fc cc3d 4372 993d 14e3 123d
00000190: 93a5 6fbd 3ab4 023b 245f 95bd afbb 6abd
000001a0: 4a3a 81bb 8afe bdbd 9865 cbbd e5c7 ecbc
000001b0: 13b9 f93d af84 dd3d 0968 08bd e9d4 8a3d
000001c0: b744 9c3c 3fa1 483d f962 833c 3708 c5bd
000001d0: 39b4 ac3c ae24 a13d 5799 373c 74d8 503d
000001e0: efd7 893d d6b8 853c 828b a0bd b8a5 6d3d
000001f0: eb0c fc3d 0516 373b dffe cf3c 505a edbc
00000200: 2b25 c6bc 9f8c 70bd b6c8 85bd 9a9d f13d
00000210: 94e1 84bc 67ee 013e fae0 203d 262b b839
00000220: de8a 43bd a3fd 2fbd c8c4 1e3b ef99 bfbd
00000230: 0aec 8cbc b639 afbd 3ebb 6f3d 630c eeba
00000240: 84ee c23d 258f 063e 3c28 123e ead1 2a3d
00000250: 1afb 3abd 50bf eebc fb60 3bbc 2b6c f73d
00000260: ef69 10bc fd8c cd3d 99c9 14bd ecb2 a73c
00000270: bd69 8e3d c7c1 6cbd 0a6b 75bd d5eb 26bd
00000280: cafe a6bd d7f0 ad3d 4cc0 4c3d 96c7 88bd
00000290: 2ec7 553d cdce d33c 80ac b43d facb f13d
000002a0: 45c9 67bd f098 a33c 90a0 c4bd f1d8 cf3d
000002b0: fa33 e63d c905 20bd bc8a bdbd d8a3 0e3d
000002c0: 6999 44bc 851e eb3d 70fb e63d 5159 d6ba
000002d0: 51d6 e43d 1520 f73d e71b b83d 2671 353d
000002e0: 4850 013e 151f 923d 05ba 5b3d ed74 e93d
000002f0: 71ac 0c3d 3498 31bd 6fe9 033e 041d 073e
00000300: 5518 a8bd aa3c 923d 6374 033d aaba 233d
00000310: 7278 e9bd f1fc 11be 8852 383d 12ac 9e3d
00000320: 7d7f a7bd 9cb0 a0bc 556e ed3c dc45 88bd
00000330: 2fc4 e83d 8632 c6bd 1c5e ec39 8230 9fbd
00000340: 2042 4cbc 7ce2 dc3d 568f 143c de07 143d
00000350: 207a 81bd f411 6bbb b949 073d aa6f cd3d
00000360: f800 bb3c 796e fdbc c6eb b8bd 61de 4b3d
00000370: 91a9 52bd b80a f93c dc61 2dbd ec6b b2bd
00000380: c5eb be3d 4b44 e93d 11f9 873d 548f 8e3c
00000390: 7ba7 e43c 4280 58bd d810 93bc 5c7e 0e3d
000003a0: 917a 5dbd 704d 343c 6de4 c1bc 6c5d 863d
000003b0: c59b 2cbd b0a0 6c3d 843c 24bd 2eb7 95bd
000003c0: 60ab aebc 48cb a23d 226c 95bc f855 ad3d
000003d0: 8637 77bd 65d9 6dbd 5773 033e 3d43 a03c
000003e0: 3589 9f3d 1485 b03c a403 01bd 2121 79bd
000003f0: da2c bd3a 2850 82bc 2e67 83bd 9b5e cbbd
-0.032914974 0.059622448 -0.022985775 0.11069368 -0.00060266536 0.034575306 0.0420884 0.040986042
-0.11150811 0.09405107 0.0049273157 0.078405544 -0.07515465 0.12612844 0.07433153 0.007791056
0.06722535 -0.029535769 0.04944785 -0.034090344 -0.12962086 0.04090215 -0.04478633 -0.012100708
-0.029930437 0.11807935 0.043734845 0.03490612 -0.10564338 -0.09184121 0.06889448 0.09718515
0.021710388 -0.09094208 0.07225461 -0.046828974 0.12254065 -0.026716543 -0.04680666 0.08525694
0.02919893 -0.021941677 0.1456323 0.10772744 -0.03571613 -0.14998902 -0.08802545 -0.086868174
0.018165715 -0.009976165 -0.013982823 -0.11122612 0.12172377 -0.047836512 0.07491515 -0.03032888
0.0059776492 0.12876596 -0.030348243 -0.063583314 -0.08975559 -0.10171592 0.0045654085 0.094108306
-0.012094559 -0.100736775 0.02444204 0.054301936 -0.12242202 0.043271925 0.017457388 -0.013200273
-0.005983456 0.022518702 0.095696874 0.06248856 0.07672121 0.08354799 0.112493135 -0.030170832
-0.1202431 0.022316838 0.08935794 0.115029715 -0.034330282 -0.060718432 0.11982029 -0.096299246
-0.01920065 -0.11147133 -0.08290544 0.10449264 0.088669315 0.040610075 -0.10838797 -0.014952914
0.10288708 0.10009076 0.07492497 0.03586109 -0.058507513 0.001994385 -0.07293537 -0.057307895
-0.003943716 -0.09277065 -0.09931487 -0.02890391 0.12193503 0.10816323 -0.03330234 0.06778891
0.019075735 0.0489819 0.016038405 -0.096207075 0.02108203 0.07868324 0.011205993 0.050987676
0.06730639 0.016323488 -0.07839109 0.05801937 0.123071514 0.0027936709 0.025390087 -0.028973728
-0.024187645 -0.058727857 -0.06532423 0.11797638 -0.016220845 0.126886 0.039277054 0.00035127363
-0.047739856 -0.042966496 0.0024226177 -0.093555324 -0.017202396 -0.08555929 0.058528177 -0.001816165
0.095181495 0.13140543 0.1427316 0.041704096 -0.045649625 -0.02914396 -0.011436696 0.12081178
-0.008814319 0.10036657 -0.03632507 0.020471059 0.06953762 -0.057801988 -0.059916534 -0.04075225
-0.08154066 0.08493202 0.049988076 -0.06678693 0.052191906 0.025855446 0.08821964 0.118064836
-0.05658843 0.019970387 -0.09600937 0.101488 0.112403825 -0.039068017 -0.09254977 0.034824222
-0.011999466 0.114804305 0.11278427 -0.0016353523 0.1117369 0.12066666 0.08989697 0.04429736
0.12628281 0.07134835 0.0536442 0.11399255 0.03434414 -0.043358043 0.12882017 0.13194662
-0.08207766 0.07140477 0.032093417 0.03997294 -0.11399926 -0.14256646 0.045000583 0.077476636
-0.08178613 -0.019615464 0.028983274 -0.066539496 0.11365544 -0.09677605 0.00045083545 -0.07772924
-0.012466937 0.10785386 0.009067377 0.036140315 -0.063221216 -0.0035868855 0.03302929 0.10031064
0.02282761 -0.030936467 -0.09029345 0.049772624 -0.051431242 0.030400619 -0.042329654 -0.08711991
0.09322313 0.11389979 0.066393025 0.017402329 0.027911892 -0.05285669 -0.017952368 0.034788474
-0.054071967 0.011004791 -0.023668492 0.065607876 -0.04214074 0.05777043 -0.040096775 -0.073103294
-0.021321952 0.07948929 -0.018240038 0.08463663 -0.060355686 -0.05806865 0.12836967 0.019563312
0.07789842 0.021547832 -0.031497613 -0.06082261 0.0014432922 -0.015907362 -0.06416164 -0.09930154

lstm.weight_hh f4 [256, 64]
00000000: 606f 073e 5696 b6bd 994b b7bd 0e0e 0e3d
00000010: 0062 e0bd 54dc 893d 1ebe 82bd 3767 af3d
00000020: 3add a1bb bd08 c7bc 5dbc e8bd 4e0d 983c
00000030: d20d 7dbd 89da 703c f39f 123d a77d 903c
00000040: cd79 f6bd 08dc f7bd 3ac6 a03d bb03 ae3b
00000050: 4edc f8bd 486a 28bc 399b 823d aa64 b2bd
00000060: bc67 003e 3b2e 2cbd 0cbf 3bbd 75e3 843c
00000070: dc30 f73c 852a 843d 6d64 79bd ab96 0b3e
00000080: 3ed5 48bd 838b 0b3e c7fb 053d 19de 983d
00000090: 91da c9bd b147 993d 2cc6 eabc ed33 53bc
000000a0: 2e1d 1dbd bf73 d4bd fa3a 37bc 3c95 3c3d
000000b0: 3f49 493d ec24 103e ddea 9bba 569d 413c
000000c0: 5ed1 a23d caf9 633d f797 f7bd ac4f c4bd
000000d0: 6852 15be 3aba b7bd d290 5c3d de18 593d
000000e0: 6e77 7cbd 6af4 7d3d c7c7 4d3d 30cd eb3c
000000f0: 4a1e ae3d d59c 863c 2893 0abb f0b8 0cbd
00000100: 3f70 973d 9b15 933d 6431 a6bb a59f 02be
00000110: 2f74 92bc ae49 00bd c289 d53d b501 1dbd
00000120: eb34 fdbd d740 a1bc 7d99 da3d e81a 16bd
00000130: 91d0 b6bd 9c44 9c3b f73a be3a f962 e13d
00000140: edb8 d8bd 71f5 c0bc 74bc 973d 6878 f03d
00000150: d476 0ebc 66ba 35bd b227 03bc bf4c d5bd
00000160: 70c9 833d e651 a93c bdce 84bd f342 f63d
00000170: 6059 c33d 70ed aa3d 0286 b7bd 0715 763d
00000180: 9453 933b f717 74bd 1889 bdbd 4d21 83bd
00000190: 00ce d7bd ae69 27bd c6e0 443d 5887 df3d
000001a0: 0955 69bd 7a8a 8f3d f4c7 83bd b52a e53c
000001b0: ec4c ca3c 998a d6bc 652a c73c cb46 0cbe
000001c0: f5ee c5bb ec25 99bc 5809 c83c c474 95bc
000001d0: 6423 96bd 395b dbbd 0107 69bd ff1a 003e
000001e0: 28a1 0f3d e516 80bd 7b5f 853d 019f 67bd
000001f0: 2bc7 dabd bb6d c03d 5d72 cabd 50c3 b4bd
00000200: 6a6b 4ebd a70f c6bd 64f4 8cbd bdab 503d
00000210: bd28 e4bc c5da 81ba ce63 193e e545 52bd
00000220: bb41 5abc f80a dc3d bece 943d af09 53bd
00000230: 11c7 39bd 5b96 6bbd b641 9dbc cd2e 03bc
00000240: 39aa 2fbd b394 05bd 5107 9dbd 632f 053e
00000250: 0f2b 003e fa1c 94bd e04d cebc 561d 49bc
00000260: 3c3f a73d cc08 363d 71e8 16bd 1383 303d
00000270: c39f bcbd 70dc be3d 6f8f eebd 326b 14bd
00000280: bfd9 ab3d 336c 503d 0c6f e13c 9ca5 603d
00000290: fc57 8fbd 258c 0b3d 3ec5 0bbd 962a 493c
000002a0: e4b7 9fbd b45e 9b3d 7e5a b0bd cce9 b4bd
000002b0: 6d27 d43d a02c 653d fe31 85bc 06a3 5fbd
000002c0: d7e0 87bd 1e3b d9bd b8cf 5ebd 25d5 eabd
000002d0: 167f 2a3d ee27 873b 8392 8bbd 15b8 4fbd
000002e0: e0ad e93d 8b0a c6bd c687 443d 75eb d3bd
000002f0: 8ec2 da3c 99c1 f93d c6fa ecbd da6f 873c
00000300: 42c2 093d f9ef f6bc 29ff f23c b1ba 84bd
00000310: bb67 b8bd 18dc 45bb 1109 a73c 64aa afbd
00000320: 263d 603d 64f4 f43d 44cb 5b3c 4b82 083e
00000330: d6d7 a93c 0cb4 043d 72ee bdbc b1bc 0d3e
00000340: a67f aa3d cbcf 133d 3a11 a13d 2af5 563c
00000350: 0dcd 0e3e 5b4f 8dbd c83e 5abd a75a 4a3d
00000360: cd62 c4bd 3c8f a83d 0def acbc 85fc ddbc
00000370: 786b debc c645 bf3c a75e 82bd 7d11 4bbd
00000380: 1061 d9bd 4aa5 543d 5b0b 08be 56cf 17bb
00000390: 1fac 0c3e 69bc 98bd 7321 6e3d a2dd 8ebd
000003a0: f216 e63d 9123 8ebd 38ba 98bd 68f0 353c
000003b0: 1ce3 31bd 77f7 85bd 7f18 acbd e82a 0dbe
000003c0: 04a1 bcbc 0aa2 913d 50bb 893d 8c77 8e3b
000003d0: 7059 afbd bf0a a13b 13fc 5bbd d053 a2bd
000003e0: 829e dabd b9af 36bd 1c5d 9abb e12a 043e
000003f0: 3eb8 d2bd ed32 52bd 3fcb 273d 04c3 12bd
0.1322608 -0.08915393 -0.08949966 0.034681372 -0.10956192 0.067314774 -0.06383918 0.085646085
-0.0049397023 -0.024296159 -0.113640524 0.018561032 -0.06178076 0.01470054 0.03579707 0.01763804
-0.120349504 -0.121025145 0.07850309 0.0053105033 -0.12151395 -0.010279246 0.063772626 -0.087106064
0.12539572 -0.042036276 -0.045836493 0.016221741 0.030174665 0.064534225 -0.06088679 0.13631694
-0.04903149 0.13627438 0.032710817 0.07464237 -0.09856141 0.07484377 -0.028658949 -0.012890798
-0.038357906 -0.10373639 -0.011183495 0.04604076 0.04914212 0.14076585 -0.0011895556 0.011817297
0.0795009 0.05565814 -0.12089532 -0.09585509 -0.14582217 -0.08971067 0.05384905 0.05300223
-0.061637335 0.06200067 0.05023935 0.028784364 0.08501871 0.016432205 -0.002114484 -0.034356058
0.07394456 0.07181855 -0.005071806 -0.12756212 -0.017877666 -0.031320266 0.10426666 -0.038331706
-0.12363609 -0.019684238 0.10673807 -0.036646754 -0.089265 0.004768921 0.0014513423 0.11005206
-0.10582147 -0.023554536 0.074089915 0.11741716 -0.008695323 -0.044367217 -0.00800507 -0.10415029
0.064349055 0.020668935 -0.06484745 0.12024488 0.09538531 0.08346069 -0.08961107 0.060078647
0.0044960473 -0.059593167 -0.09254664 -0.06402836 -0.10537338 -0.04087227 0.048065923 0.10914487
-0.05696586 0.07008834 -0.064346224 0.027974466 0.024694882 -0.026189135 0.024312207 -0.1369888
-0.006040449 -0.01869484 0.024418518 -0.018244155 -0.07330969 -0.10710759 -0.056891445 0.12510298
0.0350658 -0.06254367 0.06512352 -0.056548122 -0.106825195 0.093959294 -0.09885094 -0.088263154
-0.050395407 -0.09670954 -0.06882551 0.050945032 -0.027851457 -0.0009907117 0.14979479 -0.051336188
-0.013321335 0.107442796 0.072659954 -0.051522907 -0.04535586 -0.057516437 -0.019196372 -0.008006764
-0.042886946 -0.032612514 -0.07667411 0.13006358 0.12516426 -0.07232089 -0.025183618 -0.012275061
0.08166358 0.044441983 -0.036842767 0.043093752 -0.0921016 0.09319389 -0.116484515 -0.036235042
0.08391141 0.050884437 0.027518772 0.054845437 -0.069992036 0.0340692 -0.03412365 0.01227822
-0.07798746 0.075864226 -0.0861101 -0.08833656 0.10359082 0.05595076 -0.01625919 -0.05459883
-0.06634682 -0.10606979 -0.054397315 -0.11466435 0.041625105 0.004124633 -0.06815054 -0.050712664
0.11410117 -0.0966998 0.047981046 -0.10347644 0.026704099 0.12195129 -0.11571269 0.016532827
0.033632524 -0.030143725 0.029662685 -0.06480921 -0.0900416 -0.0030191 0.020390065 -0.08577421
0.054745816 0.11960676 0.0134151615 0.13330953 0.020732801 0.03239827 -0.023184989 0.13841511
0.08325128 0.03608684 0.07864614 0.013119975 0.13945408 -0.068999015 -0.05328253 0.04940286
-0.09589157 0.08230445 -0.021110082 -0.02709795 -0.027150854 0.0233487 -0.0636571 -0.049577225
-0.10614216 0.051915444 -0.13285582 -0.0023164353 0.13737534 -0.074578114 0.05813737 -0.06975867
0.11234845 -0.069403775 -0.074573934 0.011104681 -0.04342948 -0.06541341 -0.0840311 -0.13785899
-0.023025997 0.071109846 0.0672518 0.004347747 -0.08561981 0.004914611 -0.053707194 -0.07926142
-0.10674764 -0.044601176 -0.0047108065 0.12906982 -0.10289048 -0.051318098 0.040965315 -0.035830513

lstm.bias_ih f4 [256]
00000000: aa9f d03d 7efe ed3d fa24 8d3d 4c69 63bc
00000010: 2adb 403c ae0a 5dbd 2d31 243d 7ccf 91bd
00000020: c411 073e bd93 b7bd 0bd9 d6bd cfed 903d
00000030: b348 abbd b041 013b 3a5f fe3d 856c f03c
00000040: fbdc bcbc df25 e8bc a2d7 fc3d 1baa 17bd
00000050: d65d 2ebd 5352 cabd 85cc 0ebc 6d7d 25bd
00000060: 9d69 013e 0fe0 d23d 19db a0bd aa63 b1bd
00000070: 99fe 07bd 4838 8e3d 2ab3 fb3d a5d4 23bc
00000080: 491a 97bd 1e7b 85bd 8626 9c3a c3b6 dcbd
00000090: 85ce 8dbc 0272 823d 458d a9bd 0f84 68bd
000000a0: 447d e1bd adb5 babd ee68 a5bd 6703 e03b
000000b0: 04ab 7c3d 2fb2 af3c b557 2a3d 7bae ffbc
000000c0: 4a57 573d d14c 473d 8bac 0bbd 2b62 f03d
000000d0: 0cb8 993d 98a2 73b9 d481 30bd 7590 a63c
000000e0: 388c c5bd 2916 243d 5f6f 203d af64 dbbb
000000f0: d9a6 8fbd c135 b13d 9d99 e53d 4be9 b23d
00000100: a404 4d3b 7ab2 cdbd feff 44bd 4964 cbbd
00000110: fa74 cf3a 90cb 60bd 3531 ccbd 35b8 80bd
00000120: c3d6 063e a9ac 31bd 3148 54bd a20e 9fbd
00000130: 7710 923d b924 a53d 104d e7bc 4cc6 0c3d
00000140: 6c82 b0bd 53dd b53d 56ee a53d eb5a b4bd
00000150: 4c28 4b3c f4b9 0abd 40e2 c83d 1317 00bd
00000160: 029b f0bc eaae 533d 5c93 12bd 707d 073e
00000170: 5b67 b4bd e87d a53d f979 5ebb cdcb 32bd
00000180: be4d 0f3e ace8 df3d 10c0 d8bd eacd 803d
00000190: 0e20 bbbd 0f86 173e 532c 9d3d 77d0 b5bd
000001a0: f914 ab3d a050 083e 8889 063e f544 33bd
000001b0: 4ccb 84bd 6dab 013e 3a71 b03d 68b7 ae3d
000001c0: 1419 7b3c ab52 cabd 621d 82bd b77a 0a3e
000001d0: a08b 013c 243e 69bd b61d b7bc 29a0 9d3d
000001e0: 580b f33d 393b 843d e3cc 953d 9e7f 59bd
000001f0: b8f8 283d d337 6d3c b952 7bbc 770d 563d
00000200: 2ef8 063e 220a 10bd b913 67bd 1d26 693d
00000210: 2b4a e0bc 4bd3 d03d 61de 323d abc5 0abb
00000220: 41bd e5bd 6acf 73bc c237 afbd fd48 8fbd
00000230: b34f 97bd 2dbd 7a3d 4f15 093d f205 a83c
00000240: 07db 033e 3b31 e43d ba81 26bd 6d31 d03d
00000250: 0ac4 b53d 592e d0bd 39b4 513d 0346 303d
00000260: a6ad a9bd 3d28 90bd d290 b03d 5149 ecbd
00000270: 60b1 c1bd a518 d7bd dec3 bfbd 9b76 453b
00000280: 4369 febd 0d81 babd eb63 603d 10ef 86bd
00000290: 0322 c3bc fe76 acbd 3d11 fdbb 0693 d0bd
000002a0: fe2e c73d d72f 63bd 70cf c3bd c396 d53b
000002b0: 7306 e93d 258b 0b3d f4b3 9abc b2a4 e2bd
000002c0: c7ca b53d 404d 453d e356 153d b47a 30bd
000002d0: 6bc1 7dbd 8cdc 013e 1f11 293d fa70 673d
000002e0: 5222 b8bd b984 f5ba 9673 3cbd 2125 e0bc
000002f0: b276 49bd 9acd aebd 307e cdbd d829 a8bc
00000300: cf73 3fbd 35d8 9fbd 9a5b 043d 704a 143d
00000310: e053 fd3d 90e8 c6bb fef3 1fbd e916 e9bb
00000320: 0523 803d 47a5 993d aa44 d5bc fc4a 523d
00000330: bf66 ef3d fd55 81bd aea2 72bd da05 903c
00000340: 19a3 973c 65bb 12bb 3073 f53d 0d4a 8fbd
00000350: 780d 093e 3e38 053e bc01 663d 1399 b9bd
00000360: a90a e03c ff5a 8f3d 6e3f c6bd c12c b4bc
00000370: d9c2 9b3d d9ab 0f3e 74e6 9a3d 3174 f2bd
00000380: b0c5 7cbd f8fb b73d d8ed 98ba cbb4 ae3b
00000390: 5bf9 6a3d 0ee1 083e 77bb 343d ce7e 023b
000003a0: 1af7 073e 9b94 fa3c e5ac c43d d8c2 81bd
000003b0: 699e ba3c a940 cebc 4425 3fbd bf39 49bb
000003c0: e408 09bd 67c7 b0bd e752 25bc 9b86 ed3d
000003d0: 08b4 e6bc 823d 063e 85a3 c43c e261 a13c
000003e0: 391d 6f3b d723 f03d 97e2 c3bd 5376 cfbc
000003f0: 734b 05be 2ebf a3bd a25f 9b3d 996c 89bc
0.101867035 0.11620806 0.06891818 -0.013880085 0.011771003 -0.053965263 0.04008596 -0.07119653
0.13190371 -0.08963726 -0.104906164 0.070766084 -0.08363476 0.001972299 0.12420507 0.029348621
-0.02305459 -0.02833837 0.12345816 -0.03702746 -0.042569958 -0.09878983 -0.008715753 -0.04040282
0.12637945 0.10296642 -0.078542896 -0.086615875 -0.033201788 0.069443285 0.12290032 -0.009999429
-0.0737806 -0.06517623 0.0011913336 -0.107770465 -0.01731039 0.063694015 -0.08278898 -0.056766566
-0.11010221 -0.09116683 -0.080766544 0.006836343 0.06168653 0.02144727 0.04158755 -0.031211128
0.05257348 0.048657242 -0.034100097 0.11737474 0.07505807 -0.00023234857 -0.043092564 0.020332554
-0.09645885 0.040060196 0.03916871 -0.006695352 -0.070142455 0.08652831 0.1121094 0.08735903
0.0031283284 -0.10043807 -0.048095696 -0.09931237 0.0015827708 -0.054881632 -0.09970323 -0.06285135
0.13167863 -0.043377552 -0.05182666 -0.07766463 0.07132047 0.08063645 -0.028234988 0.034368798
-0.08618626 0.08880105 0.081020996 -0.08806404 0.012399744 -0.033868745 0.09808779 -0.031272005
-0.029370788 0.051680483 -0.035785064 0.13231444 -0.08808776 0.08080655 -0.0033947213 -0.04365139
0.139945 0.109330505 -0.10583508 0.06289275 -0.09136973 0.14797233 0.0767447 -0.08877652
0.083536096 0.13312006 0.13138402 -0.043766934 -0.06484088 0.1266305 0.08615346 0.08531076
0.015325803 -0.09879049 -0.063532606 0.13523374 0.007906824 -0.056944028 -0.022353034 0.07696564
0.11867398 0.06456608 0.0731447 -0.05310022 0.04125282 0.014478642 -0.015339547 0.052258935
0.1318061 -0.035165913 -0.056415293 0.056921113 -0.027379116 0.10196551 0.04366911 -0.0021174948
-0.11217738 -0.014880994 -0.08555557 -0.06996343 -0.07388248 0.06121557 0.033467587 0.020510647
0.12876521 0.111422025 -0.04065106 0.10165677 0.08875282 -0.1016509 0.051197264 0.04303552
-0.08285074 -0.07038925 0.08621372 -0.115374215 -0.0945766 -0.105027474 -0.093635306 0.0030130509
-0.12422421 -0.09106646 0.05478279 -0.06588566 -0.023819929 -0.084211335 -0.007723002 -0.101842925
0.0972576 -0.055465546 -0.0956105 0.0065182163 0.11378183 0.034068245 -0.018884636 -0.110665694
0.08876567 0.048169374 0.036459815 -0.04308577 -0.061952036 0.12681788 0.041276094 0.056504227
-0.08990921 -0.0018731571 -0.04600867 -0.027361454 -0.049185462 -0.08535309 -0.10033834 -0.020527765
-0.046741303 -0.0780491 0.03231392 0.0362038 0.123695135 -0.006070204 -0.03905105 -0.007113327
0.062566794 0.07502227 -0.026033718 0.051341042 0.11689519 -0.06315229 -0.059237175 0.017580915
0.018510388 -0.0022389528 0.11984861 -0.06996546 0.13384044 0.13009736 0.056153998 -0.090624
0.027348833 0.06999778 -0.09680067 -0.021993997 0.076055236 0.14030398 0.07563487 -0.11838568
-0.061711967 0.08983606 -0.0011667563 0.005331611 0.05736671 0.13367102 0.044124093 0.0019912007
0.13277856 0.030588439 0.096032895 -0.063359916 0.022780614 -0.025177317 -0.0466664 -0.0030704585
-0.033455744 -0.08631783 -0.010090566 0.115979396 -0.028162017 0.13109401 0.024003753 0.019699994
0.0036485924 0.11725586 -0.09564703 -0.025324976 -0.13017063 -0.07995449 0.075866 -0.016775416

lstm.bias_hh f4 [256]
00000000: 34f1 cb3d e65d c63d 42d0 15bd da13 d1bd
00000010: dfcc 0a3d 8062 b3bd 9f09 71bd 0e33 9d3d
00000020: 73d2 0c3e 6072 07bc 554c 963d 6dd6 edba
00000030: 0592 adbb 074b 0c3e 0233 0b3e a2f9 cb3d
00000040: 3652 613c 0633 e1b9 a2d3 423d 3f80 09bd
00000050: 85d8 a83d 62bc 693c 3a6f 0c3e 4472 f8bd
00000060: a7b7 b63d a6d8 52bc 6485 c13b 3cad df3c
00000070: b3a6 3c3d 1b91 80bc a042 ad3d 9aff 483d
00000080: cd6c 3ebd 0a17 853d a2c9 943d 412b be3d
00000090: cef1 fa3d 0eb5 21bc 1207 983d 96ab a3bd
000000a0: b353 203b 600e ad3b 4d76 e3bd c278 f33c
000000b0: 02e1 ff3d e8e1 d33d 7592 573d 1822 123d
000000c0: 3b4a b6bd eee9 cc3d a9d7 d73d 494b e83d
000000d0: 42f2 bf3d 140a 17bd 583a c63d 0417 b13d
000000e0: eb0b 3e3d 597e c039 d56c f93d 9cf3 aabc
000000f0: b0b3 d9bc 9771 f83c d0b4 fe3d 73e5 74bc
00000100: f97b 613c e732 8fbb 1fc1 853d 9b19 95bd
00000110: 53ab d73d ad49 8a3d d075 753d 6df4 b73d
00000120: 8fcc af3d a902 efbc c5d2 6e3d be18 ff3d
00000130: 0d2c cdbd 384c 0a3e 1914 8abd d5ba ba3d
00000140: 365c c83d f10e 003e 387d aebd 85bb 40bd
00000150: 3a05 af3d 3666 b8bd a837 a53d 7b5c c1bd
00000160: 6e57 b9bd 96e6 1f3d 1b2d 093e 543f 893d
00000170: 39d6 393c ca1e 023e 5a6f 833d e10c b0bd
00000180: 07de 643b e4f4 723d ec97 c43d 57b4 0fbc
00000190: f02c ebbc 0385 933d 1e3c 163e c319 5abd
000001a0: dc13 0a3d 1950 c33d 940c 193d 0f5a 62bd
000001b0: 7c20 9cbd 8cbc 0e3e 8187 8bbc a5b0 7a3d
000001c0: af68 c13d ebe9 a93d b554 093d a676 d63d
000001d0: 02f0 52bd 254e 90bd 2825 af3d 712f fd3d
000001e0: 1683 b23d 7554 793c 7532 e63c 8fea 563c
000001f0: 7bc5 a93c aef4 42bd 0271 dc3d 1e38 b0bd
00000200: 0240 0ebd 0266 a03c d12f 5fbb 4742 b23d
00000210: 5998 aa3d 4a9a 5ebc 0d0e 323d 2394 e03d
00000220: b9fa ae3d 0aa2 ed3d e288 a63d ed68 8b3d
00000230: f92a 9bbd ee6c 033e 771a b2bc 56b7 a0bb
00000240: 0cec b13c 1fd6 823d c2e3 d73d ff4d c13d
00000250: 3c55 673d bd46 943d 6356 e43d 8c5a 9d3d
00000260: 3a66 f23d 1837 9ebb a78d 80bd 65f2 cabc
00000270: 00c6 ae3c 8536 73bd 5593 4f3c 4a00 163d
00000280: 4cd1 adbd a51e e7bd 9c34 96bd bcd0 dd3d
00000290: 834a a13c 1b0a 323d e5bd e23d bc00 02bd
000002a0: 756c 433a 5aec bfbd e667 86bd 5f11 bf3d
000002b0: 2969 eb3d 5711 d33d 87da d9bc 47bb 793d
000002c0: 5133 8cbd 0268 acbd 5a37 09be 4020 dabc
000002d0: 9d6b a1bd ce26 7abd 4c4b 8e3d 504c bcbd
000002e0: 8ebb 7dbc 7575 973d 6618 e3bd 6009 77bd
000002f0: 509a 8ebc 8001 d1bd f4da acbd 2f83 ed3d
00000300: 8180 b1bd 8eff 413d 7571 bbbd fb2a b03d
00000310: 52e1 fa3d 422d 0b3e 2b3d 92bd d394 943d
00000320: c781 8e3d f4e3 b03d 7114 1cbd b719 b03d
00000330: d454 9b3d dc35 213e f3c6 183e 2149 803d
00000340: 80b4 e53d 0ed5 1fbd 7097 5c3d efaa 443d
00000350: ddef bb3d f380 b7bd 356e c23d 3b08 a63d
00000360: 7331 b73d 86a4 343c 5ed9 df3d 30cc 693d
00000370: 7cfa bf3d 11d0 063e 77e8 aa3d d822 d33d
00000380: bbc8 a33d b2c8 96bd 3542 acbd a216 083e
00000390: 59d0 9f3d ec56 863c 2e06 033e e8da e7bc
000003a0: 7b61 c33c 0b48 9a39 1103 abbd 6605 67bd
000003b0: 1360 03bd 751f d8bc d56c 32bd 3175 cdbd
000003c0: bbc4 b1bd 6069 0a3e d075 613d 2447 853d
000003d0: 5a86 8ebc ccb3 a4bd e06e 003e 58a3 ac3d
000003e0: 7d43 0e3d 708d 063e 924a e53c 79ca d6bd
000003f0: c136 a5bd e096 91bd e545 163d 1d44 92bc
0.09958115 0.096858785 -0.036575563 -0.102088645 0.033886787 -0.08759022 -0.058847066 0.076757535
0.13752155 -0.008267015 0.07338778 -0.0018145569 -0.005296948 0.13700496 0.13593677 0.09959723
0.013752511 -0.0004295336 0.04756511 -0.03356957 0.08244423 0.014266105 0.13714305 -0.121311694
0.08921748 -0.012869036 0.005905794 0.027304284 0.046057414 -0.015694192 0.08459973 0.049071886
-0.04649048 0.06498535 0.07265021 0.09285594 0.12253152 -0.009869827 0.074232236 -0.07991712
0.002446395 0.0052812546 -0.111065485 0.029720668 0.12494089 0.103458226 0.052629907 0.035677046
-0.08900877 0.10005556 0.10539181 0.113424845 0.09372379 -0.036874846 0.09679097 0.08646968
0.046398085 0.0003671523 0.12178961 -0.020868115 -0.02657494 0.030327601 0.12436831 -0.014947283
0.013762468 -0.0043700817 0.065309756 -0.072802745 0.105307244 0.06752334 0.059926808 0.089821674
0.08583938 -0.029176073 0.058306474 0.12455891 -0.10018168 0.13505638 -0.067421146 0.09117667
0.09783213 0.125057 -0.08519977 -0.047053833 0.08545919 -0.0900387 0.08067256 -0.094414674
-0.09049879 0.039038263 0.13396113 0.06701532 0.011342579 0.12707058 0.06417723 -0.085962065
0.0034922378 0.059315577 0.09599289 -0.008771024 -0.028707951 0.07203104 0.1467137 -0.053247225
0.033710346 0.09536762 0.03736551 -0.055261668 -0.076233834 0.13939112 -0.017032387 0.061203618
0.09443795 0.082965694 0.03352805 0.10471849 -0.05149842 -0.07046155 0.08552009 0.12362564
0.08716409 0.01521789 0.028100232 0.013117447 0.020724049 -0.047596626 0.10763742 -0.086044535
-0.03472901 0.019579891 -0.00340556 0.08704048 0.08329839 -0.01358659 0.04347043 0.10965755
0.08543915 0.11603172 0.08131577 0.068071224 -0.07576556 0.12834522 -0.021741135 -0.004904668
0.021719001 0.063884966 0.10541488 0.09438705 0.05647777 0.07240055 0.111492895 0.07683286
0.118359044 -0.004828345 -0.06277018 -0.024773786 0.021334648 -0.059378166 0.012669404 0.03662137
-0.08487186 -0.11285142 -0.07334253 0.108308285 0.01968885 0.04346667 0.11071376 -0.03173898
0.0007454821 -0.09371252 -0.06562786 0.09329485 0.11494667 0.10306042 -0.02659346 0.060969617
-0.06845725 -0.084182754 -0.13400021 -0.026626706 -0.07881854 -0.061072163 0.069479555 -0.09194243
-0.015486611 0.0739545 -0.11088638 -0.060311675 -0.017407566 -0.10205364 -0.084401995 0.11597287
-0.08667088 0.047362857 -0.091524996 0.08601948 0.12250008 0.13591483 -0.07140573 0.072549485
0.06958347 0.086372286 -0.038105432 0.08598655 0.07584539 0.15743202 0.14919643 0.06263948
0.11216068 -0.039021544 0.05385536 0.048014577 0.0917661 -0.08960142 0.094936766 0.081070386
0.089449786 0.011025554 0.109301314 0.057079494 0.09373948 0.13165309 0.083451204 0.1030938
0.07997271 -0.07362498 -0.084110655 0.13289884 0.07803411 0.01639887 0.12795326 -0.028302625
0.023850193 0.00029426845 -0.08350194 -0.056401633 -0.032074045 -0.026382187 -0.04356082 -0.10032118
-0.086801015 0.1351676 0.055043995 0.065077096 -0.017398048 -0.08042106 0.12542295 0.08429593
0.03473233 0.13139892 0.02798966 -0.10487837 -0.08067084 -0.07108855 0.03668775 -0.017854745

output_layer.weight f4 [29, 64]
00000000: df41 fe3b 8388 c7bd 92bc 60bd 8a9c 7f3c
00000010: ede3 fdbd e3f2 d93d 74e4 53bd 30c7 703d
00000020: 6620 12bc a20b b8bd 350f ccbd be7e 823d
00000030: 1258 653d 7701 cbbd 79a1 273d d83a 5bbd
00000040: c2d2 c6bd 76a1 fdbd 0cce ef3b f5c6 50bd
00000050: a0db 84bd 275b bfbd e8b3 e83c 6423 d4bd
00000060: bee7 6dbd 1394 83bd 271d 993c f531 003d
00000070: 861e 943c 8e4d 02bc 745e 74bd 65b5 88bd
00000080: 3242 a3bc 4ecf ccbd 9c8e 4dbd 726f 5a3d
00000090: a6e4 92bd 209a 2b3d 91d2 7f3d c3da bcbc
000000a0: 05cc 57bd c919 f93c 1994 1ebd 28ac 023e
000000b0: bc41 0dbe 0fe7 8ebc 6a80 d03d d71b c2bd
000000c0: a0be 043e 70fa 0f3d 4765 3bbc b11e 383d
000000d0: 5cf6 b9bd 31eb e1bd 015b cb3d be19 6c3d
000000e0: 60af 473d 3ab7 863d 4ca8 a03c dd6c d43d
000000f0: d1df 093d b543 0d3e 435b 563d b115 f7bb
00000100: 2688 d03d 00f6 923d cc4a ab3d b36c cd3c
00000110: 3f70 003e 40f4 123e 120e 483d 5fb8 013e
00000120: a8de f8bd f7f9 35bd 0a03 a7bd b4a4 5fbc
00000130: 07d7 dc3d 7e52 d23b a360 9cbd d358 cfbd
00000140: cddc bb3d 9075 b9bd 7a0b dbbd 1e93 47bd
00000150: a3ec e93b cecb 463d b57c 653d cd68 e93d
00000160: 44f6 5e3d 0ca0 073d 47ac b63d 2663 83bd
00000170: 0006 c9bb 2cd1 f8bc 5228 d53c 19a6 f33d
00000180: e9da 7d3d f902 49bd 3922 123c 6a61 b8bd
00000190: 852a dc3d 6df8 38bb e888 30bd ed61 b8bd
000001a0: 4d6d 8b3c d763 2dbd 780d bfbc 6cc5 0b3e
000001b0: ede6 303d 1ca4 0abe 065a d7bd 92f5 2fbd
000001c0: 16bd 913c 4b1a ddbd f3cb 963d 4ddb 1cbb
000001d0: 747a 38bd c5dd 06bb 8fa9 e9bc bc7e 88bd
000001e0: 98e0 0c3d cea5 c93d f0bf 823c 38ef c03b
000001f0: ae3d e5bd ab3a 77bd e9fe 65bd a499 a1bd
00000200: 545f d4bd 39c1 ca3b 10dc 54bd a701 b4bd
00000210: 8f81 ed3b 6eb4 bfbd 3b44 263c b297 e93d
00000220: bdf5 7b3d 7323 de3d ece4 b3bd 5f25 b2bd
00000230: 4927 2a3d fa60 83bc 8ae8 723d 2ad1 653c
00000240: 901a 85bd 14d3 0dbd ae4f a8bd 04f5 9cbd
00000250: f83b 283c 56c3 c7bd ad75 153e 9426 6d3d
00000260: 570b 0f3d d702 ad3d 3e5a 6fbd 7af5 c2bd
00000270: 6d3f c63d 3ec5 14be fde8 903d 7fb5 a1bd
00000280: d138 e03c 5548 efbc caa7 e8bc c064 863c
00000290: def1 a2bd 0477 cfbd 1f6d 61bd 71b1 35bd
000002a0: 99b3 283d 911b f73d 99b5 83bd 34c3 46bd
000002b0: f10b c63d 8fd8 4abd 7a21 1fba a68a b63d
000002c0: 9da7 afbd 3d9b 9abd 35cc f9bc 7a8f ecbc
000002d0: 8b01 083d a836 f0bc 50d6 88bd 8544 013e
000002e0: c2a6 bcbd e5de 91bd 2919 973c cea3 d03d
000002f0: fd80 03be 22b2 58bd 86f1 423d 85d3 e43b
00000300: cf89 7cbd 5a77 fcbd 09b9 013e 1067 33bd
00000310: 03eb 183e ea7c 8e3d 2a3b 313d c699 223d
00000320: 7563 aabd 1627 bfbb 4b6c e9bd 2af0 f83d
00000330: 33ba 713d a494 7c3d fc64 b5bd 91cd 043e
00000340: fd34 013e b1a3 dc3d f88d 39bd 82c7 063e
00000350: 4675 963d 0582 943d 07fe d03d eed1 a73d
00000360: cf0e 6cbd 659f f4bd ac3f c83d f2d5 6b3d
00000370: b8f0 52bd 2d5e bcbd f197 333b 5072 dabd
00000380: 02e9 c6bd 4324 8bbd 625b d2bd b944 0d3e
00000390: 4118 5e3c d0ad db3d 00ea f5bd 455e f03d
000003a0: d750 f03d 908d 093e abeb 01be c1f6 443d
000003b0: 364e 0d3e 2daa ecbd 26bd bbbd 2614 a9bd
000003c0: 5167 9ebd 3ce9 20bd a395 7038 fea8 8cbd
000003d0: 719b 1b3e 5857 3ebb 5e18 fe3d 47ce 033e
000003e0: af2e ca3d 28fe 0f3b c72a 74bd 6328 133e
000003f0: 8a52 923d ba8e ea3d 4f36 94bd cc7f ba3d
0.0077593173 -0.097428344 -0.054867335 0.015601287 -0.12396989 0.1064203 -0.05173154 0.05878371
-0.008918857 -0.08986594 -0.09963838 0.063718304 0.055992194 -0.09912389 0.040925477 -0.053522915
-0.097081676 -0.12384312 0.007318264 -0.05097099 -0.06487203 -0.09343558 0.028406098 -0.10358313
-0.058082335 -0.06424727 0.018690659 0.031297643 0.018080961 -0.007953061 -0.05966039 -0.06675223
-0.019929025 -0.10000478 -0.05018483 0.05332894 -0.071725175 0.041895032 0.06245667 -0.023053532
-0.052684803 0.030407803 -0.038715456 0.12760985 -0.13794607 -0.017444162 0.10180743 -0.09477966
0.12963343 0.035150945 -0.011437721 0.044951145 -0.090801924 -0.11031187 0.09929467 0.057641737
0.048751235 0.065779164 0.0196115 0.103723265 0.033660714 0.1379536 0.052333128 -0.0075404276
0.10182218 0.07175827 0.08363876 0.025076246 0.12542818 0.14350986 0.048841543 0.12667988
-0.12151843 -0.04442784 -0.081548765 -0.013650108 0.10783201 0.0064185252 -0.076356195 -0.10124364
0.09172974 -0.090556264 -0.10695548 -0.048724286 0.007138805 0.048534207 0.056027133 0.11396942
0.054434076 0.033111617 0.08919578 -0.064153954 -0.0061347485 -0.030373178 0.026020203 0.11896915
0.061976347 -0.0490751 0.008919292 -0.09002955 0.107502975 -0.0028224245 -0.043099314 -0.09003053
0.017019892 -0.042331543 -0.023321852 0.13649529 0.043188978 -0.13539165 -0.105152175 -0.042958803
0.017790359 -0.107960306 0.07363119 -0.0023934424 -0.045038655 -0.0020578962 -0.028523235 -0.06664798
0.034393877 0.09846078 0.015960664 0.005887892 -0.11193405 -0.060358685 -0.056151304 -0.07890633
-0.10369745 0.0061875847 -0.05196768 -0.08789378 0.0072481106 -0.09360586 0.010148103 0.11405887
0.06151365 0.10846605 -0.08783898 -0.08698534 0.04154137 -0.016037453 0.059303798 0.014026919
-0.06499207 -0.034625128 -0.08218323 -0.076639205 0.010268204 -0.09754054 0.14595671 0.05789812
0.034922924 0.08447807 -0.05843567 -0.09519477 0.09680066 -0.14528367 0.07075689 -0.07895946
0.027370842 -0.029209295 -0.02840032 0.016405463 -0.07956289 -0.10130122 -0.055035707 -0.044358674
0.041186903 0.12065805 -0.064311214 -0.048526004 0.096702464 -0.049522933 -0.0006070357 0.08913164
-0.085768916 -0.075491406 -0.030492881 -0.028877009 0.033204596 -0.029322937 -0.06681502 0.12623794
-0.09211494 -0.07122592 0.018444614 0.10187493 -0.12842174 -0.052904256 0.047593616 0.006983223
-0.061654862 -0.12327452 0.12668242 -0.04379946 0.149334 0.06957419 0.043269314 0.03969743
-0.08319751 -0.005833517 -0.11397608 0.12155183 0.059015464 0.061665192 -0.08857152 0.12969042
0.1261787 0.10773409 -0.045301408 0.13162044 0.07346587 0.07251362 0.10204702 0.08194338
-0.05763131 -0.119444646 0.097777694 0.05757708 -0.0514991 -0.0919765 0.0027403797 -0.10666335
-0.097124115 -0.06794026 -0.10271336 0.13795747 0.013555587 0.107265115 -0.120075226 0.117367305
0.11734169 0.13432908 -0.12687556 0.048086885 0.13799366 -0.11555896 -0.091669366 -0.08255796
-0.0773455 -0.03928493 5.735982e-05 -0.0686817 0.15196015 -0.002904376 0.124069914 0.12871657
0.098721854 0.0021971557 -0.05961111 0.14370875 0.07144649 0.11453004 -0.07236921 0.091064066

output_layer.bias f4 [29]
00000000: 6dc5 213c a26a 1abd 82d7 d4bd 6307 c33d
00000010: 5f66 c93d 9ed6 ab3d 2adc d4bd a883 823c
00000020: 2ca1 9ebd b8a2 84bd d769 fabd 5b5a 16bd
00000030: 78f3 9c3d b927 84bd 3d61 35bd 400f 7a3d
00000040: 99b7 a6bc 4da5 2e3a 2c79 d0bd 6904 573d
00000050: 9800 02bd 01cf a13c 90ef e9bc 1dce 833d
00000060: 56bf ce3d a385 26ba f98b 53bd 1a4c 873d
00000070: 8f20 a2bd
0.00987373 -0.03769935 -0.10392667 0.09522893 0.09833979 0.08390544 -0.103935555 0.01593192
-0.07745585 -0.06476349 -0.122272186 -0.036707263 0.076636255 -0.06452889 -0.044282187 0.0610497
-0.020351218 0.0006662205 -0.10179362 0.05249444 -0.031738847 0.019752027 -0.028556615 0.06435797
0.10095088 -0.0006352311 -0.05164716 0.06606312 -0.07916366
