model_save/TGCN.pth (torch, 159886 bytes, 10 tensors)

conv1.bias f4 [64]
0.026028307 0.004791296 0.007306204 0.01943801 0.033406906 0.02498405 0.05138783 0.021412952
0.028177917 -0.016513865 0.0018617656 0.013672888 -0.003413109 0.034774195 0.02644762 0.015435187
0.015696676 0.026697738 0.0089680115 0.009435518 0.02717296 0.016004391 0.013627772 0.010086831
0.042148408 0.0 0.05990791 0.017024515 0.036018144 0.0 0.020414403 0.016339704
0.018933225 0.030277852 0.05001 0.017888753 0.024728596 0.025329785 0.046373647 0.0
0.0 0.00830878 0.017161313 0.021129675 0.004904193 0.0 0.0085917115 0.020500215
0.060329713 0.02685164 0.05234911 0.035148554 0.017074686 0.042456727 0.078492 -0.0065358
0.030566277 0.023203287 0.0 0.0 0.0 0.022490297 0.063806474 0.0048794514
00000000: 5139 d53c 4e00 9d3b e268 ef3b 763c 9f3c
00000010: aed5 083d 5aab cc3c 0c7c 523d 376a af3c
00000020: 60d5 e63c 1648 87bc 7d06 f43a 4004 603c
00000030: 78ae 5fbb 636f 0e3d aea8 d83c dee3 7c3c
00000040: 5196 803c 37b5 da3c 91ee 123c 6e97 1a3c
00000050: d499 de3c a41b 833c 0547 5f3c 3c43 253c
00000060: cfa3 2c3d 0000 0000 ff61 753d ff76 8b3c
00000070: c387 133d 0000 0000 1b3c a73c d8da 853c
00000080: da19 9b3c 4209 f83c 49d7 4c3d 6f8b 923c
00000090: a093 ca3c 6980 cf3c 4bf2 3d3d 0000 0000
000000a0: 0000 0000 8d21 083c e295 8c3c 2418 ad3c
000000b0: 5ab3 a03b 0000 0000 40c4 0c3c 11f0 a73c
000000c0: 4a1c 773d f8f7 db3c 056c 563d eef7 0f3d
000000d0: 36e0 8b3c 1be7 2d3d 6ac0 a03d 442a d6bb
000000e0: 2166 fa3c d214 be3c 0000 0000 0000 0000
000000f0: 0000 0000 923d b83c f8ac 823d cee3 9f3b

conv1.lin.weight f4 [64, 30]
0.2229432 0.021200772 -0.11129999 0.16323696 -0.10833376 -0.2569423 -0.1857308 -0.1907114
-0.08871885 0.018616477 0.09927752 -0.09781136 -0.13404638 -0.04166124 0.02882115 0.0073041692
0.14483596 -0.11963319 0.187574 -0.09791244 -0.15348032 0.20054768 -0.04145373 0.21401834
-0.04889536 0.0105727855 -0.2795096 0.06488073 -0.14108165 -0.19572341 -0.01914628 0.034554187
0.20779926 -0.19760296 0.1322382 -0.11752172 0.1904136 -0.0881301 0.116324894 0.08949612
0.0015201066 0.1356564 0.08813982 -0.1028811 -0.026459852 -0.24158747 -0.1362771 -0.11041774
0.245172 0.21111356 -0.14178638 -0.14565451 0.20943545 -0.02838568 -0.017249752 -0.06357288
0.105263636 0.094245635 -0.1963241 0.14481604 0.07387022 -0.28597108 -0.09790261 0.03243711
0.020087956 -0.11505293 0.07612875 -0.11619027 0.042710677 0.066102155 -0.23017327 -0.09263423
0.076809354 0.28290522 -0.022693302 0.24920471 -0.243176 -0.053950787 -0.04006994 0.12243261
0.17879222 0.19209345 -0.19644246 0.2143605 -0.12229645 0.16022469 -0.22253117 -0.16738866
0.15036704 -0.12214239 0.07548271 -0.15990065 0.08302784 0.20911239 0.22501124 -0.09233188
-0.1357291 -0.037307203 0.21377715 -0.06787039 -0.019176817 -0.0005905303 0.12999327 0.28295487
0.24910873 -0.016940415 0.13879864 0.19639106 0.1674194 -0.072343566 0.22224498 0.13604233
0.016397236 -0.23766324 -0.16823135 -0.21241029 0.002369709 -0.267579 0.053870272 -0.05608651
-0.13874224 -0.071982734 0.27073774 0.21492887 0.09863746 0.21909848 0.25506872 -0.022371966
0.1489771 0.17405504 -0.042774662 0.18755324 -0.0033751547 -0.16677283 -0.049571138 0.0859144
0.12962443 -0.012292083 -0.0515281 0.19315574 -0.19672178 -0.028533615 0.008258697 0.20698261
-0.021347044 -0.23081759 -0.15518627 0.16374488 0.20170546 -0.08233929 -0.20055948 0.09946557
0.23490465 0.05110663 0.23950088 -0.056321356 0.2994641 0.29561675 -0.035901766 -0.058429617
-0.21286297 0.13708062 0.16160993 -0.05573914 0.24901026 0.027414832 0.017142026 0.038182028
-0.10808791 0.05911581 0.2127107 -0.032619316 -0.2750051 0.2029724 0.10794931 0.124943405
0.1660474 -0.17944118 0.17419583 -0.13350523 0.09752467 0.15060538 -0.02949296 0.11210297
0.007199433 -0.07055189 -0.016670294 -0.20280626 0.03285668 -0.019954631 -0.15857343 0.08486948
-0.18900907 -0.10380351 0.17755075 -0.21278907 -0.13087198 -0.1546137 -0.18713385 -0.042249743
-0.17253208 0.066056736 0.04980102 0.04760885 -0.156075 -0.18002841 0.05921133 -0.04348152
0.05587497 0.151606 0.1992644 -0.09455117 0.24416053 -0.06784902 0.09479731 -0.09313986
0.009327592 0.0899978 0.18598133 0.24701345 -0.04102945 0.029083384 0.21008256 0.1457856
-0.12383319 -0.13501616 0.22358225 0.1630477 -0.23495468 0.039271653 0.22717774 0.13204564
0.11029257 -0.04255756 -0.19887373 0.039411597 -0.12836725 -0.08375362 -0.0048704227 0.14061645
-0.14106517 0.19186123 0.26470035 0.16750816 0.19777715 -0.17671981 0.005255357 -0.09200905
-0.07569853 0.068944916 0.0534569 -0.13535546 -0.096113764 -0.14389695 -0.15004224 0.11427304
00000000: 394b 643e 3ead ad3c 40f1 e3bd 9727 273e
00000010: 17de ddbd f18d 83be 3730 3ebe d949 43be
00000020: 3ab2 b5bd 9581 983c 0352 cb3d 5351 c8bd
00000030: 7443 09be faa4 2abd 551a ec3c d057 ef3b
00000040: e14f 143e 3f02 f5bd 6613 403e 5186 c8bd
00000050: f229 1dbe 5f5c 4d3e 63cb 29bd a027 5b3e
00000060: 8046 48bd 7a39 2d3c e21b 8fbe 30e0 843d
00000070: b577 10be b86b 48be a9d8 9cbc b188 0d3d
00000080: 54c9 543e 6e58 4abe 7369 073e 3aaf f0bd
00000090: c8fb 423e 8e7d b4bd bf3b ee3d be49 b73d
000000a0: 503e c73a 83e9 0a3e a682 b43d 53b3 d2bd
000000b0: 55c2 d8bc b562 77be 398c 0bbe b222 e2bd
000000c0: 5e0e 7b3e 272e 583e 7330 11be 7526 15be
000000d0: 3f76 563e 1689 e8bc 5a4f 8dbc 8032 82bd
000000e0: 7694 d73d db03 c13d 2f09 49be a84a 143e
000000f0: 4549 973d cd6a 92be 2a81 c8bd c6dc 043d
00000100: 7f8f a43c dfa0 ebbd 64e9 9b3d 2af5 edbd
00000110: 64f1 2e3d 9160 873d 8bb2 6bbe 04b7 bdbd
00000120: 394e 9d3d f4d8 903e 4ee7 b9bc 852f 7f3e
00000130: 2103 79be 80fb 5cbd 6120 24bd f3bd fa3d
00000140: 4f15 373e 25b4 443e 3628 49be 5281 5b3e
00000150: 9076 fabd f111 243e 36df 63be ef67 2bbe
00000160: d1f9 193e ca25 fabd ae96 9a3d ffbc 23be
00000170: 800a aa3d 8f21 563e 5969 663e 7f18 bdbd
00000180: 92fc 0abe 70cf 18bd 66e8 5a3e a2ff 8abd
00000190: b318 9dbc d1cd 1aba f51c 053e 76df 903e
000001a0: 5c16 7f3e a0c6 8abc 3b21 0e3e bd1a 493e
000001b0: fe6f 2b3e dd28 94bd 3094 633e ae4e 0b3e
000001c0: 7f53 863c fe5d 73be d744 2cbe 1582 59be
000001d0: 1f4d 1b3b 1d00 89be 13a7 5c3d f8ba 65bd
000001e0: 7212 0ebe af6b 93bd 239e 8a3e 5016 5c3e
000001f0: 7002 ca3d 5a5b 603e 5e98 823e 6a45 b7bc
00000200: 748d 183e 7c3b 323e 7c34 2fbd f50d 403e
00000210: b331 5dbb 7fc6 2abe 1b0b 4bbd e4f3 af3d
00000220: 44bc 043e bc64 49bc 210f 53bd 9eca 453e
00000230: 6f71 49be 54bf e9bc 7c4f 073c 40f3 533e
00000240: ffdf aebc 725b 6cbe 26e9 1ebe bdac 273e
00000250: e08b 4e3e 80a1 a8bd 775f 4dbe 9bb4 cb3d
00000260: d88a 703e 3055 513d b83f 753e 39b1 66bd
00000270: 5c53 993e 145b 973e bb0d 13bd e553 6fbd
00000280: c0f8 59be dd5e 0c3e 137d 253e b94e 64bd
00000290: 8cfc 7e3e 1295 e03c 6f6d 8c3c c264 1c3d
000002a0: 325d ddbd 6b23 723d d5d0 593e d59b 05bd
000002b0: 78cd 8cbe ffd7 4f3e 8714 dd3d 54e2 ff3d
000002c0: 5408 2a3e 6ebf 37be 6460 323e 98b5 08be
000002d0: 04bb c73d 4c38 1a3e 389b f1bc 3e96 e53d
000002e0: 39e9 eb3b 827d 90bd 2490 88bc 72ac 4fbe
000002f0: ba94 063d e577 a3bc 1361 22be 0dd0 ad3d
00000300: 988b 41be ef96 d4bd ddcf 353e 61e5 59be
00000310: 4e03 06be 0e53 1ebe 04a0 3fbe 110e 2dbd
00000320: 40ac 30be c148 873d 28fc 4b3d 7f01 433d
00000330: 20d2 1fbe 5e59 38be 9487 723d ae19 32bd
00000340: 27dd 643d 9a3e 1b3e f80b 4c3e 0ba4 c1bd
00000350: 3805 7a3e 6df4 8abd 1825 c23d 1cc0 bebd
00000360: c2d2 183c c450 b83d e471 3e3e 18f1 7c3e
00000370: 7f0e 28bd 4740 ee3c e21f 573e d248 153e
00000380: 419c fdbd ad41 0abe bff2 643e faf5 263e
00000390: f697 70be 50db 203d 48a1 683e f936 073e
000003a0: 12e1 e13d d650 2ebd 8ea5 4bbe 0e6e 213d
000003b0: b472 03be 0587 abbd 1198 9fbb c2fd 0f3e
000003c0: 6373 10be 4577 443e ce86 873e 4287 2b3e
000003d0: 1886 4a3e 0af6 34be 2135 ac3b 3e6f bcbd
000003e0: d507 9bbd fe32 8d3d 9ff5 5a3d 9f9a 0abe
000003f0: 4bd7 c4bd b959 13be aca4 19be fc07 ea3d

conv2.bias f4 [30]
0.0 0.0 0.0 0.0 0.0 0.0 0.0 0.0
0.0 0.0 0.0 0.0 0.0 0.0 0.0 0.0
0.0 0.0 0.0 0.0 0.0 0.0 0.0 0.0
0.0 0.0 0.0 0.0 0.0 0.0
00000000: 0000 0000 0000 0000 0000 0000 0000 0000
00000010: 0000 0000 0000 0000 0000 0000 0000 0000
00000020: 0000 0000 0000 0000 0000 0000 0000 0000
00000030: 0000 0000 0000 0000 0000 0000 0000 0000
00000040: 0000 0000 0000 0000 0000 0000 0000 0000
00000050: 0000 0000 0000 0000 0000 0000 0000 0000
00000060: 0000 0000 0000 0000 0000 0000 0000 0000
00000070: 0000 0000 0000 0000

conv2.lin.weight f4 [30, 64]
-0.0022113319 -0.15631129 -0.061725475 -0.2330853 -0.10099901 -0.22550999 -0.19637686 0.14196156
0.0050574243 0.14340456 -0.14038646 0.055177886 0.04008473 0.23873925 0.22051455 -0.21522112
0.19634996 -0.05280732 0.12933779 -0.18554355 0.23614876 -0.031635724 0.027659856 -0.074291244
0.20726302 0.21171491 0.016510343 0.23131014 0.13161583 -0.014361113 -0.07955274 0.24950461
-0.10108184 0.067346856 0.24830936 -0.14472407 0.07372093 0.053772204 -0.11666431 -0.23857439
0.115782015 0.060756586 -0.23773563 0.081919424 -0.10964397 -0.015179019 -0.025590196 -0.018804107
0.2468049 0.20112167 0.24843268 -0.021656554 0.14188051 -0.0154200215 0.0706748 0.034563795
-0.06370812 -0.020783802 -0.22633156 -0.13903165 0.0073178182 -0.1052785 -0.1491559 -0.20560433
0.13349572 -0.16727847 0.047912866 -0.0024047478 -0.24036969 0.07064962 0.22381707 0.21171963
-0.06383706 -0.116146475 -0.18464316 0.18343243 0.023431962 -0.25207236 -0.00270981 0.22492613
-0.20577422 -0.10987805 -0.05913451 0.18016893 -0.17525415 -0.16025345 -0.07287345 -0.16020148
0.15390424 -0.104755625 -0.17551202 0.23863928 -0.1636022 0.04013069 0.13960461 0.17896187
-0.23725411 -0.039409764 0.024468794 -0.07547035 0.20158428 0.089927204 0.15510435 -0.14175348
-0.15788876 0.04646664 0.023764491 -0.111712635 -0.049517144 0.25206807 -0.15078256 0.13540165
-0.17155293 0.15308261 -0.030473059 0.13751884 -0.032989543 0.20003565 -0.1352782 -0.1659489
-0.15733038 -0.07485462 -0.13855615 0.028663257 0.18146873 -0.033906024 0.21159938 -0.020818258
0.10147798 0.19088039 -0.16718137 -0.2320287 -0.12361946 0.0018535035 -0.117694825 0.06888608
-0.041918088 0.008726152 0.21328789 0.10510577 -0.17517895 0.06573908 0.11373049 0.07525197
-0.20281039 0.04646866 0.23803642 0.20820276 -0.08773027 -0.0793165 -0.19345762 0.091034874
0.20458183 0.00070330856 0.06183197 0.16808474 0.040745363 -0.22386234 -0.014823631 0.19225585
0.18292016 0.13413505 0.16514951 -0.006531746 0.06903838 0.19854955 0.18768468 -0.24888253
-0.07364847 -0.14918162 0.099350974 0.13039286 0.14567335 -0.1892624 -0.20565984 0.017390743
0.046398245 0.18188368 0.0022596708 0.06830279 -0.08217648 0.22468105 0.030192964 0.24630424
0.04921434 -0.08995181 -0.22812553 -0.0727968 0.039782833 -0.02915056 -0.13986175 -0.09783961
0.024087174 -0.096618064 0.051042393 -0.19166616 0.13536154 0.05517346 0.066503316 -0.046505976
0.15244885 -0.087654345 0.22231065 -0.20034647 0.20211464 0.22288893 0.18518178 0.08681156
-0.08389632 0.08666142 -0.032104474 -0.07051722 0.014919375 -0.16792677 -0.17466459 -0.23296848
0.14234707 -0.12975627 -0.004586233 -0.16296759 -0.1654973 0.17596094 0.052478015 0.24427666
0.20381181 0.019712307 0.004621049 0.12745965 0.15156437 0.20117109 0.17452434 0.055395998
-0.17720515 0.17497146 0.2244002 -0.1359709 0.0609157 -0.044381835 0.087474756 -0.078586265
-0.13642104 -0.17826797 -0.1302512 0.09100759 -0.013438096 -0.22260998 -0.11372263 0.11911858
0.08223126 0.08507151 -0.23539522 0.0034998273 0.13480957 0.054953087 0.12572679 0.061085742
00000000: feeb 10bb 1110 20be dad3 7cbd eaad 6ebe
00000010: 92d8 cebd 17ec 66be 0417 49be 5f5e 113e
00000020: c0b8 a53b a5d8 123e 78c1 0fbe 3502 623d
00000030: e32f 243d 1078 743e 91ce 613e ed62 5cbe
00000040: f70f 493e 7d4c 58bd 2071 043e 21ff 3dbe
00000050: fbd0 713e 7694 01bd ec96 e23c 0226 98bd
00000060: c23c 543e cbcb 583e b340 873c 91dc 6c3e
00000070: 4dc6 063e e04a 6bbc 8cec a2bd 237e 7f3e
00000080: ff03 cfbd 26ed 893d cf44 7e3e 8c32 14be
00000090: 00fb 963d 3e40 5c3d b3ed eebd d84c 74be
000000a0: 1f1f ed3d e6db 783d f870 73be 5fc5 a73d
000000b0: 058d e0bd 6cb1 78bc 88a2 d1bc 120b 9abc
000000c0: 6cba 7c3e d7f2 4d3e 2365 7e3e 1669 b1bc
000000d0: 2049 113e 42a4 7cbc f3bd 903d c492 0d3d
000000e0: 6779 82bd cb42 aabc 76c3 67be 505e 0ebe
000000f0: 4fca ef3b 419c d7bd 53bc 18be f189 52be
00000100: 1ab3 083e 0c4b 2bbe 4840 443d f998 1dbb
00000110: 7923 76be bfb0 903d 4d30 653e 08cd 583e
00000120: 01bd 82bd 34de edbd 1913 3dbe b6d5 3b3e
00000130: 63f4 bf3c a10f 81be 1197 31bb 0953 663e
00000140: 7ab6 52be be07 e1bd 0737 72bd 347e 383e
00000150: d375 33be 7b19 24be ad3e 95bd db0b 24be
00000160: 1399 1d3e 1e8a d6bd 6cb9 33be db5d 743e
00000170: 5687 27be 1460 243d 83f4 0e3e c841 373e
00000180: bef2 72be 226c 21bd c872 c83c 3390 9abd
00000190: 1c6c 4e3e c12b b83d add3 1e3e d327 11be
000001a0: 97ad 21be ce53 3e3d c0ad c23c 98c9 e4bd
000001b0: 7dd2 4abd 110f 813e be66 1abe bba6 0a3e
000001c0: 92ab 2fbe b0c1 1c3e a3a2 f9bc bdd1 0c3e
000001d0: 0b20 07bd 25d6 4c3e 5e86 0abe 82ee 29be
000001e0: 371b 21be 614d 99bd aae1 0dbe 35cf ea3c
000001f0: f0d2 393e 0be1 0abd 82ad 583e 0d8b aabc
00000200: b0d3 cf3d 2676 433e 9831 2bbe ee98 6dbe
00000210: 332c fdbd 42f1 f23a fc09 f1bd 2514 8d3d
00000220: 4db2 2bbd 22f8 0e3c 2468 5a3e b241 d73d
00000230: 1c62 33be 36a2 863d 88eb e83d b41d 9a3d
00000240: 87ad 4fbe ec55 3e3d d2bf 733e 1b33 553e
00000250: eeab b3bd b070 a2bd c119 46be 7e70 ba3d
00000260: e67d 513e 3d5e 383a 8543 7d3d 681e 2c3e
00000270: 9ce4 263d 2b3c 65be d1de 72bc b8de 443e
00000280: 6c4f 3b3e b35a 093e f41c 293e 4208 d6bb
00000290: ff63 8d3d 9350 4b3e 6a30 403e 10db 7ebe
000002a0: 02d5 96bd 11c3 18be 8678 cb3d b585 053e
000002b0: 652b 153e 01ce 41be 7e98 52be 0877 8e3c
000002c0: 160c 3e3d b73f 3a3e fc16 143b 55e2 8b3d
000002d0: 244c a8bd ca12 663e 3c57 f73c 2e37 7c3e
000002e0: fa94 493d a838 b8bd bd99 69be 7d16 95bd
000002f0: 53f3 223d 28cd eebc eb37 0fbe 2260 c8bd
00000300: 7752 c53c b1df c5bd d411 513d 2244 44be
00000310: 379c 0a3e 91fd 613d e432 883d 0d7d 3ebd
00000320: 8d1b 1c3e 1f84 b3bd 67a5 633e a027 4dbe
00000330: 24f7 4e3e ff3c 643e 4ba0 3d3e 42ca b13d
00000340: d5d1 abbd 8b7b b13d fb7f 03bd 556b 90bd
00000350: 6570 743c fff4 2bbe 46db 32be 4a8f 6ebe
00000360: 6ec3 113e d4de 04be 1c48 96bb fae0 26be
00000370: 2078 29be 1b2f 343e 30f3 563d a923 7a3e
00000380: 0bb4 503e b47b a13c 2b6c 973b c884 023e
00000390: b133 1b3e cbff 4d3e 82b6 323e eae6 623d
000003a0: 4475 35be b82b 333e 2bc9 653e f53b 0bbe
000003b0: be82 793d bac9 35bd f725 b33d d6f1 a0bd
000003c0: f5b1 0bbe e18b 36be 9260 05be 3062 ba3d
000003d0: 762b 5cbc dff3 63be 69e7 e8bd 71f4 f33d
000003e0: dd68 a83d f939 ae3d 720b 71be 5c5d 653b
000003f0: 850b 0a3e 7d16 613d 86be 003e 0b35 7a3d

lstm.weight_ih f4 [256, 64]
0.067360535 0.07273568 0.11168878 0.076896496 0.09209683 -0.08319166 0.16475213 0.03498412
0.005387321 -0.023443405 -0.102583155 0.0075794724 -0.037284542 0.09715931 -0.08607838 0.12498041
0.018472875 0.13985577 -0.087012105 0.0010926425 0.009150118 0.061533306 0.054813057 -0.08819169
-0.10390728 0.03837955 0.11472892 0.055986583 0.06662945 -0.00021213293 0.018748343 -0.041925255
-0.08439058 -0.029845415 0.03801949 0.11093535 0.05757395 0.09922766 -0.03963741 -0.06520273
-0.1193967 -0.047544155 0.043295164 0.0629657 -0.10361459 -0.09842238 -0.10741114 0.11629768
0.14573084 0.069121934 0.016871871 -0.0033913387 0.03316109 -0.08059293 0.050966766 -0.026217654
0.09500571 -0.06797024 -0.055138946 0.082742006 -0.030985981 0.14128293 -0.040020783 -0.042514123
-0.047937296 0.1155493 0.050491072 0.012171449 0.11230013 0.0075820526 0.010899932 -0.010895989
0.100908466 -0.0031294073 0.0622899 -0.068550535 0.15572976 0.07432073 -0.03620201 -0.033223115
0.032286365 0.16069895 0.030141152 0.13432436 -0.057293426 0.0920552 -0.007667714 0.038316797
-0.07571534 0.006524503 0.15312198 0.1491908 0.110953785 -0.018127099 -0.07567455 -0.077972926
0.08837858 -0.048995286 0.05658988 0.02376991 0.13414924 -0.01945543 0.124026924 -0.009939402
-0.0856518 0.06434914 0.10294911 0.14441344 -0.0821323 -0.068051666 -0.039692957 -0.059428073
0.027300762 -0.006042103 0.07800895 0.122258104 0.08547994 0.013583188 0.052664578 0.03271237
0.08470906 0.032258637 -0.015022874 0.062336817 0.11190617 0.10844024 -0.005780455 0.09290016
0.06859795 0.019374384 0.040757325 -0.014006578 -0.121095434 0.025023418 0.07816614 0.09476758
-0.10567684 0.046128154 0.016960382 0.15727046 0.13183263 0.10356917 0.0066261087 0.1299732
0.06968665 0.13561596 0.08492969 0.1016095 0.09479912 0.10596415 0.08334619 -0.07238272
-0.034494605 -0.08354026 -0.043421336 0.1491933 -0.10709457 -0.12439294 0.062496554 -0.014916962
0.11587 0.10103023 0.0996934 -0.010532802 0.17561392 -0.0439834 0.14047955 0.09443873
0.043574437 -0.028551087 0.105573036 -0.025011899 -0.06672216 -0.10219808 0.16465917 -0.06307575
0.0864527 -0.032905262 -0.0326689 0.12517823 0.03415938 0.005687498 -0.011978602 0.05944274
-0.08234535 -0.021409845 -0.012584329 -0.014401808 -0.11856544 -0.07172272 -0.027513172 -0.053803366
-0.03550425 0.0457527 -0.091302805 0.064953506 0.07601944 -0.053741585 0.012793252 0.098497316
0.0028529475 -0.007953576 -0.027654752 -0.07074616 -0.07749785 -0.08580993 0.017967684 0.13824092
-0.051192604 0.087592766 -0.07297262 0.12176379 0.12518309 0.09828705 0.08937423 -0.06944203
0.046592444 0.026315093 0.00031291938 0.11840303 0.099796236 -0.12304263 0.0005851755 0.07694749
-0.00653012 -0.091095716 0.07184781 0.04767102 -0.042566728 -0.015967181 -0.08624865 0.024644107
0.08140987 0.011352024 0.13056286 0.08684208 0.0018697768 0.09169264 -0.09147866 0.10165312
0.10656654 -0.00072833116 0.036199324 -0.12256663 0.045957536 -0.065863304 0.1770704 -0.020063957
0.106300905 0.1262494 -0.03796217 -0.009245932 0.004565224 0.049816027 -0.09979995 -0.07484679
00000000: 52f4 893d 72f6 943d 16bd e43d e97b 9d3d
00000010: 439d bc3d 6460 aabd c8b4 283e 824b 0f3d
00000020: 2088 b03b 620c c0bc 1e17 d2bd 395d f83b
00000030: adb7 18bd 76fb c63d dd49 b0bd bbf5 ff3d
00000040: 6d54 973c 5a36 0f3e 6733 b2bd 0037 8f3a
00000050: 60ea 153c 590a 7c3d a883 603d d89d b4bd
00000060: 57cd d4bd e033 1d3d fff6 ea3d 3052 653d
00000070: 0575 883d 0070 5eb9 2096 993c d1b9 2bbd
00000080: f8d4 acbd 5f7e f4bc 53ba 1b3d 1332 e33d
00000090: aad2 6b3d df37 cb3d d65a 22bd 0289 85bd
000000a0: 4286 f4bd a9bd 42bd 4556 313d 29f4 803d
000000b0: e333 d4bd ac91 c9bd 5ffa dbbd 7a2d ee3d
000000c0: 773a 153e cd8f 8d3d e136 8a3c 3941 5ebb
000000d0: ecd3 073d e80d a5bd 87c2 503d 68c6 d6bc
000000e0: 5b92 c23d fb33 8bbd 60d9 61bd a474 a93d
000000f0: 50d6 fdbc 79ac 103e d5ec 23bd 4a23 2ebd
00000100: e659 44bd 1da5 ec3d bacf 4e3d c26a 473c
00000110: 9cfd e53d de72 f83b a195 323c 1785 32bc
00000120: 19a9 ce3d be16 4dbb b223 7f3d 3964 8cbd
00000130: 9f77 1f3e 7835 983d 8f48 14bd f614 08bd
00000140: b53e 043d 448e 243e 94ea f63c 538c 093e
00000150: 83ac 6abd 7087 bc3d 7241 fbbb 13f2 1c3d
00000160: a510 9bbd 80cb d53b 02cc 1c3e 79c5 183e
00000170: bd3b e33d 487f 94bc 42fb 9abd 45b0 9fbd
00000180: d4ff b43d 48af 48bd caca 673d 1db9 c23c
00000190: 6b5e 093e fe60 9fbc d401 fe3d e0d8 22bc
000001a0: 366a afbd 7bc9 833d fcd6 d23d 1ee1 133e
000001b0: fb34 a8bd ac5e 8bbd 1595 22bd da6a 73bd
000001c0: d9a5 df3c d5fc c5bb 28c3 9f3d 7562 fa3d
000001d0: 1b10 af3d 058c 5e3c d0b6 573d 68fd 053d
000001e0: f27b ad3d a221 043d 8022 76bc e454 7f3d
000001f0: 102f e53d eb15 de3d f969 bdbb 7042 be3d
00000200: 157d 8c3d 07b7 9e3c 27f1 263d d97b 65bc
00000210: e200 f8bd e9fd cc3c 9215 a03d 8115 c23d
00000220: 196d d8bd e0f0 3c3d 80f0 8a3c 820b 213e
00000230: 22ff 063e 131c d43d d41f d93b b217 053e
00000240: e0b7 8e3d e9de 0a3e 9eef ad3d a418 d03d
00000250: 0b26 c23d bb03 d93d 68b1 aa3d 643d 94bd
00000260: 374a 0dbd 2817 abbd 92da 31bd 21c6 183e
00000270: 6654 dbbd bac1 febd 63fc 7f3d 4666 74bc
00000280: 404d ed3d f0e8 ce3d 0e2c cc3d c691 2cbc
00000290: 23d4 333e f027 34bd dfd9 0f3e 1869 c13d
000002a0: 1c7b 323d f8e3 e9bc ad36 d83d c1e5 ccbc
000002b0: a1a5 88bd 3a4d d1bd 6a9c 283e dc2d 81bd
000002c0: 1d0e b13d abc7 06bd d3cf 05bd b92e 003e
000002d0: b5ea 0b3d 315e ba3b e641 44bc 3b7a 733d
000002e0: aea4 a8bd b363 afbc 802e 4ebc 90f5 6bbc
000002f0: 70d2 f2bd 5de3 92bd 4e63 e1bc eb60 5cbd
00000300: e86c 11bd 2f67 3b3d f7fc babd 5806 853d
00000310: 15b0 9b3d 2320 5cbd ca9a 513c f6b8 c93d
00000320: 84f8 3a3b b74f 02bc 388c e2bc 5de3 90bd
00000330: 31b7 9ebd 1ebd afbd f730 933c 078f 0d3e
00000340: 56af 51bd d663 b33d ab72 95bd 4b5f f93d
00000350: ff2f 003e b94a c93d d609 b73d 9f37 8ebd
00000360: b8d7 3e3d c092 d73c 540f a439 4a7d f23d
00000370: f861 cc3d c6fd fbbd 7766 193a a596 9d3d
00000380: 9efa d5bb 6490 babd f224 933d b042 433d
00000390: 735a 2ebd 9bcd 82bc 22a3 b0bd 70e2 c93c
000003a0: 38ba a63d d7fd 393c 45b2 053e 43da b13d
000003b0: 4c13 f53a 5ac9 bb3d 2a59 bbbd 832f d03d
000003c0: 8f3f da3d 7aed 3eba be45 143d 3704 fbbd
000003d0: f83d 3c3d 57e3 86bd f151 353e 2b5d a4bc
000003e0: 4ab4 d93d 8647 013e 387e 1bbd 407c 17bc
000003f0: e097 953b e40b 4c3d eb63 ccbd 4649 99bd

lstm.weight_hh f4 [256, 64]
-0.024860013 -0.05269065 0.04434285 -0.0951779 0.0025880232 -0.106111 0.05033487 -0.031250414
-0.00010136887 0.0030990066 0.008405036 0.019911507 0.04775059 0.11792013 0.011686729 0.046338737
0.07074932 -0.064678475 0.059302516 -0.03317319 0.036715914 0.025751472 -0.05915247 0.07663461
-0.028117727 0.13819411 0.111361004 -0.0050884252 0.030305326 -0.061574664 -0.049881894 0.013404989
0.07349459 -0.011708942 0.090439886 -0.09645373 0.027964992 -0.021037955 -0.013130625 -0.14020312
0.011964337 -0.0854618 -0.078389674 0.12577097 -0.075478494 0.047000337 0.05539854 0.099545956
0.04394173 0.096792005 -0.031380367 -0.060801394 -0.04604632 -0.14584926 -0.02486774 -0.13887528
-0.05672437 -0.07074875 -0.03776749 -0.0012081827 -0.13497327 -0.03256723 0.08730622 0.013071144
0.060122915 -0.007094528 -0.10623555 -0.120581344 0.040255528 -0.086914055 -0.06150463 0.03406528
-0.112216845 0.111871846 0.050764725 0.055907227 0.00079984375 -0.048322488 -0.10993292 0.073690966
0.022066437 0.091462925 0.072215125 0.007795494 -0.11594841 -0.122613855 -0.01831378 -0.048874334
-0.018773787 -0.08909626 0.012461129 0.14510468 0.00990108 0.10870555 0.059367195 -0.0039230576
-0.031316686 -0.12929589 0.10343888 0.09610846 -0.05383286 0.07891698 -0.0945352 0.045540914
-0.045256246 0.104223445 0.087008595 0.026425976 0.05538377 -0.005720301 0.076359436 -0.018839438
-0.069288194 0.12982123 0.12257672 -0.045468602 0.025589466 0.023651054 0.022216773 -0.09018986
-0.112369776 -0.08793896 -0.039545204 -0.046864532 0.022448242 -0.041254684 0.071625695 0.053698614
0.12567392 -0.011781788 0.005542447 -0.09281556 0.06808645 0.0350876 -0.12363479 0.0673531
0.0056946063 -0.1441699 -0.069175884 0.05941597 0.079459675 -0.043489538 -0.1006704 0.010886952
0.14646614 -0.010090134 -0.06297844 -0.14200328 -0.021611065 0.06275604 -0.013233514 -0.052253522
0.028067851 0.1204334 0.032184213 -0.076295204 0.09736427 -0.008541165 0.0888584 0.005668907
-0.12835413 -0.11339705 0.09949751 -0.10568554 0.107310556 0.08509493 -0.17147604 0.037174374
0.007833159 0.12919208 -0.10967894 0.055202 -0.033529233 0.0341004 -0.034801174 0.05181152
0.027672566 0.1304949 -0.027525095 -0.0031698658 0.07369844 0.027880896 -0.14207675 0.05446129
0.051457893 -0.106584236 0.009783825 -0.030102104 0.08450213 0.031969856 0.06744065 0.098859206
0.0595156 0.13899603 -0.1181627 -0.080424264 -0.09129093 0.08511275 0.06649006 -0.12586856
-0.058966376 0.012096365 0.083138175 0.006489152 -0.003850216 0.117467076 0.02099312 0.07935949
0.021036964 0.13340062 -0.11644894 -0.077859186 0.051783577 0.041331522 -0.05729865 -0.07810429
0.05994306 0.02463412 -0.090503246 0.12153111 -0.0029226867 0.044999346 -0.13143267 0.09521974
-0.11377191 0.068258636 0.112926275 -0.05853388 0.024511417 0.07684902 -0.008072431 -0.10306823
-0.073271506 -0.02255617 -0.03038349 -0.046988737 -0.1000914 -0.080982104 0.052341603 0.07960414
-0.04658564 0.012945695 0.054723043 0.09378245 0.012549059 -0.020512791 -0.057271525 -0.111884154
0.0136024505 -0.014625274 0.045066163 0.06352673 0.09055036 -0.048176106 -0.059273075 -0.028201776
00000000: 3aa7 cbbc 27d2 57bd d9a0 353d a1ec c2bd
00000010: d39b 293b b950 d9bd f02b 4e3d 6f00 00bd
00000020: ff95 d4b8 b418 4b3b 47b5 093c 751d a33c
00000030: 1f96 433d 1c80 f13d b279 3f3c b0cd 3d3d
00000040: 05e5 903d 2676 84bd 32e7 723d 9ce0 07bd
00000050: 6d63 163d c0f4 d23c dc49 72bd 9bf2 9c3d
00000060: 2657 e6bc c282 0d3e 3d11 e43d cebc a6bb
00000070: e042 f83c b735 7cbd f550 4cbd 99a0 5b3c
00000080: 5584 963d ddd6 3fbc 8c38 b93d 8889 c5bd
00000090: d716 e53c ca57 acbc d521 57bc 6891 0fbe
000000a0: 1106 443c 9906 afbd c48a a0bd 1bca 003e
000000b0: 7894 9abd 6d83 403d 94e9 623d c0de cb3d
000000c0: 3efc 333d e33a c63d b388 00bd e20a 79bd
000000d0: 119b 3cbd 8259 15be 6eb7 cbbc 5235 0ebe
000000e0: d057 68bd b8e4 90bd 15b2 1abd e25b 9eba
000000f0: 6f36 0abe 3765 05bd 9acd b23d 5a28 563c
00000100: 7243 763d 3779 e8bb 0692 d9bd 5af3 f6bd
00000110: fbe2 243d ffff b1bd 47ec 7bbd 0988 0b3d
00000120: f2d1 e5bd 111d e53d acee 4f3d fafe 643d
00000130: 9bac 513a cded 45bd 8324 e1bd 4aeb 963d
00000140: acc4 b43c ea50 bb3d 86e5 933d 5871 ff3b
00000150: 5c76 edbd f91c fbbd c806 96bc 7430 48bd
00000160: 7ccb 99bc 1a78 b6bd c329 4c3c 5296 143e
00000170: 2438 223c 04a1 de3d 042b 733d fe8c 80bb
00000180: ed45 00bd 2466 04be c3d7 d33d 83d4 c43d
00000190: d87f 5cbd 3a9f a13d ac9b c1bd 1c89 3a3d
000001a0: 9d5e 39bd 1a73 d53d 9031 b23d 4a7b d83c
000001b0: 18da 623d 5d71 bbbb 5662 9c3d 2a55 9abc
000001c0: f8e6 8dbd dbef 043e 8109 fb3d 493d 3abd
000001d0: 00a1 d13c dbbf c13c f3ff b53c 76b5 b8bd
000001e0: 2022 e6bd 5719 b4bd 27fa 21bd 06f5 3fbd
000001f0: 60e5 b73c acfa 28bd 7eb0 923d 14f3 5b3d
00000200: aab0 003e 6708 41bc 6a9d b53b 1616 bebd
00000210: e970 8b3d 04b8 0f3d 3d34 fdbd 6cf0 893d
00000220: d299 ba3b 46a1 13be 16ac 8dbd 295e 733d
00000230: c1bb a23d 1622 32bd 482c cebd 305f 323c
00000240: 38fb 153e 1751 25bc d7fa 80bd 4f69 11be
00000250: b009 b1bc 3d86 803d 61d1 58bc ca07 56bd
00000260: 8dee e53c c9a5 f63d 98d3 033d a940 9cbd
00000270: eb66 c73d 3ef0 0bbc 65fb b53d 3dc2 b93b
00000280: 446f 03be b63c e8bd 5ac5 cb3d a971 d8bd
00000290: a3c5 db3d 4046 ae3d 6a97 2fbe 2844 183d
000002a0: a656 003c ee4a 043e 5a9f e0bd 7e1b 623d
000002b0: f355 09bd dcac 0b3d ad8b 0ebd 5138 543d
000002c0: 94b1 e23c 74a0 053e 4f7c e1bc 86bd 4fbb
000002d0: 35ef 963d 7a66 e43c 917c 11be cd12 5f3d
000002e0: 83c5 523d d648 dabd 564c 203c b098 f6bc
000002f0: 740f ad3d d3f2 023d 531e 8a3d b276 ca3d
00000300: a1c6 733d fa54 0e3e 49ff f1bd 7ab5 a4bd
00000310: bdf6 babd 984f ae3d f12b 883d b0e3 00be
00000320: ba86 71bd d52f 463c 5944 aa3d f4a2 d43b
00000330: e853 7cbb 9492 f03d c3f9 ab3c 3a87 a23d
00000340: b655 ac3c 2c9a 083e c87c eebd a374 9fbd
00000350: 041b 543d 3e4b 293d fdb1 6abd 24f5 9fbd
00000360: db86 753d 7ecd c93c c459 b9bd 4de5 f83d
00000370: 8c8a 3fbb 3c51 383d 4996 06be 9102 c33d
00000380: 3f01 e9bd 2fcb 8b3d e445 e73d 39c1 6fbd
00000390: 2bcc c83c 0563 9d3d 3b42 04bc 7015 d3bd
000003a0: 5f0f 96bd b8c7 b8bc cce6 f8bc 4377 40bd
000003b0: b8fc ccbd f2d9 a5bd 2664 563d 7f07 a33d
000003c0: 96d0 3ebd 2e1a 543c 4525 603d 0311 c03d
000003d0: 929a 4d3c 710a a8bc 8c95 6abd 8523 e5bd
000003e0: d0dc 5e3c d89e 6fbc 4c97 383d 4d1a 823d
000003f0: 7872 b93d 4f54 45bd 53c8 72bd 6907 e7bc

lstm.bias_ih f4 [256]
0.04036966 -0.058958124 -0.010813029 -0.079760216 -0.094759874 -0.0054023457 0.120778106 -0.0030125438
-0.07900793 0.11423814 -0.08091861 0.044451073 0.12594701 -0.038431432 -0.10437324 -0.021745859
-0.032151017 -0.0072751893 -0.033133138 -0.06788909 0.13695416 -0.09646276 0.13659325 0.09709164
-0.077688046 0.035309896 -0.005148763 -0.028827937 0.051240347 -0.09803926 -0.08752291 -0.0967483
-0.05813279 -0.045537796 0.033184893 0.124937266 0.009616898 -0.049153883 0.102186486 0.066100486
0.115024805 -0.10251442 0.057911716 -0.021115245 -0.071509324 0.031542435 0.0186527 0.13255681
-0.047914084 0.088904314 0.019048717 0.13580133 -0.07710228 0.030087955 0.09054042 -0.068934865
0.03560293 0.0047461414 -0.07668764 -0.10747107 -0.07910958 -0.05363117 0.032138906 0.09750456
-0.023100019 -0.08206548 0.004012511 0.09665758 0.059625976 0.10963069 -0.079579644 -0.07144414
-0.11054909 -0.120285966 0.13959396 -0.021897994 0.11570475 -0.06672551 0.010783302 -0.067081936
0.04687514 -0.09009488 -0.051635586 -0.031106636 0.046658475 -0.12446276 0.1202619 0.08498997
0.128367 0.011713661 -0.07826091 0.111588374 -0.09061585 -0.0067250715 -0.056261692 0.044769663
0.00044778243 0.10398836 -0.0834941 -0.04437403 0.02655459 -0.08326803 0.09881071 -0.046715934
0.087940775 0.060059506 0.13317752 -0.014471052 0.030725399 -0.0074745445 0.11813108 0.010120687
0.086245276 -0.018070158 0.06928339 0.046987757 -0.0031595996 0.027191542 -0.025617916 0.0143808415
0.05335637 -0.04080021 -0.012251199 0.10005611 0.10087312 -0.09307386 -0.0134805245 -0.07611234
0.04780389 0.037301145 0.114081666 -0.103449956 -0.07699375 -0.037350487 -0.13962124 -0.11766982
0.014922868 -0.047047246 0.049238283 -0.112472996 -0.0041135726 -0.09482973 -0.10419733 -0.051593047
0.0736343 0.036069512 -0.05458821 0.117570825 -0.044380933 -0.10455688 -0.07404961 0.10135231
0.115244254 0.13085093 -0.08883937 -0.042837843 -0.12262831 -0.03167117 0.03556046 -0.0071356907
0.047052365 -0.028741462 0.016928308 -0.006285109 -0.09618442 0.12114396 0.067109466 -0.05017681
-0.029077923 -0.055426225 0.06986718 0.02230698 0.08877408 0.10969244 -0.06710738 0.07730887
-0.12058104 0.14021152 -0.007504875 -0.0025902544 0.092359945 0.00438309 -0.000652775 -0.036644652
-0.06592132 -0.13189252 0.0006843612 -0.044636957 0.12055593 -0.0735199 -0.044467308 0.013296073
-0.050001748 -0.08453141 -0.00858079 0.122537814 -0.047517203 0.04737397 0.001003889 -0.075954325
-0.06411602 -0.08028978 0.07548829 0.012684031 -0.092087194 0.14260301 -0.067568555 -0.0061014397
-0.0053423624 0.05057356 0.084710404 -0.07738909 0.08423584 -0.090071656 0.11655084 -0.027430955
-0.06596853 0.00017163271 0.08419907 -0.011356079 0.031325463 0.03749085 -0.008452364 0.027195018
0.11742032 0.14505076 0.112680346 -0.055752523 0.095819995 0.09069941 -0.06908432 0.1292411
0.093486734 0.11012345 0.12744205 -0.014085353 0.12305937 0.037096597 0.08281101 0.005507892
0.105411656 0.06393247 -0.005251117 0.06502133 -0.06564294 0.06999126 -0.013385003 -0.029308531
0.007796377 0.015391578 -0.05169741 0.073238015 0.07674582 -0.008039933 0.13783114 0.13124678
00000000: a85a 253d 137e 71bd 2129 31bc 5359 a3bd
00000010: 7711 c2bd 2906 b1bb 835a f73d 196e 45bb
00000020: e9ce a1bd b0f5 e93d a8b8 a5bd 5412 363d
00000030: 41f8 003e 476a 1dbd a3c1 d5bd 5f24 b2bc
00000040: c9b0 03bd b664 eebb 9db6 07bd 6f09 8bbd
00000050: b63d 0c3e 448e c5bd 1adf 0b3e fbd7 c63d
00000060: e91a 9fbd 1ca1 103d f4b6 a8bb 9128 ecbc
00000070: 66e1 513d cfc8 c8bd 363f b3bd f923 c6bd
00000080: a61c 6ebd d785 3abd e2ec 073d 1cdf ff3d
00000090: 3290 1d3c 9555 49bd 2647 d13d b15f 873d
000000a0: 2092 eb3d 15f3 d1bd d634 6d3d e1f9 acbc
000000b0: 7b73 92bd a432 013d 8ccd 983c f9bc 073e
000000c0: 8f41 44bd 7713 b63d 0e0c 9c3c 810f 0b3e
000000d0: cde7 9dbd 047b f63c 416d b93d b92d 8dbd
000000e0: 61d4 113d 8585 9b3b 690e 9dbd cb19 dcbd
000000f0: 3404 a2bd 5cac 5bbd 16a4 033d 79b0 c73d
00000100: 403c bdbc f211 a8bd 627b 833b 69f4 c53d
00000110: 5e3a 743d 0e86 e03d a7fa a2bd 4e51 92bd
00000120: 9067 e2bd 7d58 f6bd b8f1 0e3e 6c63 b3bc
00000130: 9df6 ec3d 62a7 88bd 72ac 303c 4162 89bd
00000140: 2600 403d aa83 b8bd d67f 53bd 58d3 febc
00000150: f51c 3f3d 55e6 febd df4b f63d 390f ae3d
00000160: a472 033e a8ea 3f3c 4247 a0bd 7288 e43d
00000170: ce94 b9bd fd5d dcbb a972 66bd 6560 373d
00000180: 57c4 ea39 d9f7 d43d f4fe aabd 8bc1 35bd
00000190: 0389 d93c 6e88 aabd 455d ca3d 3559 3fbd
000001a0: 4b1a b43d f500 763d b05f 083e fe17 6dbc
000001b0: d5b3 fb3c 06ed f4bb b5ee f13d 3dd1 253c
000001c0: 5da1 b03d de07 94bc 73e4 8d3d 3c76 403d
000001d0: 4911 4fbb ccc0 de3c aadc d1bc 9f9d 6b3c
000001e0: 368c 5a3d 1f1e 27bd 41b9 48bc 38ea cc3d
000001f0: 9196 ce3d 829d bebd 6bdd 5cbc c9e0 9bbd
00000200: 03ce 433d 16c9 183d a6a3 e93d 92dd d3bd
00000210: e6ae 9dbd d3fc 18bd dff8 0ebe e0fc f0bd
00000220: 0c7f 743c 9db4 40bd 15ae 493d 3e58 e6bd
00000230: 26cb 86bb 1736 c2bd 6965 d5bd 3b53 53bd
00000240: 94cd 963d a0bd 133d e397 5fbd f9c8 f03d
00000250: c8c8 35bd eb21 d6bd 52a7 97bd cd91 cf3d
00000260: 2e05 ec3d c9fd 053e 6af1 b5bd bc76 2fbd
00000270: 8d24 fbbd a1b9 01bd d8a7 113d 83d2 e9bb
00000280: fbb9 403d 3773 ebbc 3cad 8a3c 51f3 cdbb
00000290: 56fc c4bd 531a f83d b070 893d 3386 4dbd
000002a0: d334 eebc 9c06 63bd 8616 8f3d 21bd b63c
000002b0: 2fcf b53d 6ea6 e03d 986f 89bd 1d54 9e3d
000002c0: 31f3 f6bd 9c93 0f3e 74eb f5bb 42c1 29bb
000002d0: 3627 bd3d 06a0 8f3b fd1e 2bba b418 16bd
000002e0: c201 87bd d50e 07be b466 333a 3ed5 36bd
000002f0: 07e6 f63d 9a91 96bd 5a23 36bd c6d7 593c
00000300: a2ce 4cbd ce1e adbd 7196 0cbc 1bf5 fa3d
00000310: 66a1 42bd 350b 423d ed94 833a f18d 9bbd
00000320: 434f 83bd f86e a4bd 9b99 9a3d afd0 4f3c
00000330: 3698 bcbd 8606 123e 6261 8abd 96ee c7bb
00000340: fc0e afbb 3926 4f3d a67c ad3d 2c7e 9ebd
00000350: d783 ac3d 7d77 b8bd 35b2 ee3d e2b6 e0bc
00000360: 821a 87bd 4ef8 3339 9070 ac3d d90e 3abc
00000370: 214f 003d 0190 193d c97b 0abc 16c8 de3c
00000380: 117a f03d 3088 143e f4c4 e63d c25c 64bd
00000390: 463d c43d 9dc0 b93d 147c 8dbd c757 043e
000003a0: f975 bf3d 6788 e13d 2b80 023e 41c6 66bc
000003b0: 8d06 fc3d 9af2 173d d298 a93d 8c7b b43b
000003c0: 11e2 d73d 07ef 823d 9011 acbb e729 853d
000003d0: ce6f 86bd 9457 8f3d c64c 5bbc 7218 f0bc
000003e0: c078 ff3b f52c 7c3c aac0 53bd d0fd 953d
000003f0: ea2c 9d3d ecb9 03bc 9b23 0d3e 8e65 063e

lstm.bias_hh f4 [256]
0.036907334 -0.08977126 -0.069130436 -0.06906425 0.06184695 0.011948184 0.040821947 0.05316013
0.07708841 0.050735913 0.1257988 0.010602773 0.09679073 0.02407491 0.0949681 -0.016849944
0.022680458 -0.11393797 0.078238524 0.04794898 0.09165887 -0.07722056 0.10765888 0.080214955
-0.0393006 0.07395191 0.03025725 -0.0036923245 -0.08282492 0.06820822 -0.03501061 0.025401069
0.055374 -0.07320701 -0.03695425 -0.045145318 -0.012772692 0.08891441 -0.024553563 -0.007628597
-0.021109352 0.03295095 0.15217628 -0.06620519 -0.05003202 0.122274674 -0.03504908 0.1464764
0.08551983 0.12265047 0.07802357 0.04912249 -0.09951321 -0.08989659 -0.09351636 0.0921757
-0.0124359215 0.08625155 0.049332075 0.022317648 -0.012455858 -0.022358177 -0.08278553 0.07264997
-0.010459486 -0.0005362562 0.07253915 -0.02070215 0.11370047 0.13516837 0.13107409 -0.08024219
0.12949477 0.029759292 -0.02006399 -0.0851997 -0.05258653 0.028066047 -0.067405984 -0.093696825
-0.035884384 -0.05308457 0.1079711 -0.07683306 -0.084656835 -0.09723609 0.105994076 -0.036704965
0.04161789 -0.09574251 0.08804472 -0.09557618 0.034584917 -0.07291986 0.12625678 0.11141306
0.09506886 0.055620138 0.06116681 -0.049899444 -0.007767897 0.1399633 0.08037319 -0.015033669
0.043822147 -0.024913723 0.08370833 -0.04384204 0.0062485654 -0.018135428 0.13982472 -0.029470416
0.12909845 -0.07711316 0.02551449 -0.094921276 0.13947952 0.08772298 0.0597554 -0.03244716
0.008935647 -0.042625196 0.034566987 -0.09203087 -0.107904874 -0.009318329 0.15571357 -0.045806363
-0.05736697 0.12052776 0.09909527 -0.0796227 -0.12031439 -0.08892499 -0.036240857 -0.06670434
0.04315046 -0.035977203 0.033943426 -0.049593534 0.048526853 0.06894552 -0.050601278 -0.09898161
0.058615696 0.12083658 0.06903987 -0.053452957 0.10415054 -0.10141372 0.07206127 0.102627136
0.092696995 -0.0018826321 0.10041952 -0.026894812 0.010541175 0.11828635 -0.08838095 -0.09371509
-0.046106044 0.08352727 -0.01034152 0.030238131 -0.019971224 -0.09055797 0.0740649 -0.05478644
-0.015591485 0.013513851 -0.0650774 -0.0024898634 -0.021460261 0.093925655 -0.06549531 -0.1033339
0.10395386 -0.0873965 -0.10835974 0.13218437 -0.054610413 -0.09878888 0.099031195 0.008251791
0.052456353 -0.07047507 0.09971479 0.10616206 -0.082492895 -0.0034092471 -0.017826311 0.041695002
-0.09001155 0.014439027 0.013218413 -0.06818814 0.11775311 0.08168647 0.15438607 -0.086421765
-0.10453091 -0.012546677 0.036478847 0.07414056 0.1132285 0.06880147 -0.08043346 -0.03244758
0.13137184 0.0399682 0.034075588 -0.06417057 -0.04037675 0.03408433 0.13158883 -0.069221355
0.12576498 0.010124227 0.12906028 0.082280934 0.09651622 -0.080416486 0.10809847 0.098364666
3.0119856e-05 0.024609447 0.0049007577 0.017019728 0.0001820092 0.120889544 0.061356932 -0.030874519
-0.058729306 -0.10020355 0.027914409 -0.0518581 0.072898455 0.05731215 -0.026105255 0.0595739
-0.07391203 0.02744395 0.020010618 -0.013240093 0.04660176 0.022330107 -0.08610328 -0.059022393
-0.02028951 -0.0056574196 0.05908413 -0.052469604 -0.08024685 0.0929079 -0.051060304 0.14017744
00000000: 252c 173d ffd9 b7bd 4294 8dbd 8f71 8dbd
00000010: 3a53 7d3d 51c2 433c ea34 273d 70be 593d
00000020: 87e0 9d3d 76d0 4f3d 67d1 003e 41b7 2d3c
00000030: 383a c63d bf38 c53c a37e c23d e508 8abc
00000040: 5ecc b93c 4f58 e9bd 853b a03d 2666 443d
00000050: a5b7 bb3d d025 9ebd 427c dc3d bd47 a43d
00000060: aaf9 20bd 1974 973d 0dde f73c edfa 71bb
00000070: 1da0 a9bd c0b0 8b3d 4967 0fbd e715 d03c
00000080: d9cf 623d 8fed 95bd 575d 17bd 4cea 38bd
00000090: 8e44 51bc c218 b63d 8e24 c9bc 4ff9 f9bb
000000a0: 85ed acbc 93f7 063d 19d4 1b3e 9696 87bd
000000b0: 60ee 4cbd 256b fa3d a08f 0fbd e9fd 153e
000000c0: 0525 af3d 2b30 fb3d d2ca 9f3d aa34 493d
000000d0: 95cd cbbd b41b b8bd 8185 bfbd 9dc6 bc3d
000000e0: 09c0 4bbc a7a4 b03d 6e10 4a3d 80d3 b63c
000000f0: a813 4cbc 7f28 b7bc 768b a9bd 82c9 943d
00000100: 445e 2bbc 8b93 0cba 688f 943d 8e97 a9bc
00000110: cbdb e83d 9469 0a3e 4938 063e 0456 a4bd
00000120: 479a 043e c2c9 f33c 3d5d a4bc 2e7d aebd
00000130: f964 57bd c4ea e53c 260c 8abd 1fe4 bfbd
00000140: 81fb 12bd 356f 59bd f41f dd3d a75a 9dbd
00000150: 9060 adbd b723 c7bd 6c13 d93d f257 16bd
00000160: 8577 2a3d a614 c4bd ca50 b43d 72bd c3bd
00000170: eaa8 0d3d 0257 95bd 7549 013e 882c e43d
00000180: 76b3 c23d f1d1 633d 0d8a 7a3d 5c63 4cbd
00000190: d889 febb 8a52 0f3e b39a a43d c74f 76bc
000001a0: da7e 333d dd17 ccbc 466f ab3d b693 33bd
000001b0: c4c0 cc3b c090 94bc 362e 0f3e f16b f1bc
000001c0: 6232 043e 81ed 9dbd c403 d13c 1666 c2bd
000001d0: b8d3 0e3e 1ba8 b33d 14c2 743d 50e7 04bd
000001e0: d266 123c c297 2ebd 1d96 0d3d ae7a bcbd
000001f0: 3bfd dcbd e8ab 18bc 6173 1f3e 749f 3bbd
00000200: a1f9 6abd 42d7 f63d 76f2 ca3d 3a11 a3bd
00000210: 6467 f6bd 4e1e b6bd 4b71 14bd 499c 88bd
00000220: 89be 303d d55c 13bd 4308 0b3d 9722 4bbd
00000230: 18c4 463d 4f33 8d3d 4943 4fbd dfb6 cabd
00000240: 0317 703d 2b79 f73d c664 8d3d 7df1 5abd
00000250: e14c d53d ffb1 cfbd dc94 933d 2d2e d23d
00000260: ecd7 bd3d a7c2 f6ba c0a8 cd3d 8252 dcbc
00000270: e4b4 2c3c 1d40 f23d 1201 b5bd b2ed bfbd
00000280: b1d9 3cbd 5810 ab3d 7b6f 29bc f5b5 f73c
00000290: b19a a3bc 7576 b9bd 57af 973d bf67 60bd
000002a0: 6e73 7fbc 3369 5d3c 4d47 85bd fa2c 23bb
000002b0: 6ecd afbc 185c c03d 6822 86bd b9a0 d3bd
000002c0: c3e5 d43d f0fc b2bd b6eb ddbd 575b 073e
000002d0: 2baf 5fbd d351 cabd ded0 ca3d 8532 073c
000002e0: 79dc 563d 3c55 90bd 4537 cc3d 7e6b d93d
000002f0: 09f2 a8bd ad6d 5fbb 7c08 92bc 61c8 2a3d
00000300: fa57 b8bd ab91 6c3c 0b92 583c 39a6 8bbd
00000310: 8b28 f13d 3c4b a73d 6217 1e3e e5fd b0bd
00000320: 4d14 d6bd 9490 4dbc d86a 153d 02d7 973d
00000330: 58e4 e73d c9e7 8c3d 4cba a4bd c1e7 04bd
00000340: 5786 063e b2b5 233d d892 0b3d dc6b 83bd
00000350: 1762 25bd 039c 0b3d 39bf 063e edc3 8dbd
00000360: 89c8 003e 16e0 253c 6128 043e e882 a83d
00000370: 4caa c53d 66b1 a4bd bb62 dd3d 6a73 c93d
00000380: e6a9 fc37 c099 c93c 8996 a03b f56c 8b3c
00000390: b9d9 3e39 f094 f73d 6851 7b3d 8fec fcbc
000003a0: 248e 70bd 8537 cdbd c2ac e43c 2969 54bd
000003b0: c94b 953d 25c0 6a3d b0da d5bc c303 743d
000003c0: 315f 97bd 22d2 e03c 4fed a33c faec 58bc
000003d0: 7de1 3e3d a1ed b63c eb56 b0bd 77c1 71bd
000003e0: 3036 a6bc e061 b9bb 3302 723d 5eea 56bd
000003f0: 7658 a4bd 7f46 be3d 9c24 51bd ad8a 0f3e

output_layer.weight f4 [30, 64]
-0.12544174 0.087245055 -0.10345491 -0.14898695 0.16247241 -0.16099009 -0.025660044 -0.07883073
0.07144411 0.036246404 0.040195715 0.14975166 -0.16660033 0.09787483 -0.17137763 -0.071308814
0.05993671 0.14652757 -0.1535275 -0.15429065 -0.053528335 0.13806097 -0.11224886 -0.031585496
-0.056118112 0.1790211 -0.116753586 0.08344975 0.06764862 0.15818505 -0.07315448 0.15777199
-0.055524185 -0.14546767 0.05402907 0.07033134 0.03647726 0.13230304 -0.1352833 -0.16296647
0.08158571 0.15777144 -0.04308306 0.018822884 0.14309056 0.09687803 0.15903236 0.07038155
-0.14620627 0.13301502 0.13458571 0.06265538 0.038753387 -0.07727516 -0.120305106 0.14098454
-0.005866603 -0.118168816 0.09100099 -0.11403518 0.029000267 -0.010776698 -0.13841976 0.16161738
0.095158026 0.08491229 -0.07485311 0.05270398 -0.037280552 -0.08309633 0.0075202114 -0.04759072
-0.032107837 0.120554045 -0.08499723 -0.012486267 0.09368875 0.06846018 0.070778884 0.09350726
0.060335726 -0.05114734 0.076333635 -0.10069372 -0.06542759 0.11569361 -0.066129856 -0.029518874
0.008368245 -0.032631118 0.050755452 0.010717726 0.048022483 0.105797805 0.10693528 0.1285251
0.041694205 -0.025617326 -0.040843103 0.08960831 0.035413284 0.067742236 -0.052937623 0.04580817
0.07598468 -0.04100542 -0.013313291 0.032718733 0.12607016 0.008842317 0.04845272 -0.028000034
0.02174284 -0.024266502 0.02508131 -0.0041409833 0.08587026 -0.062195588 -0.052307747 0.090718254
-0.097210675 -0.05468064 -0.035342142 0.001030497 -0.10569815 -0.026655868 -0.08089282 0.061856057
-0.06072923 -0.0587644 -0.10122105 -0.04978665 0.09793614 0.055658452 0.06790225 -0.12518275
0.07982699 -0.09087499 0.15557705 -0.08917299 -0.029029267 0.047366563 -0.06331793 -0.10946172
0.06281754 0.12011983 0.013162094 -0.095497526 0.04442482 -0.037831176 0.11085619 -0.11169971
0.04455954 0.09285384 0.04947821 0.05988505 -0.13595156 0.09033603 0.07584308 0.05431787
0.07858425 -0.09344068 0.03678894 0.043553334 0.05529845 -0.015269989 -0.077258006 -0.06456502
0.05810891 0.13418269 -0.07390098 -0.07028203 0.09931363 0.11064131 0.06617699 0.033621065
-0.08591732 0.10080332 -0.03253114 0.037012894 -0.11680247 -0.09455518 -0.070339546 -0.07893275
0.04207902 -0.077835634 0.12153993 -0.01571798 -0.07692951 -0.061912578 -0.076875985 -0.07499244
-0.019515516 0.11068891 0.0674792 0.092477396 -0.06792457 0.06742107 0.09870245 0.034836415
-0.040673565 -0.007409525 -0.02480669 0.051636383 -0.07586757 -0.058478296 -0.0883477 -0.025710503
-0.044550896 -0.0027337382 -0.07091455 -0.1152732 -0.13445218 -0.007891381 0.021894416 0.06623951
0.02049885 -0.113698296 -0.06137288 0.061024744 -0.0050720223 -0.06724395 0.13120711 0.06532817
0.061200175 -0.044822596 -0.03069607 0.01620653 0.05983658 -0.066594146 0.06659881 0.0023008955
0.10714918 0.04405737 -0.047103185 -0.066397846 -0.038656846 0.0016135189 0.012260026 -0.005602576
0.03968992 0.10379191 -0.029275775 -0.015388552 -0.07900837 0.115708314 0.10988546 0.11623042
-0.08239473 -0.0715438 -0.06065847 0.09533658 0.06688524 0.083170615 -0.02572113 -0.022148244
00000000: cd73 00be 89ad b23d 2be0 d3bd 0990 18be
00000010: 2b5f 263e 96da 24be 0335 d2bc 0172 a1bd
00000020: 4a51 923d 1c77 143d 43a4 243d 8058 193e
00000030: 4799 2abe 9972 c83d 9e7d 2fbe 5b0a 92bd
00000040: 3280 753d 530b 163e 5036 1dbe 5efe 1dbe
00000050: 8740 5bbd db5f 0d3e bbe2 e5bd cb5f 01bd
00000060: 1bdc 65bd 4f51 373e 811c efbd b4e7 aa3d
00000070: 5c8b 8a3d 43fb 213e 04d2 95bd fb8e 213e
00000080: 546d 63bd 7af5 14be 964d 5d3d e109 903d
00000090: 2e69 153d 737a 073e b587 0abe afe0 26be
000000a0: 6916 a73d d68e 213e dd77 30bd 7332 9a3c
000000b0: 5586 123e fd67 c63d 61d9 223e 3424 903d
000000c0: 19b7 15be 1735 083e d6d0 093e 7751 803d
000000d0: dfbb 1e3d 7042 9ebd 8662 f6bd 405e 103e
000000e0: a23c c0bb 7e02 f2bd ba5e ba3d 478b e9bd
000000f0: f891 ed3c bf90 30bc e9bd 0dbe 077f 253e
00000100: 36e2 c23d 7fe6 ad3d 964c 99bd 21e0 573d
00000110: 7eb3 18bd 692e aabd 1b6c f63b 7dee 42bd
00000120: 8283 03bd 0ae5 f63d 0713 aebd 3393 4cbc
00000130: e3df bf3d da34 8c3d 85f4 903d bc80 bf3d
00000140: 9822 773d e07f 51bd cf54 9c3d 8238 cebd
00000150: e6fe 85bd c5f0 ec3d 176f 87bd 91d1 f1bc
00000160: f71a 093c 35a8 05bd f3e4 4f3d 6799 2f3c
00000170: 39b3 443d 85ac d83d e200 db3d 159c 033e
00000180: 8bc7 2a3d 6ddb d1bc 194b 27bd 9084 b73d
00000190: 850d 113d 71bc 8a3d 1fd5 58bd 59a1 3b3d
000001a0: db9d 9b3d 4df5 27bd fd1f 5abc 1404 063d
000001b0: 8918 013e 5edf 103c 5c76 463d 5460 e5bc
000001c0: 0a1e b23c 8bca c6bc 5277 cd3c 16b1 87bb
000001d0: bfdc af3d cdc0 7ebd a640 56bd 7eca b93d
000001e0: 6416 c7bd cff8 5fbd ecc2 10bd be11 873a
000001f0: 4678 d8bd 685d dabc 23ab a5bd c75c 7d3d
00000200: 37bf 78bd f1b2 70bd fb4c cfbd 16ed 4bbd
00000210: be92 c83d 1efa 633d 5610 8b3d e82f 00be
00000220: 557c a33d ab1c babd 974f 1f3e 54a0 b6bd
00000230: c9ce edbc 7103 423d d5ac 81bd 772d e0bd
00000240: 7ba6 803d 6301 f63d d3a5 573c 3594 c3bd
00000250: cdf6 353d ddf4 1abd 9208 e33d d1c2 e4bd
00000260: 1084 363d 272a be3d aaa9 4a3d 074a 753d
00000270: e336 0bbe 1902 b93d 9e53 9b3d 6a7c 5e3d
00000280: c7f0 a03d d45d bfbd 00b0 163d fb64 323d
00000290: a180 623d fa2e 7abc 7239 9ebd aa3a 84bd
000002a0: 9c03 6e3d 3067 093e 6659 97bd 06f0 8fbd
000002b0: f264 cb3d e997 e23d cd87 873d 3eb6 093d
000002c0: 6bf5 afbd f971 ce3d 5f3f 05bd d59a 173d
000002d0: 2236 efbd 25a6 c1bd 2e0e 90bd 7ea7 a1bd
000002e0: 0d5b 2c3d 4a68 9fbd ede9 f83d fec2 80bc
000002f0: 388d 9dbd 0b98 7dbd 2871 9dbd a395 99bd
00000300: 01df 9fbc deb0 e23d 8932 8a3d ca64 bd3d
00000310: 091c 8bbd 0f14 8a3d 8324 ca3d a1b0 0e3d
00000320: 5399 26bd 9acb f2bb 6637 cbbc ac80 533d
00000330: 7560 9bbd f086 6fbd a4ef b4bd d59e d2bc
00000340: 007b 36bd 8428 33bb a63b 91bd 5b14 ecbd
00000350: d5ad 09be da4a 01bc eb5b b33c 95a8 873d
00000360: 34ed a73c a7da e8bd 2162 7bbd 15f5 793d
00000370: 3533 a6bb 32b7 89bd 285b 063e c7ca 853d
00000380: 09ad 7a3d e697 37bd 5376 fbbc 8fc3 843c
00000390: 3417 753d 8362 88bd f564 883d 9fca 163b
000003a0: 0771 db3d 8075 343d 45ef 40bd 98fb 87bd
000003b0: a456 1ebd b67c d33a 47de 483c d095 b7bb
000003c0: e691 223d da90 d43d c0d3 efbc 4420 7cbc
000003d0: 24cf a1bd 7bf8 ec3d a10b e13d 370a ee3d
000003e0: 91be a8bd 8e85 92bd 0475 78bd d33f c33d
000003f0: 21fb 883d 5b55 aa3d 1fb5 d2bc 3c70 b5bc

output_layer.bias f4 [30]
0.105101705 0.05051421 0.00035164732 0.056371182 0.043983366 -0.10195295 0.059995428 -0.07036209
0.069792345 0.12394037 -0.09894998 -0.13301301 0.095083535 -0.063821055 0.07231876 0.0759628
0.10190632 0.024758782 0.11253628 0.009268277 -0.12848045 0.09095791 0.06594036 0.062438443
-0.0631941 -0.08935743 -0.1259748 -0.0771652 0.08930326 0.07094757
00000000: 903f d73d fde7 4e3d 4e5d b839 78e5 663d
00000010: e727 343d b5cc d0bd c4bd 753d 001a 90bd
00000020: 4aef 8e3d 73d4 fd3d 4aa6 cabd 9034 08be
00000030: 28bb c23d 9db4 82bd dc1b 943d 6292 9b3d
00000040: 43b4 d03d eed2 ca3c 6c79 e63d f9d9 173c
00000050: 6190 03be 2448 ba3d bd0b 873d 74bf 7f3d
00000060: e96b 81bd 0701 b7bd 8aff 00be ca08 9ebd
00000070: a1e4 b63d f64c 913d
